forecasting/artifact/bilstm_attention.pt (torch, 83339 bytes, 25 tensors)

lstm.weight_ih_l0 f4 [128, 6]
000000 2c 52 eb bd 7b 12 ba b9 73 6f da bd 7b 51 4a be
       -0.114902824 -0.00035490454 -0.106657885 -0.19757645
000010 b9 1d 4a be da ee f5 3c 45 1c 55 3e 7c 04 10 3d
       -0.19737901 0.03002112 0.20811565 0.035160527
000020 a3 04 26 be b2 d2 5b 3d dd b1 1c 3e 22 77 f3 3d
       -0.16212706 0.05366773 0.15302224 0.11887957
000030 a7 39 03 bc 8c 44 d9 3d f3 34 99 3d c1 8e 02 3e
       -0.008009351 0.106087774 0.074808024 0.12749769
000040 9d 3e de 3c 44 d2 77 3e 50 d7 61 bd 73 0f 11 bd
       0.027129466 0.24201304 -0.05513698 -0.035415124
000050 fd 37 6a 3e 44 22 42 bd 2e 29 0d be 8c e2 d3 3d
       0.2287292 -0.04739596 -0.1378524 0.10345945
000060 9a e5 cb be b8 a4 cf be 9e 52 13 bf 4e 7f 3b 40
       -0.3982361 -0.40555358 -0.5754794 2.929645
000070 cb 01 18 3f 40 8c 77 be be a8 d2 bd 81 5f cc bd
       0.59377736 -0.24174595 -0.10286091 -0.099791534
000080 80 dd b9 bd 5a b4 f2 3c bc 33 e1 bd 64 26 68 bd
       -0.09075451 0.029627014 -0.10996196 -0.056677237
000090 05 4b c4 3d 2a 71 54 bd 2e 99 f8 bd f8 01 dd bd
       0.09584621 -0.051865734 -0.12138592 -0.10791391
0000a0 99 a6 df bd 96 2a 55 bd e1 6b e4 bd b6 69 95 3b
       -0.10920448 -0.052042566 -0.11153389 0.004559721
0000b0 4b 30 30 3e fc 0f 20 be 62 e6 97 bd c9 ad 5f 3e
       0.17205922 -0.15631098 -0.07416989 0.21843638
0000c0 16 cc 0e 3e 04 6d 14 3e 6d 45 36 be 80 37 b9 bd
       0.1394504 0.14494711 -0.17799921 -0.09043789
0000d0 e4 12 48 3e 17 ef 6c 3e fc 6a 3d 3d 27 4e 1c 3e
       0.19538456 0.2313808 0.046244606 0.15264188
0000e0 af 28 45 bf a3 5f 08 3e 1a a9 11 3e a7 1c 15 3e
       -0.77015203 0.13317733 0.14224663 0.14561711
0000f0 ba e8 a5 3d 03 d6 1b bf 56 d9 d2 3e 84 7c d6 3e
       0.0810103 -0.6087343 0.4118144 0.41891873
000100 79 6d b0 3e 79 16 05 3e f6 0e ae bb c7 f4 12 be
       0.3445852 0.12996854 -0.005311842 -0.14351188
000110 93 3e bb 3d ad 4b 84 3d 91 50 41 be e1 c3 c7 bc
       0.091427945 0.064597465 -0.1887839 -0.024385395
000120 ec d6 b8 bc 54 68 f4 3c 8c 4f 95 3d 8c 4b ae bd
       -0.02256342 0.029834904 0.07290563 -0.08510503
000130 13 cc 39 be 57 48 55 be b9 db 01 be 65 d0 29 be
       -0.18144254 -0.20828377 -0.12681474 -0.16583402
000140 17 3a 36 3c 8b 66 50 3d 4f 9f 28 be 30 5d f6 ba
       0.011122248 0.050879043 -0.16467021 -0.0018796083
000150 07 02 2d 3f 24 ab 95 3e 70 15 2c 3e 84 9a 8d 3e
       0.6758122 0.29232132 0.16805053 0.2765695
000160 f5 03 27 3e 45 f5 b1 3d 33 66 e6 3d 2c 09 31 3e
       0.16310103 0.086893596 0.11249962 0.17288655
000170 87 d2 4d be eb 70 47 3e ac cd 89 3e 33 71 fc 3e
       -0.20099841 0.19476669 0.26914728 0.49305114
000180 82 35 65 bd 20 cc dd be a2 b7 12 c0 20 25 a2 be
       -0.055959232 -0.43319798 -2.292458 -0.3166895
000190 8a 0d 8a bf f4 4b e2 3e e8 30 3a bd 35 3d bc be
       -1.0785382 0.44198573 -0.045456797 -0.36765447
0001a0 95 51 4a 3f 64 69 be be b0 fa c1 be fa 11 a0 3e
       0.79030734 -0.37189782 -0.37886572 0.31263715
0001b0 af c0 6b bd 96 d6 50 be b0 f7 24 be 52 3c 4e be
       -0.057556804 -0.20394358 -0.1611011 -0.20140198
0001c0 84 55 27 be c9 7d 45 be 79 2e 0f 3f 1c e9 72 3e
       -0.16341215 -0.19286264 0.55930287 0.23721737
0001d0 0e a4 02 be 0c 08 19 bf e2 7d c8 be 79 4f 8b 3e
       -0.12757894 -0.59777904 -0.3915854 0.2720907
0001e0 8e fb 65 bc 20 39 6c be 62 98 82 be 18 71 c3 bd
       -0.014037026 -0.23068666 -0.25506884 -0.09543055
0001f0 cd 2d 74 bd 1b fc b9 bd c1 a0 ad bc 4f 7a a3 3e
       -0.05961399 -0.090812884 -0.021194817 0.31929252
000200 f4 ec 35 3f 46 33 cc 3e 1b 10 09 3f 97 14 35 3e
       0.71064687 0.3988287 0.535402 0.17683636
000210 b4 5e a9 bd 84 79 6c bf 69 76 d5 3f 6e 17 70 bc
       -0.08270016 -0.9237292 1.6676761 -0.014654024
000220 f6 c7 75 3f 1d 2d b1 be 05 d2 8e 3d 9a 1e c2 bc
       0.9600824 -0.3460473 0.06973652 -0.023696233
000230 7b 0e 8a be 23 b0 c7 bd 28 52 b8 bc ae 80 5e be
       -0.26964173 -0.09750392 -0.022500113 -0.21728775
000240 1c 09 0f 3e c3 dc a7 3b 9e ea 05 be 71 05 1a 3e
       0.13968319 0.0051227524 -0.1307778 0.15041138
000250 c9 67 0e bd 83 d6 91 be 33 45 f0 bd fe 0a 38 3d
       -0.034766946 -0.28483972 -0.11731949 0.044932358
000260 a9 b0 92 3d 24 7d 15 be 4d 91 29 be 7f 81 a1 be
       0.071626015 -0.14598519 -0.16559334 -0.3154411
000270 25 fa 57 bc 22 d0 8f 3f b4 4a 8b bf 70 81 48 3d
       -0.013182198 1.1235392 -1.0882173 0.048951566
000280 f9 fd 2a bf 22 e9 a8 3e b8 d4 6b be 38 f9 4a 3f
       -0.6679378 0.32990366 -0.23030365 0.7928653
000290 91 bf 94 bf b6 4d 80 3e d9 fc c1 be 9a fb 78 be
       -1.1620961 0.2505929 -0.3788822 -0.24314728
0002a0 75 3a e3 bc 9c 14 87 3c db 56 00 3e 29 bc 06 3e
       -0.027737835 0.01648932 0.12533133 0.13157715
0002b0 a1 00 a2 3d 3e 20 cd 3d 23 8b 4c bd 56 b6 d3 3d
       0.07910276 0.10015915 -0.04993738 0.10337512
0002c0 55 1a 97 3e 24 6e 0a 3e 16 f6 95 3e c7 c7 9a 3e
       0.29512277 0.13518578 0.2928931 0.30230543
0002d0 e5 c3 26 3d e4 8b 81 3d 66 33 c2 3d d6 f7 d0 be
       0.040714163 0.0632551 0.0948246 -0.40814084
0002e0 3a 68 7f 3d 64 61 84 be a1 6c 0c be b1 bd af 3d
       0.062355258 -0.25855553 -0.13713314 0.08581103
0002f0 97 93 44 be ce 08 49 3e b2 96 b2 3b 71 7c 81 3e
       -0.19196926 0.19632265 0.005450093 0.25290254
000300 45 0b 9c bd 20 bc fe bd 84 d8 e3 3e 45 39 b3 bd
       -0.07619337 -0.12438226 0.44501126 -0.08751158
000310 b4 21 11 bd bd e2 18 be b0 af 9e be 4c 61 66 3e
       -0.035432532 -0.14930244 -0.30993414 0.22498053
000320 56 6a e2 3d 4f 90 80 3e f8 63 b5 3e 67 f4 81 3e
       0.11055438 0.251101 0.35427833 0.25381777
000330 06 93 88 bf 13 48 ca bd 4d b1 c9 bd 08 4a 1e 3f
       -1.0669868 -0.09877028 -0.098482706 0.6183171
000340 14 b0 ee 3d 06 28 12 bf 4d ee 08 3e 22 f1 e6 bd
       0.11654678 -0.5709232 0.13372155 -0.11276461
000350 01 db a5 bd 06 6e bc 3d 39 51 a9 bd 3d 75 26 be
       -0.08098412 0.09200673 -0.08267445 -0.1625566
000360 e7 1f f2 bd 33 44 f4 bd f1 13 34 be 2a 17 31 bc
       -0.11822491 -0.119270705 -0.17585732 -0.010808745
000370 05 67 c9 be bf a4 a1 be 06 3f 1f 3d ec ba d8 3c
       -0.3933641 -0.31571004 0.038878463 0.026456319
000380 82 fc ee bd 45 03 23 bc 70 1a 8a bd 4d 9b 83 bd
       -0.11669256 -0.00994951 -0.06743324 -0.06426106
000390 a3 f9 9a 3d da 20 fb bd 86 3e 65 3e 26 6d 1b be
       0.07567146 -0.12262125 0.22387132 -0.15178356
0003a0 45 be 2d be e9 65 ae bc 4f 15 82 3d 1b 42 64 3f
       -0.16967113 -0.021288829 0.063517205 0.8916337
0003b0 28 67 bf 3e bc 67 06 3e 9b f8 2e 3e cb 2e 8f bd
       0.3738339 0.13125509 0.17087023 -0.06991347
0003c0 38 39 13 3e ba 60 05 be 3a 34 d9 bd ec 45 e1 bd
       0.14377296 -0.1302518 -0.106056646 -0.10999665
0003d0 9c 3f 33 bd 9e 3c 53 be 1b e6 9d 3d de 61 df bd
       -0.043761835 -0.20628592 0.07709905 -0.109073386
0003e0 49 d2 03 bd eb 9d a7 bd 72 c9 16 be 78 a5 a4 bd
       -0.032182965 -0.08184417 -0.14725283 -0.08039373
0003f0 6d 38 f2 3d 98 b0 e2 bc cc 2d 8d bd ec 07 10 be
       0.118271686 -0.027672097 -0.06893501 -0.14065522

lstm.weight_hh_l0 f4 [128, 32]
000000 82 8a 7a bd 8e 57 11 3e 96 27 61 bd 2a 2c bf bd
       -0.061167248 0.14193556 -0.054969393 -0.093345955
000010 dc 8e e3 be f7 92 8c 3c 04 4d d3 3d b8 6f 91 bd
       -0.4444493 0.017159922 0.10317424 -0.07101387
000020 69 20 4a 3d 48 fd df bc 25 5f 13 bd 8b 4b 37 bd
       0.049347315 -0.027342454 -0.03597941 -0.044749778
000030 66 1c 21 bd 2e c2 91 3d 50 2e 85 be 70 51 b2 3d
       -0.039333723 0.07117115 -0.26011896 0.08706939
000040 b2 c5 7b 3f db 19 41 3d 15 18 10 3d 55 4d 77 bd
       0.98348534 0.0471438 0.035179216 -0.060376484
000050 eb cc df 3d 27 8a 12 3c ce 82 71 3d 29 63 31 3e
       0.10927757 0.008944071 0.058962636 0.17322983
000060 f3 a4 9f bc fe ea 12 be 9f ce 81 3f 6a c7 87 3e
       -0.019487834 -0.14347455 1.0141181 0.26519328
000070 e0 82 4c be 94 d4 0c be d6 ef 95 bd 38 8f 95 bd
       -0.199718 -0.13752967 -0.07321136 -0.073027074
000080 93 7d 54 be e1 2b a0 3d 54 04 59 3e 99 ee f0 bd
       -0.20751028 0.07820869 0.21193057 -0.11764259
000090 23 69 7d 3e d4 07 ea bd d0 8d 96 3c 74 0f a2 bb
       0.24747138 -0.11427274 0.018378168 -0.00494569
0000a0 e2 20 d6 3e e9 ed 7a 3a e5 d6 35 3e 79 7c e3 3d
       0.41821963 0.00095721945 0.17757757 0.11107726
0000b0 dd ea 82 3e b9 92 ce 3c a7 5a 11 be 8b 63 5f be
       0.2556981 0.025216447 -0.14194737 -0.21815316
0000c0 8a a0 26 3e ca bd dc bc 87 e8 b4 3d d1 18 51 be
       0.16272178 -0.026945967 0.088334136 -0.20419623
0000d0 18 96 99 3d 91 18 22 be c5 d4 2f 3e 05 8c 3f 3e
       0.07499331 -0.15829684 0.17171009 0.18705757
0000e0 1d af 8d 3d 95 0d 67 be e6 6c 2f be fe d3 8e be
       0.06918166 -0.22563775 -0.17131385 -0.27896112
0000f0 61 f5 1d be 1a 69 7b bd 7a 7b 8c be 30 9a 30 be
       -0.15425636 -0.06137953 -0.27437955 -0.17246318
000100 6f fd f3 3e cf 80 b2 bd 1c 69 eb 3d 0b 37 f5 3e
       0.47654292 -0.087159745 0.114946574 0.47893557
000110 65 a0 5d 3f 34 f4 9d 3e 0b cc 84 be 5e 37 0a bf
       0.8657287 0.30850375 -0.25936922 -0.53990734
000120 30 07 97 bd 71 d7 a6 bd b8 fe ea be 1b 75 54 be
       -0.07374418 -0.08146561 -0.4589746 -0.20747797
000130 fd 1a dd 3c c7 13 17 bf 29 69 a0 be a0 47 47 be
       0.026990408 -0.5901455 -0.3133023 -0.19460917
000140 ab e8 b9 bf e7 37 83 3b b8 08 09 be 4c f2 82 3d
       -1.452413 0.004004467 -0.13382232 0.06393871
000150 a8 fc 48 be a9 99 cb bd 91 c9 3e 3e b5 34 1f be
       -0.1962763 -0.09941418 0.18631579 -0.1554745
000160 87 14 07 3f c6 2d 16 3e e6 ce a4 3d 93 de 16 3c
       0.527657 0.14665899 0.08047275 0.009208339
000170 d0 e8 b0 3c 50 f4 5c 3e 7f 7c ed bd 96 b1 22 be
       0.021595389 0.21577573 -0.11596011 -0.15888056
000180 53 51 41 3d 8b bd 97 bc c2 4e 26 be e7 1c cc bc
       0.047196697 -0.018522998 -0.16240981 -0.024916125
000190 55 41 b4 bf 10 f0 0d be 55 13 a6 3d d1 9a 55 3e
       -1.4082438 -0.13861108 0.08109156 0.20859839
0001a0 32 d0 60 bd a1 26 de 3c fc 65 07 3e 5e a2 3a bd
       -0.05488605 0.02711803 0.13222498 -0.045565
0001b0 23 84 8e bd 3c 23 40 3d 0b 64 5d bf ba 37 85 3d
       -0.06958797 0.046908602 -0.8648078 0.065047696
0001c0 0e c8 4d 3f 4b 67 50 3b f1 ff 1e be 0c 7d d4 bb
       0.80383384 0.0031799849 -0.15527321 -0.0064846333
0001d0 f2 ba da bd 00 3e e9 3c 2c 2f d8 bc ed 41 8c 3c
       -0.10680188 0.028471947 -0.02638968 0.01712128
0001e0 84 ff 71 bd 62 00 98 bd 95 5e 3b bf 07 63 4c 3e
       -0.05908157 -0.07421948 -0.73191196 0.19959651
0001f0 8d 45 89 bd 05 8f 8b 3d df 5c 21 3d 9f fc e0 3e
       -0.06702719 0.06814388 0.03939521 0.43942735
000200 c5 f9 1a bc ea 5c a4 3d 9f 17 2a be c0 fa 67 be
       -0.009458964 0.080255345 -0.16610573 -0.22654247
000210 3b e6 a0 bf df 3a c2 3d 23 86 00 3e d6 01 1f 3e
       -1.2570261 0.09483885 0.12551169 0.15528044
000220 76 a6 fc be 88 c2 0a bd 46 51 d3 3d 70 e7 0d be
       -0.4934575 -0.033876926 0.10318236 -0.13857818
000230 38 bc 2c be 98 31 3c be b9 b1 a5 bf cd 6b cd 3d
       -0.16868675 -0.18378294 -1.2944862 0.10030327
000240 a2 2d 9e 3f 18 43 e1 3d ad 35 5e 3e c1 8d 36 3f
       1.2357676 0.10999125 0.21700163 0.7131005
000250 5e 00 e9 bd ec 94 99 3e 00 9b 62 be a7 d6 86 3d
       -0.11377023 0.2999643 -0.2212944 0.065839104
000260 99 01 51 be 86 33 0c be 47 c2 c1 bf 8a af cd 3c
       -0.20410766 -0.1369153 -1.5137414 0.025108118
000270 bd a6 2d bf 2f 3a 21 3e 37 a6 3a be 2b 33 6b 3e
       -0.6783255 0.15744852 -0.18227468 0.22968738
000280 c4 22 d4 bd 21 70 da 3d 30 38 f5 bc fc 68 24 bd
       -0.103581935 0.10665918 -0.029934019 -0.040139183
000290 33 99 3d be 9d ee 30 3d c2 af 34 3e e5 03 21 3e
       -0.18515472 0.04319631 0.17645171 0.15724142
0002a0 54 8d 81 bc 1a 47 03 3d 03 dc 06 3d 67 b8 1a 3e
       -0.01581446 0.03205023 0.032924663 0.15109406
0002b0 92 42 1c 3e 99 46 34 3e 12 d0 d3 3c a2 03 c1 3d
       0.1525977 0.17605056 0.025856052 0.09424521
0002c0 98 66 94 3c f2 64 ed bc 6d 65 58 bd 33 2a 0f be
       0.018115327 -0.028978799 -0.052831102 -0.13980941
0002d0 48 95 dd 3d 60 07 9a bd d7 9f 28 3d 22 68 eb bd
       0.10819489 -0.07520938 0.04116806 -0.11494471
0002e0 bf 2b 04 3d 7f a4 e1 bd 32 02 82 3d 57 4c 4a bd
       0.032268282 -0.11017703 0.06348075 -0.04938921
0002f0 e0 71 e8 bd 6b 5f 58 bd 89 17 13 3e 22 f3 c7 bd
       -0.11349845 -0.052825373 0.14364447 -0.09763171
000300 3f 76 1c be ed 15 1f 3c 27 de 8a bc f6 5e 16 bc
       -0.15279482 0.009709817 -0.016951634 -0.009177914
000310 2c 3c 77 bf df a9 36 be 33 40 66 bd ba 95 32 3e
       -0.9657619 -0.17838238 -0.05621357 0.17439929
000320 79 04 46 bd a2 37 15 3e a9 24 37 3e 03 65 33 bd
       -0.04834411 0.14572003 0.17885078 -0.043797504
000330 f2 4d ed bc 54 d1 e7 bc f5 a0 8d be 6d 2a 23 3e
       -0.028967831 -0.028298058 -0.27661863 0.15934153
000340 ff e2 13 3f cf d5 27 be e9 5e aa 3c 51 8f 28 3c
       0.57768244 -0.16390155 0.02079721 0.010288076
000350 e3 b3 92 3d 65 51 2a 3e b5 ff b4 bd e0 af 2a 3e
       0.07163217 0.16632612 -0.08837835 0.16668653
000360 74 3a 4c be 8b b8 1b 3d dc 09 4a 3f 2d 99 95 3c
       -0.19944173 0.03801779 0.78921294 0.018261516
000370 fa e7 9f 3c 9d 53 1b 3d ec 42 b8 3a 6b 92 2a bc
       0.019519795 0.037921537 0.001405803 -0.010410885
000380 77 54 5e 3d 0c eb 70 be b4 51 04 3e 05 22 5f be
       0.05427977 -0.23527163 0.12921792 -0.21790321
000390 33 c1 05 bf a8 66 52 bd f5 05 18 3d 47 c6 3f 3e
       -0.52247924 -0.051367432 0.037115056 0.1872798
0003a0 a8 7d 1d 3e af 25 e2 bd 97 58 65 3d 8f 45 ab bc
       0.15379965 -0.11042344 0.05599269 -0.020907192
0003b0 4b 59 86 3c f2 8e a9 3d c2 3d ba bd 15 ce 73 be
       0.0164 0.08279218 -0.090938106 -0.23809083
0003c0 19 52 07 3f 06 ec a1 bb 68 36 c2 bc f0 58 17 3e
       0.52859646 -0.0049414663 -0.023707584 0.1478002
0003d0 9b 54 36 3c 4e 40 b7 bd 6d 38 66 3e 53 7d 29 bc
       0.01112857 -0.08947812 0.22482462 -0.010344821
0003e0 5b 38 cd bd c6 c2 63 be fa 3e ec 3e 2d c2 22 3e
       -0.100205146 -0.22242269 0.46141797 0.15894385
0003f0 a4 fa 6e be 85 29 8b 3e 8a b2 2f be 71 c5 38 bd
       -0.233378 0.27180114 -0.17157951 -0.04511017

lstm.bias_ih_l0 f4 [128]
000000 9e 25 dc bd 0f 2c 3c 3e 23 0d 2f 3e df 38 ad bd
       -0.107493624 0.18376182 0.17094855 -0.08458113
000010 b4 63 75 be ee 94 11 be 88 c7 0d be 7b eb c3 3c
       -0.23963815 -0.14216968 -0.13845646 0.023915997
000020 cb f1 f8 3c 26 f0 a2 3d 4d 54 5c 3e c1 f1 c0 3d
       0.030388733 0.07955961 0.21516533 0.09421111
000030 13 0f fd bd 3f b7 d1 bc ae e9 b7 3d a3 1e a3 3e
       -0.12356391 -0.025600074 0.08980118 0.3185931
000040 f5 f0 9f 3e af 66 ff 3d cb 69 94 be 69 80 cf 3d
       0.31238523 0.12470757 -0.28986964 0.10131914
000050 4a a3 59 bc cc 7a 6c 3e d1 63 ff be f3 97 90 bd
       -0.01328356 0.23093718 -0.4988084 -0.07060232
000060 d0 95 a2 be 08 9e 8b bd 43 79 12 3f b6 f4 3d be
       -0.31754923 -0.068172514 0.5721628 -0.18550381
000070 76 5f 14 be 15 73 9f 3e ca 94 fb be 18 8e d9 3e
       -0.1448954 0.31142488 -0.49136955 0.4249122
000080 39 59 a9 bc b9 99 44 3e 36 d5 3e bf 16 20 1e bd
       -0.020672427 0.19199266 -0.74544084 -0.03860482
000090 3a 7a 81 bc 1f 12 9f bd a8 0f 49 bd f4 f1 9f 3c
       -0.015805352 -0.07767128 -0.049087197 0.019524552
0000a0 e8 86 28 be 43 e3 40 3c 70 d6 3e be 22 88 65 bb
       -0.16457713 0.011772933 -0.18636489 -0.0035023768
0000b0 af bc aa 3c c8 6f 86 bd 31 30 73 3e d4 19 70 be
       0.020841924 -0.06564289 0.23748852 -0.23447353
0000c0 b7 c2 ef 3e 47 16 00 3d aa 2c 0b be 3c fa fd bd
       0.46828243 0.031271245 -0.13591257 -0.12401244
0000d0 0a eb 31 bd bb 37 a2 bd 97 e3 17 3e 34 e1 45 be
       -0.04343704 -0.07920786 0.14832912 -0.1932419
0000e0 cb 9b 3a 3e dd 55 c2 bd f4 d4 c0 3e 7e 52 07 be
       0.18223493 -0.09489033 0.3766247 -0.13215062
0000f0 da fd 9f be 58 a2 5f be 16 4d 15 bd 71 c2 9b 3e
       -0.3124836 -0.21839273 -0.036450468 0.30421785
000100 58 f7 57 3e bf cf 93 be 38 f3 e5 3e 0b 1b 6b 3e
       0.21090448 -0.28869435 0.44912124 0.22959535
000110 c5 0f 0f 3e 0b 41 c9 3d 5f cc d1 bd 36 f8 cc 3a
       0.1397086 0.09826859 -0.10244059 0.0015637937
000120 21 02 72 3e 87 a8 d4 3d dd f1 76 bd 1d 90 93 3d
       0.23633625 0.103837065 -0.060289253 0.07205222
000130 11 cd 42 be 56 14 13 3f d6 c7 10 3e 18 48 42 be
       -0.19023539 0.57452905 0.14138731 -0.18972814
000140 c3 cf 82 be ef 70 16 bf c8 96 19 3f 43 99 a3 be
       -0.25549135 -0.58766073 0.599957 -0.31952867
000150 fd a2 9b 3e e6 f7 dc 3e fa 7a c5 3b d0 3b 8b 3d
       0.30397788 0.43157881 0.006026623 0.06798518
000160 f1 88 94 3d a3 df 8c 3e 95 6f c0 3e 53 af 84 3e
       0.07252682 0.2751437 0.3758513 0.25915012
000170 2a 1e 5f be a9 86 38 be e2 95 94 bd e3 3c d6 3d
       -0.2178885 -0.18020119 -0.072551504 0.10460832
000180 ec eb 42 3d 41 2a b0 bc 32 b9 23 3e cf ba 16 3d
       0.047588274 -0.021504523 0.15988615 0.03679925
000190 43 3a ff 3d 76 ed 9d bd e7 e8 07 bd db 05 d7 bd
       0.124622844 -0.07711308 -0.033181097 -0.10499164
0001a0 c2 2c 17 3b a0 f3 78 be f6 43 40 be 7d 15 fb bd
       0.002306745 -0.24311686 -0.18775925 -0.12259958
0001b0 12 31 70 be a2 21 57 bd f5 ff 10 3f 64 30 34 3e
       -0.23456219 -0.05252231 0.5664056 0.17596585
0001c0 44 f2 23 3f 55 96 0a 3d 85 5a 3b be fb 09 23 bd
       0.64041543 0.033834774 -0.18296249 -0.03980444
0001d0 12 fd 84 bd cb 1a 68 3e 44 59 29 3d 3d 02 64 bd
       -0.06493582 0.2266647 0.041344896 -0.055666197
0001e0 d7 34 2b be 8e e9 50 3d c1 2c 60 3e 16 9e 90 3e
       -0.16719376 0.051003985 0.21892072 0.2824561
0001f0 a8 39 30 bd ad f2 e0 3e 57 fa 97 be 8b 3e d5 bd
       -0.043023735 0.43935147 -0.29683182 -0.1041232

lstm.bias_hh_l0 f4 [128]
000000 6f 7c 4d bd e7 9b 33 3e 2e d1 18 3d c3 62 bd bd
       -0.050167497 0.17539941 0.037308864 -0.09247353
000010 b6 f3 17 be bc 73 7c bd 9d 99 78 bc 46 dd 87 3e
       -0.14839062 -0.06163381 -0.015173343 0.26536006
000020 cd b4 97 bc 52 32 64 3e b8 2b 66 3e e6 eb 59 3d
       -0.01851883 0.2228482 0.22477615 0.053203486
000030 70 be 56 be 1f 3f ac 3b bd 3b b0 bd e9 6b ee 3e
       -0.20971084 0.005256548 -0.08605144 0.46566704
000040 b6 b0 13 3e c6 58 a8 bd c2 57 8c be 37 bb 31 3e
       0.14422879 -0.08220057 -0.27410704 0.17356573
000050 66 d5 20 be bc cd 1c 3e 96 37 14 bf b3 be af bc
       -0.15706405 0.15312856 -0.5789732 -0.021453237
000060 26 a9 85 be 9a 75 e4 bd c0 1a 0f 3f c7 91 a9 be
       -0.26105613 -0.11155243 0.5590019 -0.33119032
000070 c1 1c 84 be f7 33 ad 3e 6b 48 fd be f7 ec b6 3e
       -0.25803187 0.3382871 -0.49469313 0.35727665
000080 95 e7 24 bd 0f f1 d6 3d 79 10 24 bf b9 d8 03 be
       -0.040259916 0.10495197 -0.64087635 -0.12875642
000090 18 77 4f be 0c 80 83 bd dc 57 11 be 4c 73 a4 3c
       -0.20260274 -0.064209074 -0.14193672 0.02007451
0000a0 35 73 25 be 21 59 83 3c 22 5f 25 be 20 f2 1c 3c
       -0.16157229 0.01603371 -0.16149572 0.0095792115
0000b0 07 c9 12 bd 22 0d fb bc dc 4e 83 3e 4e a0 51 3c
       -0.035836246 -0.03064591 0.25646102 0.012794567
0000c0 1a 34 de 3e a5 02 b9 bb a4 d0 c2 bd b9 b3 cf bd
       0.43399125 -0.005646067 -0.09512451 -0.10141701
0000d0 7b b9 74 be f1 db 08 be a0 0c 8b 3e cd 5c 4b be
       -0.2389888 -0.13365151 0.2715807 -0.1985962
0000e0 8e e4 5f 3e 36 09 1f be 28 3b ab 3e 79 a9 a5 bd
       0.2186453 -0.15530857 0.3344357 -0.08088965
0000f0 92 df a4 be 63 53 68 be d5 a3 f1 3d 20 1b a1 3e
       -0.3220182 -0.2268806 0.117988266 0.31466007
000100 c4 f9 51 3e 6b 39 1f be 98 0f cf 3e 20 1c 5b 3e
       0.20505434 -0.15549247 0.40441585 0.21397448
000110 08 b0 40 3d c3 d4 e9 bd 01 5d e1 bd 3e 93 82 be
       0.047042876 -0.11417534 -0.11004067 -0.25502962
000120 99 ba 87 3e f4 ad b8 bd 27 3f 04 bd e8 52 0d bd
       0.2650955 -0.09017554 -0.03228679 -0.034502894
000130 4e d2 7a be d1 11 36 3f 2c e9 84 3e 34 c1 22 be
       -0.24494287 0.71120936 0.25959146 -0.15894014
000140 d3 a5 bb be 19 99 22 bf 1b 51 0c 3f 03 23 59 be
       -0.3664995 -0.6351486 0.5481126 -0.21204762
000150 92 0a 77 3d 4a 58 a1 3e dd 39 41 3e ae d3 02 3e
       0.060312815 0.31512672 0.1886973 0.12776062
000160 37 dc 17 3e 98 e1 8e 3e 0d c3 a8 3e 97 2d 84 3e
       0.14830099 0.2790649 0.32961312 0.25816032
000170 c7 07 52 be d2 4a a4 be 85 c9 20 be 2b 51 e1 3d
       -0.2051078 -0.32088333 -0.15701874 0.1100181
000180 9e 2f 9a 3d 54 cc ad 3d 55 52 26 3e c7 19 2c 3d
       0.075286135 0.08486238 0.16242345 0.04201677
000190 db df 0e 3e 94 15 2f be 36 e9 96 bd a0 94 42 3d
       0.13952582 -0.17098075 -0.073687 0.04750502
0001a0 05 5a 8f 3a 40 3d 48 bd 2f 4d 28 be de 10 24 be
       0.0010936862 -0.048886538 -0.16435693 -0.1602206
0001b0 df ee 65 be 36 e8 1f 3d dc 75 ad 3e 9a 3b 1b bd
       -0.22454403 0.039039813 0.33878982 -0.037898637
0001c0 4e 86 39 3f b6 fe b3 3d 41 58 34 be a3 f8 db 3d
       0.7247056 0.08788817 -0.17611791 0.10740783
0001d0 38 04 3d be ca f8 59 3e 10 83 4c 3e e1 cb 1a be
       -0.1845864 0.21286312 0.19971871 -0.15116836
0001e0 6f 3f 33 be da b3 a1 bc f9 00 a7 3e c5 16 d6 3d
       -0.17504667 -0.01973908 0.3261793 0.10453562
0001f0 ec 58 13 be fe 24 88 3e 8d 21 81 be 10 44 f2 3d
       -0.1438939 0.26590723 -0.2522091 0.11829388

lstm.weight_ih_l0_reverse f4 [128, 6]
000000 ff 41 cf 3c 1b 09 29 3f a9 9e 47 bf 29 c1 e0 3f
       0.025300024 0.6602952 -0.7797647 1.7558948
000010 3d bb 8b bf 44 ee 07 3f 89 ea a2 3f ac 08 78 be
       -1.0916516 0.5309794 1.2727824 -0.24222058
000020 1c 46 32 3c c0 82 54 3f 1d 98 d4 bd de 2f 62 bf
       0.010880973 0.8301201 -0.10380576 -0.8835429
000030 10 36 70 3c 45 9e 45 bd dd e5 e6 3c a5 37 ed 39
       0.014661327 -0.04824664 0.02818578 0.0004524562
000040 b3 f1 15 3e 4b ea ea 3e 3e aa ef 3d e3 17 aa 3e
       0.14642982 0.45881876 0.11702393 0.3322135
000050 ad 18 ba 3e 44 6f 6e 3e e2 0f ec 3d cc bf bc 3e
       0.3634695 0.23284632 0.11526467 0.3686508
000060 56 84 f9 bc 1e 04 69 bd a7 25 59 bf 50 77 b7 be
       -0.03045861 -0.056888692 -0.8482308 -0.35833216
000070 97 2d 07 bf ea 83 16 bc 0b 1e 88 3e 68 e6 23 bf
       -0.5280394 -0.009186724 0.2658542 -0.6402345
000080 d8 cd 9a be 35 7a e9 bd db ce cf be 6f 8e 83 3e
       -0.3023517 -0.11400262 -0.40587506 0.25694606
000090 84 da 27 bd 57 24 95 3e 14 36 66 be 3c f8 23 3e
       -0.040979877 0.29129288 -0.22481567 0.16012663
0000a0 7f 26 03 3e 75 84 1d be a4 a8 22 bf 17 07 16 bd
       0.12807654 -0.1538256 -0.63538575 -0.036627855
0000b0 60 27 7f 3e b6 a5 8f 3c 40 5a d3 bd ff 04 41 3e
       0.24917364 0.017535072 -0.10319948 0.18849562
0000c0 85 01 54 3b 5e 71 64 3e 89 da 31 3e 6a 27 e4 3d
       0.0032349539 0.22308871 0.17368521 0.1114033
0000d0 b5 c4 97 3d 37 14 04 3e bb 85 ee 3e d3 fa 4a be
       0.07410566 0.12898336 0.46586403 -0.19822244
0000e0 c1 c9 50 3e b4 fd 51 3e d2 34 51 be 3a 11 e1 be
       0.20389463 0.20506936 -0.20430306 -0.43958455
0000f0 78 7d c7 3d 9f 9a 2e 3c 30 a3 c8 bd cb 34 1b be
       0.09740728 0.010656982 -0.097967505 -0.15156858
000100 e9 8a 1e be 81 a2 2f 3c 15 ff 58 be 1a 96 93 3e
       -0.15482678 0.010719896 -0.21191056 0.28825456
000110 03 f9 01 3f 6b 17 18 3f 3b fb 77 3e 2a d1 aa 3d
       0.50770587 0.59410733 0.2421693 0.08340676
000120 dc c0 65 3e 56 35 8c 3e 4f 92 07 3f e4 43 8f 3e
       0.22436851 0.27384442 0.52957624 0.27981484
000130 ac a1 c8 3e a7 61 9a 3e a8 e5 da 3d 86 bc b1 3d
       0.39185846 0.30152628 0.10688335 0.08678536
000140 ef 2f 50 3d d1 96 4a 3d 55 e0 5c 3e c4 18 98 3e
       0.050826963 0.049460236 0.21569951 0.29706395
000150 9d 26 9f bd b6 5a 44 3e c7 14 ee 3e e3 85 2c 3e
       -0.07771037 0.19175228 0.46500227 0.16847949
000160 56 26 c5 3e 5f 10 b0 3e 2b 46 d1 3d ae 6e 10 3e
       0.3850581 0.3438749 0.102184616 0.14104721
000170 31 8c 17 3d a6 0c 28 3e c2 7a 7e 3d 33 08 07 3e
       0.03699893 0.16411075 0.06212879 0.13186722
000180 0c 56 11 3e 40 db 2c 3e 45 6e b7 3d 27 ea 96 3d
       0.1419298 0.16880512 0.08956579 0.0736888
000190 9d 50 80 3d b0 3e 71 3e 5d ed 19 3e e4 06 05 3f
       0.06265376 0.2355907 0.15031953 0.5196364
0001a0 0f 49 79 be 47 ad ff 3e 51 8c b6 3e 1f 9f a3 3e
       -0.24344276 0.49936888 0.35653928 0.31957337
0001b0 28 aa 6e 3a f2 11 65 be 74 00 20 bf c5 d8 a0 3f
       0.0009104335 -0.22370127 -0.6250069 1.2566153
0001c0 fe 1c 09 3f 86 59 e1 be 1f 15 67 3c 0a 09 af 3d
       0.53559864 -0.44013613 0.014104157 0.08546646
0001d0 d0 09 59 3e 98 40 84 3e 3e 32 dd 3d e1 60 87 3e
       0.2119515 0.2583053 0.108005986 0.264411
0001e0 64 3a 15 be 17 30 28 be 16 3d 61 be d3 a6 b3 be
       -0.14573056 -0.16424595 -0.21995959 -0.35088214
0001f0 10 22 5b be 56 4c cf bd aa 3c da 3d 04 61 e2 3d
       -0.21399713 -0.10121982 0.10656102 0.110536605
000200 ac 79 74 3e 47 f7 d7 3d 53 2d 64 3d ad 8f 94 3e
       0.23874539 0.10545211 0.055707287 0.29015866
000210 b2 c2 ff 3e c4 9a 86 3e 32 7d 2a bf b1 31 b3 3e
       0.49953228 0.26289952 -0.6659728 0.3499885
000220 24 d6 53 3f 3b c0 19 bf 5c da b7 bc 37 a1 d6 3b
       0.8274863 -0.60058945 -0.022442989 0.00654998
000230 b9 f3 72 be bd c1 94 be 55 ad e6 bd 00 7e dd be
       -0.23725785 -0.2905406 -0.11263529 -0.43260193
000240 c7 cb f1 bd 77 57 ee 3d d9 8f b2 3a 14 13 2b 3e
       -0.118064456 0.11637776 0.0013623192 0.16706496
000250 1b ea 2d 3d 59 f8 bc 3d 4c f6 b0 3f c8 dd dd 3e
       0.04245959 0.09227056 1.3825164 0.43333268
000260 55 f4 65 3f 5b d9 a9 3f cb a7 14 3e 4f 70 50 bf
       0.89825946 1.3269457 0.14517133 -0.8142137
000270 a8 38 93 bd c1 1b 28 3f ae 69 ae be f1 06 25 3c
       -0.07188541 0.6566735 -0.34065002 0.010072456
000280 3d 63 80 3d d6 11 39 3e 63 88 a5 3d d9 25 52 3e
       0.06268928 0.1807321 0.08082654 0.2052225
000290 5a 06 63 bd 60 65 90 be 01 35 de be 00 39 0d bf
       -0.05542598 -0.28202343 -0.43399814 -0.551651
0002a0 aa 65 e5 bd 45 ae 6e be cc eb 80 be 9e 7a 59 be
       -0.112010315 -0.23308666 -0.251799 -0.21238181
0002b0 90 2f d7 bd cc 46 96 be 38 b8 2a 3c e1 14 bd 3c
       -0.10507119 -0.2935089 0.010419898 0.023081245
0002c0 47 8c 9d 3d ca 66 3d be f6 5a 0b 3b 26 1a 6e be
       0.076927714 -0.18496242 0.0021263934 -0.23252162
0002d0 f1 c5 55 bd ad 98 05 3d 45 e7 b8 bd 40 1a 27 bd
       -0.052190725 0.032616306 -0.09028486 -0.04079652
0002e0 b9 05 15 3d 0a 38 92 3e 90 8f c4 bd 48 11 92 3f
       0.03638241 0.2855838 -0.09597695 1.1411524
0002f0 c7 4c 81 be 2b f3 cb bd 47 d3 f4 3e 9f 2a 81 3e
       -0.2525389 -0.0995849 0.47817442 0.2522783
000300 bd 17 60 bc e4 42 a8 3c 51 05 a1 be db 82 e1 bd
       -0.013677535 0.020539708 -0.3144937 -0.11011287
000310 08 03 17 bf 87 d1 08 bc c3 cb 87 bd ae 4a 14 bf
       -0.58989 -0.008350736 -0.06630661 -0.5792645
000320 9a c6 bd 3f 78 0d 86 3e bd 5d f8 3e 06 7e 2d 3a
       1.4826233 0.2618215 0.48509017 0.0006618205
000330 4c c4 08 3e f3 a9 ac 3c 64 72 91 3e 1e c9 0e be
       0.13356131 0.021077132 0.28407586 -0.13943908
000340 92 fd f0 be b7 d2 01 bf 9f 12 5a bd cf 1d 27 bd
       -0.4706846 -0.5071215 -0.053240415 -0.040799912
000350 b3 36 68 bd a7 42 bd 3d e2 93 90 3d cb b8 6f 3e
       -0.05669279 0.092412286 0.070594564 0.23410337
000360 a8 8d c9 bd cd cd b0 3e 59 ed 0e bf 58 b8 b5 3c
       -0.09841472 0.34532014 -0.55830914 0.022182629
000370 42 d9 68 3e a5 ce 9a 3e 51 10 c2 3d 8e fb 43 3e
       0.22739127 0.30235782 0.09475768 0.19138929
000380 cc 33 84 bc b3 cc 4e 3d 0a 02 5e 3e d6 89 d1 3e
       -0.01613798 0.050488185 0.21680465 0.40925473
000390 b0 c5 3e bd f9 f0 0e bf f5 42 47 be b9 43 53 be
       -0.04657525 -0.55836445 -0.19459136 -0.20631303
0003a0 8c 2a 0d bf 3b 97 58 3d 44 10 fa bd fb ab c5 bd
       -0.55143046 0.0528786 -0.12210134 -0.09651943
0003b0 df 29 47 bd b9 c7 9b bd 00 29 9f 3d b6 39 46 3e
       -0.048623916 -0.076064534 0.07771492 0.19357952
0003c0 b8 16 94 3c 63 3b 45 3f df 2c 99 3c b2 e1 8a bd
       0.01807724 0.7704374 0.018698154 -0.06781329
0003d0 5a d3 eb 3e cb 82 b1 3e 15 22 09 be 13 ed 16 3c
       0.46059686 0.346701 -0.13391908 0.009211796
0003e0 06 30 96 3d 44 80 68 3c df 31 08 3e 11 f2 6c 3e
       0.073333785 0.014190737 0.13300274 0.23139216
0003f0 89 db d4 3d c6 b9 b5 be 64 63 12 3f ef d7 32 3e
       0.103934355 -0.35493296 0.5718291 0.17465185

lstm.weight_hh_l0_reverse f4 [128, 32]
000000 c6 d7 1d bd 7d d6 9c 3e 97 6f 75 bf 9c df 82 3e
       -0.038535856 0.30632392 -0.958734 0.25561225
000010 fb c3 02 3d e4 f4 3f 3e a9 1d 64 3e d9 5e 15 3e
       0.031925183 0.18745762 0.2227694 0.14586963
000020 6f 9d 9a 3d d8 6c 99 3e 1a 96 26 bf 94 83 8c be
       0.07549559 0.29965854 -0.65072787 -0.27444136
000030 26 50 66 3e 55 de 46 bf e7 9a d7 be cc 51 66 3e
       0.22491512 -0.77683 -0.4211037 0.2249214
000040 eb 90 b2 3e 88 a3 36 3b 98 39 5c 3e af 6e ed be
       0.3487619 0.0027868468 0.21506345 -0.46373507
000050 c5 f2 a1 3e 87 ae 55 3e e2 37 23 bf 49 14 aa be
       0.3163053 0.20867358 -0.63757145 -0.332186
000060 7c 31 bd 3e ea 26 1e 3f df 49 15 be f3 aa 31 3e
       0.36951816 0.6177813 -0.14578961 0.17350368
000070 e5 ea fc 3e d2 25 ad bf f5 35 f8 be 06 d7 83 bf
       0.4939796 -1.3527167 -0.48478666 -1.0299995
000080 ef 7c d2 be e2 9f e6 be 63 2d 0b bf 8a 94 e4 3e
       -0.41110942 -0.45043856 -0.5436613 0.44644576
000090 34 47 d4 bd d6 94 81 3d 63 05 70 3d 0d 85 12 3e
       -0.103651434 0.06327216 0.058598887 0.14308567
0000a0 0b 10 b1 3e 9d 8a 2e 3e b9 56 04 3e 1d 3f 09 bd
       0.34582552 0.17045064 0.12923707 -0.033507455
0000b0 cb 48 12 be 36 b7 85 3e dc 43 4a be 47 9c 82 be
       -0.14285581 0.2611634 -0.19752449 -0.25509855
0000c0 e4 d8 20 bd 51 47 e9 bd e6 3c a2 3e 8a 5a b3 be
       -0.039269343 -0.11390556 0.31687087 -0.35030013
0000d0 65 bc 49 3e b4 b3 93 be e7 93 13 bf a0 1e 8a 3e
       0.19700773 -0.2884804 -0.57647556 0.2697649
0000e0 78 06 97 be 7b d1 0c 3f 6f 2a 1b bd 42 b2 8f 3d
       -0.29497123 0.5500714 -0.037882265 0.07016422
0000f0 7c 1a 08 3f f8 de b3 be 8c 35 bb bd 17 2a e1 3e
       0.5316541 -0.3513105 -0.09141073 0.43977425
000100 9e 56 b1 be 5b ac 1c 3e c7 74 16 be a6 c1 aa 3e
       -0.34636396 0.15300123 -0.14692985 0.33350867
000110 56 37 1f 3d 87 22 07 3e cf d4 b0 3c 18 e0 19 be
       0.03887113 0.13196765 0.02158585 -0.15026891
000120 f2 49 73 3e ae e1 ca 3e ae b9 77 3d d0 f0 2d be
       0.23758677 0.39625305 0.060479812 -0.16986394
000130 34 89 35 3e f5 57 24 bd cc ab bb bf 24 91 27 3e
       0.1772812 -0.040122945 -1.4661803 0.1636396
000140 ee 03 88 3e b9 21 7f be 4f c1 65 3e 7b 49 04 3e
       0.26565498 -0.24915208 0.22437023 0.12918656
000150 a3 32 d6 3c 70 81 09 3d 97 db 0c 3e 6e d5 a5 3d
       0.026147192 0.033570707 0.13755642 0.08097349
000160 bb fd 06 3e a2 20 fd 3d 2b 3c 50 3e fa 4e 55 3e
       0.13182728 0.1235974 0.20335452 0.20830908
000170 4f 0a d9 3d 39 fa 8b 3e 03 d4 b8 3d 68 64 b7 3e
       0.10597669 0.27339342 0.09024813 0.3581879
000180 18 25 b9 3e dc 75 4d be 89 48 72 be f6 d8 54 3e
       0.36161113 -0.20064491 -0.23660482 0.20785889
000190 e3 ef 04 be d4 e7 00 3f 9d 48 cc bd be 46 48 be
       -0.12982135 0.5035374 -0.099747874 -0.19558236
0001a0 0a 9c 87 3e c4 35 f0 3d 7a 83 6f bd 37 5c 66 be
       0.26486236 0.11729005 -0.058474995 -0.22496115
0001b0 81 f5 2d be bc 91 9f bd 62 d7 1f 3f 5f 48 20 3e
       -0.16988184 -0.077914685 0.62438023 0.15652607
0001c0 4d 64 ca 3d e6 18 74 be f5 1d 38 3e ae e7 02 3f
       0.09882412 -0.23837623 0.17980178 0.51134765
0001d0 10 02 19 be 71 0e 25 3d 06 c8 43 bd 53 44 3d 3e
       -0.14942193 0.040296976 -0.04779818 0.18483095
0001e0 90 82 20 be 5d e7 50 3e 3b 07 2f be c9 cd 8b 3c
       -0.15674806 0.20400758 -0.17092602 0.0170659
0001f0 f6 58 c1 3d 9e 85 2b be 65 7d 58 3e 9f ae 82 3e
       0.09440796 -0.1675019 0.21141584 0.2552385
000200 e3 5f 12 be 7c 74 fe be f8 60 35 be e1 6e 4a bf
       -0.1429439 -0.49698246 -0.17712772 -0.7907544
000210 1f 6b b5 3e c2 dd 32 c0 62 32 66 bf fa af 24 3f
       0.3543329 -2.794785 -0.8992063 0.6433102
000220 ce 1f 76 3f 00 e1 4a be aa 11 dc 3c b9 52 62 3e
       0.9614228 -0.19812393 0.026863892 0.22101869
000230 ef f1 13 bf 9a 5c 77 3d c9 b6 28 bd 9c 2a 12 3e
       -0.57791036 0.060391046 -0.041189943 0.14274067
000240 20 a8 ce 3e f4 29 67 be 82 72 b2 bd 7e ab 24 3f
       0.40362644 -0.22574598 -0.08713247 0.64324176
000250 3c 45 5e 3d df bb 59 bf 6c 66 8c be 4e a4 1e bf
       0.054265246 -0.85052294 -0.27421892 -0.6196946
000260 f0 2d 2f 3d 37 74 fc 3e ec 67 d1 3e b8 ad 24 bf
       0.04276842 0.49307415 0.408996 -0.64327574
000270 cc ba b3 3e 7b cb 61 be 06 ee 0e bf da 3d 16 bf
       0.35103452 -0.22050278 -0.55831945 -0.5868813
000280 a1 d6 61 bf 52 f1 a2 3f 15 91 fe 3e e4 85 8a 3c
       -0.8821812 1.2729895 0.49720064 0.016909547
000290 9b 3f 8c 3e 35 1d 03 40 81 36 5d be 2a fa b3 3f
       0.27392277 2.0486577 -0.21602823 1.4060719
0002a0 2b 3b d1 3e d4 9d 00 3f 2b c0 51 be 11 58 10 bf
       0.40865454 0.50240827 -0.20483463 -0.5638438
0002b0 1e b2 d4 3d 38 f3 76 3e b2 b1 01 3f eb 29 9d 3d
       0.10385536 0.24116218 0.50661767 0.07674011
0002c0 d1 fb 9e 3e 5d e5 5e 3e 07 21 98 3c 6b d5 e2 be
       0.31051496 0.21767183 0.018570436 -0.4430345
0002d0 e4 bc 0a 3f 40 1b ee be 7b 13 8c bf 42 19 7c bf
       0.54194474 -0.46505165 -1.0943445 -0.9847604
0002e0 aa f4 33 3f 5d 22 11 3f 2e 80 8d 3e 57 72 ad be
       0.702952 0.5669306 0.27636856 -0.33876297
0002f0 d6 11 a8 be 74 47 11 bf a2 0e 37 bf f9 25 e7 be
       -0.32826108 -0.56749654 -0.715067 -0.45146158
000300 96 f5 05 be 6c c4 de bc 68 02 5f be 69 bd 48 be
       -0.13081965 -0.02719327 -0.21778262 -0.19603504
000310 29 22 4c 3e 4a 2f a9 be a8 a9 27 be d1 91 d6 3e
       0.19934906 -0.3304389 -0.16373312 0.41908124
000320 9a 09 b5 3c 01 51 7d be 5e 58 e5 bd 6a a5 9e 3e
       0.022099305 -0.24737932 -0.11198495 0.30985576
000330 e0 2e ce 3d 41 31 e2 3d 50 f7 12 bf ad 92 4f 3d
       0.100675344 0.11044551 -0.5740862 0.05067699
000340 b0 10 b1 3d 86 1f 5c bd db f2 1d be 49 d0 57 3e
       0.08645761 -0.053741 -0.15424673 0.21075548
000350 5a bc b3 bd b3 5f d9 3d 41 c0 75 be 31 79 a4 3d
       -0.087761596 0.10613956 -0.2399912 0.08030928
000360 63 eb 8c 3e f0 92 84 bc 53 58 5a 3d 57 03 2c 3e
       0.27523336 -0.016183347 0.05330689 0.16798149
000370 3c 3a 82 3d 01 70 bb 3d d4 dc 82 bd a9 6c 09 bf
       0.063587636 0.091522224 -0.06389776 -0.5368143
000380 56 a5 92 bd d8 35 04 3d 6a 69 a7 bd bc 75 81 3f
       -0.071604416 0.032277912 -0.08174403 1.0114055
000390 ad e4 25 3e ef 74 32 3f d3 96 a4 3d 34 01 a7 be
       0.16200514 0.69709677 0.0803658 -0.32618105
0003a0 f1 e6 52 3e 1a e5 88 bd 13 22 60 bd bf 0f 80 be
       0.2059591 -0.06684323 -0.054719996 -0.25012013
0003b0 ef 58 ce 3e bd 92 c9 3d 00 f3 7a bf 0a 76 2a be
       0.40302226 0.09842441 -0.9802704 -0.16646591
0003c0 c3 eb 97 bd 3b 4f 8e be 26 78 a6 3e 3d a3 2f be
       -0.07418015 -0.27794823 0.3251354 -0.17152114
0003d0 7d 5a dd 3d 29 f7 28 3e 4e 2f 23 be 03 d9 43 bd
       0.10808275 0.16500534 -0.15936014 -0.04781438
0003e0 29 b1 83 3d 3a a0 91 3e 2f fb 9b bd 5a ce b7 3e
       0.06430275 0.28442556 -0.07616269 0.3589962
0003f0 66 99 f3 bd c4 30 80 3d 0c 92 25 bd 62 50 a7 3d
       -0.11894493 0.06259301 -0.040422484 0.08169629

lstm.bias_ih_l0_reverse f4 [128]
000000 57 65 93 3e 63 06 52 bf ba ab bd 3e f5 d5 24 3f
       0.28788254 -0.82040995 0.3704508 0.6438897
000010 92 a2 8c be a6 e3 e4 3e 5f 2f 3f be ba 84 88 3e
       -0.2746778 0.44704932 -0.18670414 0.26663762
000020 67 2a 67 3e 98 36 ca be 28 ad 39 be cf f8 8b 3d
       0.22574769 -0.39494777 -0.1813246 0.06834566
000030 32 51 80 3e 58 6d c2 3e 41 d7 a7 3e 79 60 72 3d
       0.25061947 0.37974048 0.32781413 0.059174035
000040 e1 36 dd 3e d5 06 c8 3e 70 26 11 bf 29 55 e0 3e
       0.43205932 0.39067712 -0.56699276 0.43814972
000050 b4 cf 81 be 79 7a 96 3e 07 71 55 bf a5 fd 28 bf
       -0.25353777 0.29390314 -0.8337559 -0.6601203
000060 2b 69 f2 3d 71 70 80 bf 55 bf 81 3e c3 85 f6 be
       0.118364654 -1.0034314 0.25341287 -0.48148927
000070 05 ab ba bd 20 8f 4a be 47 c7 97 3e f9 e3 a9 be
       -0.09114651 -0.1978116 0.29644224 -0.33181742
000080 7c 13 32 be 4c 2f e2 bd 47 6f d1 be 2b 78 94 3c
       -0.17390245 -0.110441774 -0.4090521 0.018123707
000090 1e 53 e2 3e 99 ba d2 3e 5d be c2 3d a7 89 30 3e
       0.44204038 0.41157988 0.09508965 0.1724001
0000a0 09 3d fe 3e bf 7c 97 3e 48 71 7a bd 7c 06 3c 3e
       0.4965594 0.2958736 -0.06114319 0.18361849
0000b0 4a d1 e2 be 42 2a 77 3e 79 fd b9 3e 71 41 88 3e
       -0.443003 0.24137214 0.36326197 0.26612428
0000c0 d8 ec 67 3e d0 b4 c6 3e c2 a9 46 3e 82 e3 e8 3e
       0.22648942 0.38809824 0.19400695 0.45486075
0000d0 8f a8 9d be 2c 40 9a bd da a9 e0 3e f4 53 b1 3e
       -0.30792663 -0.07531771 0.43879586 0.34634364
0000e0 86 5a a7 3d 0a 44 94 3e ab 46 0c be d5 da ef 3d
       0.08171563 0.2895816 -0.13698833 0.11711661
0000f0 bc 46 fa bd aa 50 11 be 35 4b e2 be 26 8f ed be
       -0.12220523 -0.14190927 -0.44198003 -0.46398276
000100 b5 de da be ad c6 5e be 67 97 6d be cc 40 80 3e
       -0.42748037 -0.21755476 -0.23202287 0.25049436
000110 83 05 8b 3e 1c 16 fb 3d 19 d5 fe 3d 33 ab 2e 3e
       0.27152643 0.122600764 0.12442989 0.17057495
000120 24 e7 d2 be 5e e3 21 3e 18 d3 0a be a2 bd 1e 3f
       -0.4119197 0.1580939 -0.13557088 0.62008107
000130 8e 0a d5 3e 10 b7 72 be fb 84 9a be ba 1d aa be
       0.41609615 -0.23702645 -0.3017958 -0.33225805
000140 e6 6c 15 be 07 0a 21 3f 09 fd e5 3d 67 29 83 3e
       -0.14592323 0.62905926 0.11229903 0.25617525
000150 0c 32 c7 bd 95 eb 65 3e 0d 9b 89 bd 1c 9b bf 3d
       -0.097263426 0.22453149 -0.06719027 0.09355757
000160 20 cf 56 bd 7f b3 9d 3e c6 71 fb bd d7 a0 64 be
       -0.052443624 0.30801007 -0.1227756 -0.2232698
000170 fa cc 48 3e 6e be b1 bd ba 2a a8 be 11 b6 12 bf
       0.19609442 -0.086789 -0.32845098 -0.5730906
000180 23 d2 a7 3e 3a 9d d0 3e ca 65 e1 3e d3 a9 1e be
       0.3277751 0.40744954 0.4402297 -0.1549447
000190 eb 9f db 3d ff 25 3d bf 23 fa c0 be b1 85 ce bd
       0.10723861 -0.738861 -0.3769084 -0.10084093
0001a0 cb 35 a7 bd 77 06 36 3e 1f 96 12 be 07 c5 34 3e
       -0.08164557 0.17775904 -0.14315079 0.17653285
0001b0 4a a0 a6 3e a8 79 0d bd 35 20 4e 3d 07 5e ea bd
       0.32544166 -0.03453985 0.050323684 -0.114437155
0001c0 68 98 e0 3d 5b 75 db 3e ac 53 36 bd 54 97 97 3e
       0.10966569 0.42862973 -0.04451339 0.29607642
0001d0 3f 1d 83 be 8d d1 99 3d 7d 4e 05 3e 30 13 13 3c
       -0.2560825 0.07510672 0.13018222 0.008976743
0001e0 b6 2e ad bc ee cb ff 3e 75 ee 82 bd b7 c9 61 3e
       -0.021140438 0.49960274 -0.06393138 0.22049604
0001f0 ac d7 cb bd 64 aa 18 be 92 56 b7 bd 43 33 1b 3e
       -0.099532455 -0.14908749 -0.08952059 0.15156274

lstm.bias_hh_l0_reverse f4 [128]
000000 cd 14 a2 3e 40 1f 7b bf b7 fc c5 3e 7f b5 04 3f
       0.31656495 -0.9809456 0.3866937 0.5183944
000010 29 4c a9 bd fc e1 95 3e 9a 3f 4e bd b3 ca c3 3e
       -0.082664795 0.29273975 -0.050353624 0.38240585
000020 e4 5c a2 3e a4 fc c5 be f8 a9 3f 3c 99 81 b4 3d
       0.31711495 -0.38669312 0.011698239 0.08813781
000030 9e 1f 8b 3e 67 57 91 3e 9f c7 d3 3e 55 46 17 3e
       0.2717256 0.28386995 0.41363236 0.14772923
000040 10 9d eb 3e c3 8a fa 3e b7 c1 3e bf 4c 09 8e 3e
       0.46018267 0.48933992 -0.74514335 0.27741468
000050 ea c4 73 be 24 f4 70 3e c6 24 59 bf 14 02 2e bf
       -0.23805586 0.23530632 -0.84821737 -0.6797192
000060 d1 2f 8d bd 50 08 8a bf cf 6a 1d 3e b3 5a ba be
       -0.06893886 -1.0783787 0.15372775 -0.36397323
000070 cc ca 74 be 4d 19 cc be 4d 0d 7f 3e 8e ee ac be
       -0.23905486 -0.39863053 0.24907418 -0.33775753
000080 73 46 06 3c 49 87 16 3d eb 0c 11 bf f3 35 79 3e
       0.008195507 0.03675011 -0.56660336 0.24336986
000090 60 91 e8 3e 91 09 63 3e ad 1b 51 3d 65 78 95 3e
       0.45423412 0.22171618 0.051051784 0.29193416
0000a0 13 68 02 3f c0 e2 89 3e 15 c9 2d 3e e4 d2 4b 3e
       0.50940055 0.2693081 0.16971238 0.19904667
0000b0 67 7d c5 be 40 5b 58 3e f2 4e c4 3e 8a 38 76 3e
       -0.38572237 0.21128559 0.3834148 0.24045005
0000c0 5f d4 8f 3e 61 8e d3 3e a7 47 83 3e 7c 27 8c 3e
       0.28091714 0.41319564 0.25640604 0.27373874
0000d0 18 c2 0d be 6e fe e5 3d 78 f4 81 3e 7c 13 9b 3e
       -0.13843572 0.11230169 0.25381827 0.30288303
0000e0 1e 47 8b 3e d2 b1 db 3e 3f 82 3f bd a8 1c 8a bd
       0.27202696 0.42909104 -0.04675507 -0.06743747
0000f0 39 08 d0 bd 44 3b 65 be c7 7f e0 be d5 92 ee be
       -0.10157818 -0.2238589 -0.43847486 -0.465964
000100 aa c8 13 bf a3 ee 90 be 0d 3a eb be ac ea 77 3e
       -0.57728064 -0.28307065 -0.45942727 0.24210614
000110 51 56 c7 3d c8 67 9c 3e 0f 30 0a 3e e0 05 02 3c
       0.097332604 0.3054793 0.13494895 0.007935971
000120 22 9a 13 bf 28 99 a5 bc 04 65 f0 bd 4a ec 30 3f
       -0.57657063 -0.020214632 -0.11738017 0.6911055
000130 72 ae f8 3e cf 5d 8d be 98 06 eb be 0f 79 55 be
       0.4857059 -0.27610633 -0.45903468 -0.20846961
000140 36 53 05 be 94 72 2c 3f 5c 5b 98 3e 05 44 d0 3e
       -0.13020024 0.6736233 0.29757202 0.40676895
000150 77 91 c3 bc c6 f4 b5 3e 36 b1 77 bd c8 aa 9f 3e
       -0.023873074 0.3553831 -0.060471736 0.31184983
000160 69 8b a6 3c aa 7d 9d 3e 90 ac 0d be 2a d8 49 3c
       0.020330148 0.30759937 -0.13835359 0.012319604
000170 81 df 48 3e 9f ca a4 3d e5 c8 6b be 8a 5b d5 be
       0.1961651 0.080464594 -0.23025854 -0.416714
000180 b1 32 f6 3e 11 92 96 3e c1 8d cd 3e 63 d8 1b 3c
       0.4808555 0.29408315 0.40147212 0.00951204
000190 92 89 85 3e f8 b8 24 bf dc 68 cb be 43 fc 25 bd
       0.2608152 -0.6434474 -0.3972844 -0.04052378
0001a0 fe a3 00 3e e0 83 ad 3d 88 0a a0 be 80 14 c7 3d
       0.12562558 0.08472419 -0.31258035 0.09720707
0001b0 06 fc 25 3e 37 68 d2 3d c7 db 24 3e 87 b3 2f be
       0.1620942 0.10273784 0.16099463 -0.17158328
0001c0 45 f7 bf 3d 14 32 ce 3e f8 e5 2f be 6f b0 ae 3e
       0.09373335 0.40272582 -0.1717757 0.34118983
0001d0 8b 8c 71 be 7a bd 1a 3d 36 d9 61 3e d5 84 d3 3d
       -0.23588769 0.037778355 0.22055516 0.1032807
0001e0 17 63 2f be f5 f8 b1 3e ac 0f 80 be 5a fd 7f 3e
       -0.17127644 0.34760252 -0.25011957 0.2499899
0001f0 e0 f9 99 be 0e bf 65 be 72 a3 f8 bd a6 eb 6f 3e
       -0.30073452 -0.22436163 -0.1214055 0.23429736

norm.weight f4 [64]
000000 00 00 80 3f 00 00 80 3f 00 00 80 3f 00 00 80 3f
       1.0 1.0 1.0 1.0
000010 00 00 80 3f 00 00 80 3f 00 00 80 3f 00 00 80 3f
       1.0 1.0 1.0 1.0
000020 00 00 80 3f 00 00 80 3f 00 00 80 3f 00 00 80 3f
       1.0 1.0 1.0 1.0
000030 00 00 80 3f 00 00 80 3f 00 00 80 3f 00 00 80 3f
       1.0 1.0 1.0 1.0
000040 00 00 80 3f 00 00 80 3f 00 00 80 3f 00 00 80 3f
       1.0 1.0 1.0 1.0
000050 00 00 80 3f 00 00 80 3f 00 00 80 3f 00 00 80 3f
       1.0 1.0 1.0 1.0
000060 00 00 80 3f 00 00 80 3f 00 00 80 3f 00 00 80 3f
       1.0 1.0 1.0 1.0
000070 00 00 80 3f 00 00 80 3f 00 00 80 3f 00 00 80 3f
       1.0 1.0 1.0 1.0
000080 00 00 80 3f 00 00 80 3f 00 00 80 3f 00 00 80 3f
       1.0 1.0 1.0 1.0
000090 00 00 80 3f 00 00 80 3f 00 00 80 3f 00 00 80 3f
       1.0 1.0 1.0 1.0
0000a0 00 00 80 3f 00 00 80 3f 00 00 80 3f 00 00 80 3f
       1.0 1.0 1.0 1.0
0000b0 00 00 80 3f 00 00 80 3f 00 00 80 3f 00 00 80 3f
       1.0 1.0 1.0 1.0
0000c0 00 00 80 3f 00 00 80 3f 00 00 80 3f 00 00 80 3f
       1.0 1.0 1.0 1.0
0000d0 00 00 80 3f 00 00 80 3f 00 00 80 3f 00 00 80 3f
       1.0 1.0 1.0 1.0
0000e0 00 00 80 3f 00 00 80 3f 00 00 80 3f 00 00 80 3f
       1.0 1.0 1.0 1.0
0000f0 00 00 80 3f 00 00 80 3f 00 00 80 3f 00 00 80 3f
       1.0 1.0 1.0 1.0

norm.bias f4 [64]
000000 00 00 00 00 00 00 00 00 00 00 00 00 00 00 00 00
       0.0 0.0 0.0 0.0
000010 00 00 00 00 00 00 00 00 00 00 00 00 00 00 00 00
       0.0 0.0 0.0 0.0
000020 00 00 00 00 00 00 00 00 00 00 00 00 00 00 00 00
       0.0 0.0 0.0 0.0
000030 00 00 00 00 00 00 00 00 00 00 00 00 00 00 00 00
       0.0 0.0 0.0 0.0
000040 00 00 00 00 00 00 00 00 00 00 00 00 00 00 00 00
       0.0 0.0 0.0 0.0
000050 00 00 00 00 00 00 00 00 00 00 00 00 00 00 00 00
       0.0 0.0 0.0 0.0
000060 00 00 00 00 00 00 00 00 00 00 00 00 00 00 00 00
       0.0 0.0 0.0 0.0
000070 00 00 00 00 00 00 00 00 00 00 00 00 00 00 00 00
       0.0 0.0 0.0 0.0
000080 00 00 00 00 00 00 00 00 00 00 00 00 00 00 00 00
       0.0 0.0 0.0 0.0
000090 00 00 00 00 00 00 00 00 00 00 00 00 00 00 00 00
       0.0 0.0 0.0 0.0
0000a0 00 00 00 00 00 00 00 00 00 00 00 00 00 00 00 00
       0.0 0.0 0.0 0.0
0000b0 00 00 00 00 00 00 00 00 00 00 00 00 00 00 00 00
       0.0 0.0 0.0 0.0
0000c0 00 00 00 00 00 00 00 00 00 00 00 00 00 00 00 00
       0.0 0.0 0.0 0.0
0000d0 00 00 00 00 00 00 00 00 00 00 00 00 00 00 00 00
       0.0 0.0 0.0 0.0
0000e0 00 00 00 00 00 00 00 00 00 00 00 00 00 00 00 00
       0.0 0.0 0.0 0.0
0000f0 00 00 00 00 00 00 00 00 00 00 00 00 00 00 00 00
       0.0 0.0 0.0 0.0
