forecasting/artifact/bilstm_attention.pt (torch, 294035 bytes, 37 tensors)

lstm.weight_ih_l0 f4 [256, 6]
0	0x3c5ee665	0.013604735
1	0x3de3208c	0.11090192
2	0x3daccda3	0.084376596
3	0x3d0b8606	0.03406336
4	0x3d6912e4	0.05690278
5	0x3e16ba90	0.14719605
6	0xbb4ec1a5	-0.0031548527
7	0x3db90a7a	0.09035201
8	0xbc4b5817	-0.012411139
9	0x3d459b9b	0.0482441
10	0x3d854f5d	0.06509278
11	0x3ddb4691	0.10706819
12	0xbcd08030	-0.02545175
13	0x3d665228	0.056230694
14	0xbdc18f95	-0.09451214
15	0x3e178d49	0.1479999
16	0x3dea3c0c	0.11437234
17	0xbd3b232c	-0.04568784
18	0x3e3a62c9	0.18201746
19	0x3e6d99a1	0.23203136
20	0x3ebae03b	0.364992
21	0xbe43b4eb	-0.19111983
22	0x3de4bacb	0.111684404
23	0xbe7064e8	-0.23475993
24	0xbe290833	-0.16507034
25	0xbdb59250	-0.088657975
26	0xbe657e93	-0.22411565
27	0xbd8b68b4	-0.0680708
28	0xbe446130	-0.19177699
29	0xbd7a3cdd	-0.0610932
30	0xbc0e0e30	-0.008670375
31	0x3e0e426c	0.13892525
32	0x3cba0cf2	0.02271125
33	0x3e15df63	0.14635997
34	0x3d43a881	0.04776812
35	0xbcd27f19	-0.02569537
36	0xbe216d2d	-0.15764304
37	0x3e317339	0.1732911
38	0x3e4d67e9	0.2005917
39	0xbc2f1e46	-0.01068837
40	0x3dc7b285	0.09750847
41	0x3e2a0f8a	0.1660749
42	0x3dccacbe	0.099938855
43	0x3da3f868	0.08006364
44	0x3dcb7621	0.09934641
45	0xbe4be9ea	-0.1991345
46	0x3cee31ee	0.029076543
47	0x3e86df8f	0.26342437
48	0x3da87d61	0.08227039
49	0xbc41cc21	-0.011828453
50	0x3d99f6b3	0.07517757
51	0xbd8702ae	-0.06592308
52	0xbd61c58b	-0.055120032
53	0xbe5caf8f	-0.21551345
54	0xbe006ea7	-0.1254221
55	0xbe23c58a	-0.15993324
56	0xbc097455	-0.008389552
57	0xbdb7152d	-0.08939586
58	0xbdc79ec6	-0.097470805
59	0xbe39dc56	-0.18150458
60	0x3e42bcbc	0.19017309
61	0x3fb5a6c0	1.4191513
62	0xbdc6ddd9	-0.09710283
63	0x3db56546	0.08857207
64	0x3f037207	0.51345867
65	0x3e9783f0	0.29592848
66	0x3c612fbd	0.013744292
67	0xbda66ab4	-0.08125821
68	0xbe46b06a	-0.19403234
69	0xbdbf9f8d	-0.09356604
70	0xbe2606d8	-0.16213548
71	0xbd04a017	-0.032379236
72	0xbd985fba	-0.074401334
73	0xbd701a1f	-0.05861866
74	0xbd1123e3	-0.035434615
75	0xbc5a9456	-0.01334103
76	0xbd5b1030	-0.053482234
77	0xbdb30cdf	-0.08742689
78	0x3e7e9f7b	0.24865524
79	0x3e72450b	0.2365915
80	0x3d57b97d	0.05266713
81	0x3e0433b0	0.12910342
82	0x3db6af88	0.08920199
83	0x3e116907	0.14200221
84	0x3bd5312a	0.006506105
85	0xbf25058d	-0.64461595
86	0xbeaba670	-0.3352542
87	0x3efef52e	0.49796432
88	0x3d1d58e9	0.03841487
89	0xbdaee726	-0.08540182
90	0x3cea1595	0.028574744
91	0xbeba8d39	-0.3643587
92	0x3d55e721	0.052222375
93	0x3d9a16ae	0.07523857
94	0xbeb423e6	-0.35183638
95	0xbe642565	-0.2227989
96	0x3cdcd90f	0.02695897
97	0x3f367b9f	0.7128238
98	0xc041801c	-3.0234442
99	0xbf0d9c92	-0.5531703
100	0xbf39e0a2	-0.7260839
101	0x3be1f355	0.0068954625
102	0xbbe3c7f6	-0.0069513274
103	0xbd752e38	-0.05985853
104	0xbd6aa13f	-0.057282683
105	0x3d0f6314	0.035006598
106	0xbd522ae1	-0.051310424
107	0xbcad19fc	-0.021130554
108	0xbf0ba887	-0.5455403
109	0xbd86be7f	-0.06579303
110	0x3e70169a	0.23446122
111	0xbe14c692	-0.14528874
112	0x3eb0f74e	0.34563679
113	0xbe0e3223	-0.13886313
114	0xbe9a4a1e	-0.30134672
115	0xbe1bda42	-0.15219977
116	0x3ce188bd	0.027531022
117	0xbd6ef96d	-0.05834334
118	0xbd972506	-0.073801085
119	0xbc76e702	-0.015069725
120	0x3d77c159	0.060487125
121	0xbd0e25db	-0.03470407
122	0x3e14ed17	0.14543568
123	0xbceb16a4	-0.02869732
124	0x3debb322	0.11508776
125	0x3e669a82	0.22519878
126	0xbdec636e	-0.11542402
127	0xbc830b43	-0.015996581
128	0xbd88a6b4	-0.06672421
129	0xbdafbe00	-0.085811615
130	0xbea6d70e	-0.3258595
131	0xbeab22f9	-0.3342512
132	0x3d3f2aee	0.0466718
133	0x3da89a7a	0.08232589
134	0xbc3b2c79	-0.011424177
135	0x3d77ef94	0.060531214
136	0x3d161ae0	0.036646724
137	0x3e0e458b	0.13893716
138	0x3c8d9eda	0.01728766
139	0x3e96e7bc	0.29473674
140	0x3e9d47ad	0.30718747
141	0xbe5998c3	-0.2124968
142	0xbe715256	-0.23566565
143	0xbe8cfe7a	-0.275379
144	0xbb5747f8	-0.0032849293
145	0xbe981a67	-0.29707643
146	0xbe941c1f	-0.28927705
147	0xbe34e17b	-0.17664139
148	0xbe7af5f5	-0.24507888
149	0xbec58775	-0.38579908
150	0xbd80332a	-0.06259759
151	0x3f3ec980	0.74526215
152	0x3e9ccad8	0.30623507
153	0xbea24e91	-0.31700566
154	0xbf170413	-0.5899059
155	0xbe35edb6	-0.17766461
156	0xbd8b1483	-0.06791022
157	0xbe86d29a	-0.2633255
158	0xbd28d7be	-0.041221373
159	0xbea50faa	-0.32238513
160	0xbe85ac62	-0.2610808
161	0xbe842175	-0.25806776
162	0xbd912381	-0.0708685
163	0x3d6204e3	0.05518044
164	0xbcd8d8d1	-0.026470574
165	0xbce9ca9a	-0.02853899
166	0xbdc93ca0	-0.098260164
167	0xbe362460	-0.17787313
168	0xbd02d67e	-0.031942837
169	0x3e13d90e	0.14438269
170	0x3d97ef15	0.07418648
171	0xbd7afd26	-0.061276577
172	0xbe9aa4ed	-0.30203953
173	0xbe212326	-0.15736064
174	0xbdf9fba0	-0.12206197
175	0xbe47896b	-0.19486015
176	0xbe9f1199	-0.31068113
177	0xbe23dac3	-0.1600142
178	0xbe44df05	-0.192257
179	0xbe8bf858	-0.2733791
180	0xbcdc8377	-0.026918156
181	0xbd93af0a	-0.072111204
182	0x3d990109	0.074709006
183	0x3d839e7c	0.06426713
184	0xbdf30a5a	-0.11867209
185	0xbe2f2d99	-0.17107238
186	0x3d4ca717	0.049964037
187	0xbeb3c7a5	-0.35113254
188	0xbde0e2b8	-0.10980743
189	0x3c01fe8a	0.007934222
190	0xbea7a009	-0.32739285
191	0xbeae6587	-0.34061834
192	0xbe341c09	-0.1758882
193	0xbd72aa17	-0.05924424
194	0x3dcca5ac	0.09992537
195	0xbd95deb8	-0.07317871
196	0xbd4e2a0d	-0.05033307
197	0xbc20c52d	-0.009812635
198	0xbebf22d1	-0.3733125
199	0x3dd86069	0.10565264
200	0x3d358d70	0.04432434
201	0x3da55788	0.08073336
202	0x3daf5264	0.08560637
203	0xbca1ec3c	-0.019765966
204	0xbdcc0779	-0.09962363
205	0x3dc7496a	0.097307995
206	0x3e264bc5	0.16239841
207	0x3d617bef	0.055049833
208	0x3da993ce	0.08280145
209	0xbd3a22fa	-0.045443512
210	0xb989b89f	-0.0002626823
211	0x3ccfbc5a	0.025358368
212	0xbd8af84b	-0.067856394
213	0xbd5e2f30	-0.05424422
214	0xbda1f84f	-0.07908689
215	0xbdd3e0c0	-0.10345602
216	0xbd7ccce3	-0.061718833
217	0xbde528a6	-0.11189394
218	0xbe3a9ae8	-0.18223155
219	0xbd373b4b	-0.04473428
220	0xbd80804b	-0.0627447
221	0xbe8f9c09	-0.28048733
222	0x3c0d1382	0.008610608
223	0xbe9ddff1	-0.30834916
224	0xbe45e6e4	-0.19326359
225	0xbe033665	-0.12813719
226	0xbe015a15	-0.1263202
227	0xbe8879c7	-0.2665541
228	0xbca6c40e	-0.020357158
229	0xbd8102b7	-0.06299346
230	0xbc6c3408	-0.014416702
231	0x3d3eb2b0	0.04655713
232	0xbdc9fb98	-0.09862441
233	0xbe28b608	-0.1647569
234	0xbe819268	-0.25307012
235	0xbe19e3ac	-0.15028256
236	0xbeb01ad1	-0.3439546
237	0xbe068538	-0.13136756
238	0xbd9a8155	-0.075441994
239	0xbc801bbf	-0.01563823
240	0xbcb1fede	-0.021727975
241	0x3c4685e5	0.012116884
242	0xbc513c64	-0.012770746
243	0xbd56aacd	-0.052408982
244	0xbdd5c046	-0.10437064
245	0xbdf6423d	-0.12024353
246	0x3e08dcc8	0.13365471
247	0x3e0184d1	0.12648322
248	0x3e5b05ae	0.21388885
249	0x3cbbe47f	0.022936104
250	0x3e0de8d1	0.13858344
251	0x3ed6ea1f	0.41975495
252	0x3d8f8a77	0.07008832
253	0xbd90fb86	-0.07079224
254	0xbe239d1b	-0.159779
255	0xbda38abb	-0.07985445

lstm.weight_hh_l0 f4 [256, 64]
0	0xbe804bda	-0.2505787
1	0xbd3ae716	-0.045630537
2	0x3dd0a438	0.10187572
3	0x3b749d80	0.0037325323
4	0x3d98a69d	0.07453654
5	0x3e08aca0	0.13347101
6	0xbd89526b	-0.06705173
7	0xbd8d6bff	-0.06905364
8	0xbc3ec20a	-0.011642942
9	0xbdde8e04	-0.10866931
10	0x3e1f5cd8	0.15562761
11	0x3e019451	0.12654234
12	0xbdd270eb	-0.10275444
13	0x3dc5ab93	0.09651866
14	0xbc8aa35b	-0.016923597
15	0xbcd77dfe	-0.026305195
16	0xbcc9499f	-0.024571238
17	0x3aa582af	0.0012627448
18	0xbdc67fa2	-0.09692313
19	0xbe3ca731	-0.18423153
20	0xbe838f47	-0.2569525
21	0x3ddbbb77	0.107291155
22	0xbdd6f555	-0.10496012
23	0xbcb7cab4	-0.022435524
24	0x3d62cdee	0.05537217
25	0x3d0059b6	0.031335555
26	0x3d3aebba	0.045634963
27	0xbd057582	-0.032582767
28	0xbe074d68	-0.13213122
29	0xbdeef5e6	-0.11667995
30	0x3bd577b1	0.0065145125
31	0x3be0e00e	0.006862647
32	0x3d965934	0.07341233
33	0x3e5d05db	0.21584265
34	0xbdea2a0c	-0.11433801
35	0x3c06e378	0.008232944
36	0x3d3abf21	0.04559243
37	0xbd12ba01	-0.03582192
38	0x3e095ba6	0.13413867
39	0xbb94c0af	-0.0045395712
40	0x3b1478e6	0.002265507
41	0xbe44a055	-0.19201787
42	0xbe055416	-0.13020357
43	0x3d6aa3e6	0.057285212
44	0x3db9bd2f	0.09069287
45	0x3cbf6c2d	0.023367012
46	0x3da148c3	0.07875206
47	0xbcc186fc	-0.023623936
48	0x3e3a2260	0.18177176
49	0xbd64ee78	-0.055891484
50	0x3da9e521	0.08295656
51	0xbd55c520	-0.052189946
52	0xbda625f5	-0.081127085
53	0xbd8eb93d	-0.06968925
54	0xbe2c3ae3	-0.16819339
55	0xbba2cff0	-0.0049686357
56	0xbdd36a2b	-0.10322984
57	0xbea2b52a	-0.31778842
58	0xbe3aec60	-0.18254232
59	0xbdbef083	-0.09323218
60	0x3e162067	0.14660798
61	0xbe82a30d	-0.25515023
62	0xbd2e3989	-0.04253534
63	0xbdebb9b8	-0.115100324
64	0x3d98d146	0.07461791
65	0x3c19dcc7	0.009391016
66	0xbd97eca3	-0.07418182
67	0x3d27e553	0.040990185
68	0x3d6cb111	0.05778605
69	0x3cf5bd16	0.02999739
70	0xbe0596ed	-0.13045855
71	0xbd6cf8f9	-0.057854626
72	0xbcdf7bfd	-0.027280802
73	0xbd08058c	-0.033208415
74	0x3e040448	0.12892258
75	0xbc6d0f90	-0.014469042
76	0x3bbc98fb	0.0057555414
77	0x3ddaf864	0.10691908
78	0xbdd0f746	-0.10203414
79	0xbd8bfbe1	-0.068351515
80	0xba3ffab0	-0.0007323427
81	0xbced7e2a	-0.028990824
82	0xbd3c8a4a	-0.04603032
83	0x3d69a30e	0.057040267
84	0xbdfcbdd1	-0.12340892
85	0x3cb21bf3	0.021741843
86	0xbe11b8a7	-0.14230596
87	0x3db2c08c	0.08728132
88	0xbcee9446	-0.029123437
89	0xbded5a0a	-0.11589439
90	0x3d701b41	0.05861974
91	0x3d795e6a	0.060881056
92	0xbdc7600a	-0.09735115
93	0xbb7d0faa	-0.0038614073
94	0xbd49ee0e	-0.049299292
95	0x3dfb09bd	0.12257717
96	0xbdd16f70	-0.10226333
97	0x3d024406	0.031803153
98	0x3db649d0	0.08900797
99	0xbe0247dc	-0.12722725
100	0x3e01601a	0.12634316
101	0xbc4b14f8	-0.012395136
102	0x3c64455d	0.013932553
103	0x3d16e1d6	0.036836468
104	0x3dc35da1	0.09539343
105	0xbdc53e50	-0.09631026
106	0xbdb42fe6	-0.087981984
107	0xbd0ca262	-0.034334548
108	0x3d490ccf	0.04908448
109	0xbdc2017e	-0.09472941
110	0xbe020a92	-0.12699345
111	0xbcd91614	-0.026499785
112	0x3ddfb1e3	0.10922601
113	0x3d98a6be	0.074536785
114	0xbcbbc1c6	-0.022919547
115	0x3db99a13	0.090625905
116	0x3d83e8cb	0.06440886
117	0x3c56b112	0.01310374
118	0xbd53878f	-0.05164295
119	0x3d81d3f3	0.06339254
120	0x3c9c63b9	0.01909052
121	0xbdef1b0a	-0.11675079
122	0xbc6db63b	-0.014508779
123	0xbd16f43f	-0.036854025
124	0xbd9d5d84	-0.07683852
125	0x3c929e68	0.0178978
126	0x3d93eaba	0.07222505
127	0xbdc8622e	-0.09784351
128	0x3c0988a9	0.008394399
129	0x3b05d666	0.002042198
130	0xbd42db04	-0.04757215
131	0x3e3042aa	0.1721293
132	0x3dcb6632	0.099316016
133	0xbb91fefa	-0.0044554444
134	0xbd278638	-0.040899485
135	0xbd8764db	-0.066110335
136	0x3d7cac8d	0.061687995
137	0xbd3310d0	-0.043717206
138	0x3c21dea5	0.009879743
139	0x3e1e06df	0.15432309
140	0xbd76cb3b	-0.06025241
141	0xbd8a3684	-0.06748679
142	0x3da795d3	0.081828736
143	0xbd64d935	-0.055871207
144	0x3d512689	0.05106214
145	0xbd0491a1	-0.032365445
146	0xbd6faa8d	-0.05851226
147	0xbc8d9ee7	-0.017287685
148	0x3cb97a93	0.022641456
149	0x3dc9a32e	0.09845577
150	0xbd86f7b8	-0.06590217
151	0xbe381b30	-0.17979121
152	0xbdfea096	-0.12432973
153	0x3dc66941	0.09688044
154	0xbd7d00be	-0.061768286
155	0xbdab9560	-0.083781004
156	0xbbe68998	-0.0070354454
157	0xbdc5a22d	-0.09650073
158	0xbd79be95	-0.06097277
159	0x3d82616d	0.06366239
160	0x3dca65e4	0.09882715
161	0x3d386588	0.045018703
162	0x3e343d99	0.17601623
163	0x3b62c24d	0.0034600676
164	0xbd5100d0	-0.051026165
165	0x3ca9f477	0.020746453
166	0xbd11fd8c	-0.03564219
167	0x3b9aa7a5	0.004719692
168	0xbb3eb237	-0.0029097924
169	0xbd92305a	-0.071381286
170	0xbd80ab4b	-0.062826715
171	0x3c9a5479	0.018839108
172	0x3d9336eb	0.07188209
173	0x3dd637fe	0.104598984
174	0xbdd1b390	-0.10239327
175	0x3b3557e6	0.00276708
176	0xbd965f00	-0.073423386
177	0xbddc5e92	-0.10760225
178	0x3d612e66	0.05497589
179	0x3bacb441	0.0052705114
180	0x3e011810	0.12606835
181	0x3d3b5ce8	0.0457429
182	0x3bf3d71a	0.0074414136
183	0xbd534582	-0.05157996
184	0xbe030dc3	-0.12798218
185	0x3d9ced90	0.07662499
186	0x3b9a43b0	0.004707776
187	0xbd6bcaf1	-0.057566587
188	0x3e06beee	0.13158771
189	0x3c9857a1	0.018596472
190	0xbc6595e3	-0.014012787
191	0x3d1a3118	0.037644476
192	0x3c1cbdcb	0.009566735
193	0x3db4d3a1	0.088294275
194	0xbdc117bb	-0.09428354
195	0x3ecef766	0.40423125
196	0x3e2f200e	0.17102072
197	0x3e0c39c3	0.1369391
198	0xbf1edfcd	-0.6206024
199	0x3e99d550	0.30045557
200	0x3b05c7e3	0.0020413331
201	0xbd831efb	-0.064023934
202	0x3f1be961	0.6090298
203	0x3e8df16d	0.27723256
204	0x3dd5b100	0.10434151
205	0x3e366591	0.17812182
206	0xbe0ff349	-0.1405765
207	0x3cde82a7	0.02716191
208	0xbee3b0c3	-0.44470796
209	0xbd5de384	-0.054172054
210	0xbeaffbe5	-0.34371868
211	0xbf3049a2	-0.68862355
212	0xbf5e2601	-0.8677674
213	0xbd45a425	-0.048252244
214	0xbe090ead	-0.13384505
215	0x3e4e0eea	0.20122877
216	0x3ea53c43	0.3227254
217	0x3cc95b8a	0.024579782
218	0x3e640ebb	0.22271244
219	0x3e1ec6df	0.15505551
220	0x3da03467	0.07822495
221	0x3d9487e4	0.072524816
222	0x3de9e551	0.11420692
223	0x3db20f17	0.086942844
224	0x3b95b372	0.0045685107
225	0x3d90515e	0.070467696
226	0x3e7028fd	0.23453136
227	0xbca92727	-0.020648552
228	0xbd100456	-0.035160385
229	0x3c9a4429	0.01883133
230	0xbda99016	-0.08279435
231	0x3f0cc428	0.5498681
232	0x3e3374e3	0.17525057
233	0xbf25c38e	-0.6475152
234	0x3f0b062c	0.5430629
235	0xbd775f4c	-0.060393617
236	0xbd0d2f20	-0.03446877
237	0x3cd67c9c	0.026182465
238	0xbecdf838	-0.40228438
239	0xbe22cfcc	-0.1589958
240	0x3f4aa408	0.7915654
241	0x3dbf3b04	0.09337428
242	0xbd0f9f86	-0.035064243
243	0x3e9d63ce	0.30740207
244	0x3de901ce	0.11377297
245	0x3e135959	0.14389552
246	0xbd21a444	-0.039463297
247	0x3e2239f1	0.15842415
248	0x3cd23975	0.025662163
249	0xbf3a732d	-0.72831994
250	0xbd59c9f8	-0.053171128
251	0xbd4c64e3	-0.0499009
252	0x3f5bbb46	0.8583263
253	0xbf19d9b2	-0.600978
254	0x3df291cd	0.118442155
255	0xbfbf8450	-1.4962254

lstm.bias_ih_l0 f4 [256]
0	0x3db80add	0.08986447
1	0x3cb6ef62	0.022330943
2	0x3c89b308	0.016809002
3	0xbe523965	-0.20529707
4	0xbe450500	-0.19240189
5	0xbc64fe38	-0.013976626
6	0x3dcfaf1d	0.10140822
7	0x3eb9fec2	0.36327177
8	0xbe880afa	-0.26570874
9	0xbe29b2eb	-0.16572158
10	0xbdb1f639	-0.08689541
11	0xbdc3a38e	-0.0955268
12	0x3d09cbdd	0.033641685
13	0xbd552a28	-0.052042156
14	0x3da84c97	0.08217733
15	0xbe39b929	-0.18137039
16	0xbd35c673	-0.04437871
17	0xbdd52b2f	-0.10408627
18	0xbdda167d	-0.106488205
19	0x3be1748b	0.006880348
20	0x3ebdd28c	0.37074697
21	0xbe608bfa	-0.21928397
22	0x3dda330a	0.10654266
23	0xbe8a776e	-0.27044243
24	0xbecfa487	-0.40555212
25	0xbe238116	-0.15967211
26	0xbdd413a7	-0.10355311
27	0xbe030cae	-0.12797806
28	0xbdabf63b	-0.08396574
29	0xbd7a7645	-0.061147947
30	0xbdbf1985	-0.09331039
31	0xbebf1bd0	-0.37325907
32	0x3dc5a264	0.09650114
33	0xbc98eef5	-0.018668631
34	0xbbb1e034	-0.0054283384
35	0xbdf2720d	-0.1183816
36	0xbe30af4b	-0.17254369
37	0xbe4a4167	-0.19751512
38	0xbdc27753	-0.094954155
39	0x3a1415ef	0.00056490203
40	0xbde23510	-0.11045277
41	0x3eedfab9	0.4648035
42	0xbe53514d	-0.20636483
43	0x3e4e2393	0.20130758
44	0xbebad80e	-0.36492962
45	0xbe1ed8c3	-0.15512376
46	0xbde95da6	-0.11394815
47	0xbde522d9	-0.11188287
48	0x3ee6c716	0.45073766
49	0xbddb89e5	-0.10719661
50	0xbbd12933	-0.006383085
51	0x3e75b687	0.2399541
52	0xbd84f235	-0.0649151
53	0xbe8e0869	-0.2774079
54	0xbdbae0b4	-0.0912489
55	0x3beb68fb	0.0071841455
56	0xbe48c763	-0.1960731
57	0x3d812364	0.06305578
58	0xbe99b627	-0.30021784
59	0xbdc4831a	-0.09595318
60	0x3ef4b5eb	0.47795042
61	0x3e2c38a8	0.16818488
62	0xbd137732	-0.036002345
63	0x3e0dacc8	0.13835442
64	0xbe285037	-0.1643685
65	0x3ccef2c3	0.025262242
66	0x3ccd0b0a	0.025029678
67	0x3dea1af7	0.114309244
68	0xbe457ffd	-0.19287105
69	0x3df95636	0.121746466
70	0x3e557dc7	0.20848761
71	0xbe4f6457	-0.2025312
72	0xbeb686e8	-0.356498
73	0xbe34370d	-0.17599125
74	0xbe797815	-0.24362214
75	0xbeaf0233	-0.34181365
76	0xbd632d35	-0.055463035
77	0xbb28f292	-0.0025779349
78	0x3d115c48	0.035488397
79	0xbdcf31a9	-0.10116894
80	0x3edb80ac	0.42871606
81	0xbe1c9a17	-0.15293156
82	0xbebcdf0f	-0.3688893
83	0x3ebe84f7	0.3721082
84	0x3e3b7129	0.18304886
85	0xbe92c6f9	-0.2866743
86	0x3da0410d	0.078249075
87	0x3f108460	0.5645199
88	0x3eb88501	0.36038974
89	0x3e9ed826	0.31024283
90	0xbe5bd177	-0.21466623
91	0x3dc3a9ee	0.09553896
92	0x3e5f927f	0.21833228
93	0xbdd3f9d7	-0.103503875
94	0xbd0402b0	-0.032229125
95	0xbe9680b8	-0.2939508
96	0xbf0b09e7	-0.54311985
97	0x3b56fe4e	0.0032805386
98	0xbea42630	-0.32060385
99	0xbddd25df	-0.10798239
100	0xbd6006d7	-0.054694023
101	0xbe85736d	-0.26064625
102	0xbd37d12d	-0.04487722
103	0x3e92d425	0.28677478
104	0xbe233f2a	-0.15942064
105	0x3e4fe2b5	0.20301326
106	0x3ed18eac	0.40929163
107	0x3e1d31cf	0.15351032
108	0xbd876aff	-0.06612205
109	0x3e66ba85	0.22532089
110	0xbe24fbac	-0.1611163
111	0xbda24497	-0.07923239
112	0x3ee7b42d	0.4525465
113	0xbe039bab	-0.12852351
114	0xbdf6927a	-0.12039657
115	0x3ecccd88	0.40000558
116	0xbd3c3ed3	-0.04595835
117	0xbdd130bf	-0.10214376
118	0x3d36d409	0.044635806
119	0xbda1bb01	-0.07896996
120	0xbde05a0c	-0.10954675
121	0x3d8dad12	0.06917776
122	0x3e59c69d	0.21267171
123	0xbe270c76	-0.16313347
124	0xbc30188b	-0.010748039
125	0x3d5564bf	0.052098032
126	0xbcdf176a	-0.027232844
127	0x3ec7a11d	0.38990107
128	0x3dbbf8d6	0.09178321
129	0xbddeed81	-0.10885144
130	0xbd85e08e	-0.06536971
131	0xbd2f8b30	-0.04285735
132	0x3e002bbd	0.12516685
133	0x3e44eea4	0.19231659
134	0x3de50896	0.11183278
135	0xbb55cab1	-0.0032622034
136	0x3cbde199	0.023178862
137	0x3d09a342	0.03360296
138	0x3eb50ccb	0.35361323
139	0x3e262a49	0.16227068
140	0x3e5ce585	0.2157193
141	0x3d9a9467	0.07547837
142	0xbe571e41	-0.21007635
143	0x3d98ac5d	0.07454751
144	0xbe84c211	-0.2592931
145	0x3c9505a3	0.018191164
146	0x3d317529	0.043324623
147	0xbe69a062	-0.22815087
148	0xbe17238b	-0.14759652
149	0xbdb27e1d	-0.087154604
150	0x3c322104	0.010872129
151	0x3deb7bcb	0.11498221
152	0x3ddc0690	0.10743439
153	0xbe0b52fe	-0.13605878
154	0x3e3a619e	0.182013
155	0xbe9dacff	-0.30796048
156	0xbce597a1	-0.028026404
157	0xbe44a622	-0.19204
158	0x3e56d587	0.20979892
159	0x3e647c16	0.2231296
160	0x3dfc592a	0.12321694
161	0xbc733f42	-0.014846625
162	0x3ec90b48	0.3926642
163	0x3dc6d1be	0.09707974
164	0xbc553cde	-0.013015
165	0xbe063738	-0.13107002
166	0xbe85147e	-0.25992197
167	0x3e8bf87f	0.27338025
168	0x3d90a411	0.07062543
169	0xbeac4fdc	-0.33654678
170	0xbe8f31c5	-0.2796766
171	0xbe833b91	-0.25631383
172	0x3d914a62	0.070942655
173	0x3ea18fa4	0.31554902
174	0xbe0b806d	-0.1362321
175	0xbe276a76	-0.16349205
176	0x3eb7e38f	0.359158
177	0xbe661f84	-0.2247296
178	0x3e6e2bbd	0.23258872
179	0xbc14958e	-0.00906886
180	0x3d174b22	0.036936887
181	0x3d157d8f	0.036496695
182	0xbdf6726c	-0.12033543
183	0x3e428597	0.18996273
184	0x3c9f51ae	0.019448128
185	0x3ac4bb8f	0.001500951
186	0xbd9ae01e	-0.07562278
187	0xbd1054b4	-0.03523703
188	0x3d690f08	0.0568991
189	0x3da44e84	0.08022788
190	0x3d599759	0.053122852
191	0x3d86aa81	0.0657549
192	0xbdbe6cd8	-0.09298104
193	0xbe54c383	-0.20777707
194	0xbe7e6929	-0.24844803
195	0x3e818c9a	0.25302583
196	0x3dafbe2d	0.08581195
197	0xbea8dacb	-0.32979426
198	0x3e3da2d6	0.18519148
199	0xbcd1edc4	-0.02562607
200	0xbe805a67	-0.25068972
201	0xbe319f0a	-0.17345825
202	0x3e47e272	0.19519976
203	0x3e48ce32	0.19609907
204	0x3c6a2c23	0.01429275
205	0xbdff4b78	-0.124655664
206	0xbe2d98b7	-0.16952787
207	0xbe82d935	-0.2555634
208	0x3e6f66d2	0.23379067
209	0xbe72f817	-0.23727451
210	0xbe1ee779	-0.15517987
211	0x3eb8366e	0.35979027
212	0xbd28fdd5	-0.041257698
213	0xbdfd2be4	-0.12361887
214	0xbe83beb4	-0.25731432
215	0x3ea0fde0	0.3144369
216	0x3e2ceade	0.1688647
217	0xbe6fe743	-0.23428063
218	0x3c9ae12b	0.018906197
219	0xbe617dfa	-0.22020712
220	0xbe3dace2	-0.18522981
221	0xbd2105a6	-0.039312027
222	0x3dc8ce23	0.098049425
223	0xbec9069d	-0.39262858
224	0xbd99fc4d	-0.07518826
225	0xbed1c587	-0.40971014
226	0x3f015976	0.5052713
227	0xbe8a90c8	-0.27063584
228	0xbdb911d8	-0.090366066
229	0xbe69910e	-0.2280924
230	0xbda1197b	-0.07866188
231	0x3ec802dc	0.39064682
232	0xbdb138ea	-0.086534336
233	0x3db42c52	0.08797516
234	0xbd5cade1	-0.05387676
235	0xbebbd4cf	-0.36685798
236	0xbe1d18f6	-0.15341553
237	0xbd81ef59	-0.0634448
238	0xbe84e66e	-0.25957054
239	0xbd9ab4e0	-0.075540304
240	0x3e1926a3	0.14956145
241	0xbeaabd9c	-0.33347785
242	0xbe280853	-0.16409425
243	0x3e512004	0.20422369
244	0xbe9b3a1e	-0.30317777
245	0xbe2703f7	-0.16310106
246	0xbe010ce4	-0.12602574
247	0xbe427bd6	-0.18992552
248	0xbe22d435	-0.15901263
249	0xbdc792ee	-0.097448215
250	0xbebf7b67	-0.37398836
251	0xbdc60fbd	-0.096709706
252	0x3ddf0727	0.10890036
253	0xbe0fceb1	-0.1404369
254	0xbe2ecdb4	-0.17070657
255	0x3e044ad8	0.12919176

lstm.bias_hh_l0 f4 [256]
0	0x3d3698f1	0.04457945
1	0x3de51a28	0.111866295
2	0xbd3dac6f	-0.046307024
3	0xbdf85e8d	-0.12127409
4	0xbe20bbf0	-0.15696692
5	0x3e196680	0.14980507
6	0x3d4b6e02	0.04966546
7	0x3ead3941	0.33832744
8	0xbe819bfb	-0.25314316
9	0xbe911dc5	-0.28343025
10	0xbe2ebcdc	-0.17064232
11	0xbdcfbfe5	-0.10144023
12	0x3c77d187	0.015125639
13	0x3de7b304	0.113134414
14	0x3d0773d5	0.03306945
15	0xbe74b36e	-0.23896572
16	0xbd3e144c	-0.046406075
17	0xbdf3f219	-0.11911411
18	0xbe038408	-0.12843335
19	0x3d75b01f	0.059982415
20	0x3ecfc906	0.40583056
21	0xbe26af37	-0.16277777
22	0x3cc248aa	0.02371629
23	0xbebf3e0e	-0.3735203
24	0xbeced106	-0.40393847
25	0xbdc5dcfe	-0.096612915
26	0xbe32bd9f	-0.17455147
27	0xbe0c1404	-0.1367951
28	0xbdf0d023	-0.11758449
29	0xbe2d33a2	-0.16914228
30	0xbd921059	-0.07132024
31	0xbe8bd22f	-0.27308795
32	0x3d0dbbfe	0.03460311
33	0xbd5ee65c	-0.054418907
34	0xbcebc3c1	-0.028779866
35	0xbbf7b1d1	-0.007559039
36	0xbe619b92	-0.22032002
37	0xbe8e2b8b	-0.27767596
38	0xbd8bc0bb	-0.0682387
39	0x3c9a19b6	0.018811088
40	0xbdc68b20	-0.09694505
41	0x3ef62445	0.48074546
42	0xbe96f659	-0.29484823
43	0x3e5a1da4	0.2130037
44	0xbe98d9c2	-0.29853636
45	0xbe3d30cb	-0.18475644
46	0xbd64e0af	-0.055878337
47	0xbd9410d0	-0.07229769
48	0x3ede1c99	0.43381193
49	0xbd38af9b	-0.045089345
50	0x3d1eb0c6	0.038742803
51	0x3e9254aa	0.2858022
52	0xbdb48747	-0.088148646
53	0xbe0cabe1	-0.13737442
54	0xbce2090b	-0.027592203
55	0x3c9180de	0.017761644
56	0xbcc8432a	-0.024446089
57	0x3e1f8e66	0.15581664
58	0xbe688211	-0.22705866
59	0xbe33265d	-0.17495103
60	0x3f03eef1	0.5153647
61	0x3e3965df	0.18105267
62	0xbe381576	-0.17976937
63	0x3d552356	0.052035652
64	0xbe185a95	-0.14878304
65	0xbe1b0d1a	-0.15141717
66	0x3dc9c2db	0.09851619
67	0x3e6dc84f	0.23220943
68	0xbe321269	-0.17389835
69	0xbc86e592	-0.01646689
70	0x3e119df5	0.14220412
71	0xbe90ce08	-0.2828219
72	0xbe5d9082	-0.21637157
73	0xbe340de6	-0.17583427
74	0xbe8836b5	-0.26604238
75	0xbea87bfc	-0.32907093
76	0x3bb5ee37	0.005552079
77	0xbde73830	-0.11290014
78	0x3d5f62fb	0.054537755
79	0xbe2e81b6	-0.17041668
80	0x3ee28969	0.4424546
81	0x3aa685ed	0.0012704708
82	0xbed39803	-0.41326913
83	0x3ed6368f	0.418385
84	0x3deefdea	0.11669524
85	0xbe0060e6	-0.12536964
86	0x3da98648	0.08277565
87	0x3f2d5d34	0.6772034
88	0x3e4707af	0.19436525
89	0x3ea012d8	0.31264377
90	0xbe54a27c	-0.20765108
91	0x3dfc0523	0.12305667
92	0x3df195a2	0.11796118
93	0xbdd56d46	-0.10421233
94	0x3ca42485	0.020036945
95	0xbec79855	-0.38983408
96	0xbee76352	-0.45192963
97	0xbce8858f	-0.028383998
98	0xbe423db7	-0.18968855
99	0xbe6c09c6	-0.23050603
100	0xbe0f1e9d	-0.13976522
101	0xbe45ab8f	-0.19303726
102	0xbd0eb16c	-0.03483717
103	0x3e5e535b	0.21711485
104	0xbd70809e	-0.05871641
105	0x3e66a780	0.22524834
106	0x3ef1faf1	0.47261766
107	0x3e5f18a3	0.21786742
108	0x3cb2a6d3	0.021808064
109	0x3e263269	0.16230167
110	0xbdfbbe5f	-0.1229217
111	0xbd42338a	-0.047412433
112	0x3eb521a8	0.3537724
113	0xbdfe8a49	-0.124287196
114	0xbce5081b	-0.027957967
115	0x3e8d322d	0.27577344
116	0xbdb4bf49	-0.08825547
117	0xbdf25508	-0.11832625
118	0xbc0fcaa8	-0.008776344
119	0x3cfcaa73	0.030842995
120	0x3b005130	0.0019579642
121	0x3d9d7dd2	0.07690014
122	0x3e63d666	0.22249755
123	0xbe439477	-0.19099604
124	0xbde21c89	-0.11040599
125	0x3d1520b7	0.036408152
126	0xbe203406	-0.15644845
127	0x3ea3385e	0.31878942
128	0x3e036945	0.12833126
129	0xbd5be963	-0.05368937
130	0xbd49c94d	-0.04926424
131	0x3d247a89	0.04015592
132	0x3e4e074c	0.20119971
133	0x3da87d68	0.08227044
134	0x3e24b172	0.16083315
135	0x3d79d576	0.060994588
136	0xbc8067f7	-0.015674574
137	0x3d3742cc	0.044741437
138	0x3e5478f0	0.20749259
139	0x3e0ab401	0.13545229
140	0x3d179818	0.037010282
141	0x3e21d306	0.15803155
142	0xbe3a80f0	-0.18213248
143	0x3dabc849	0.08387811
144	0xbe2da838	-0.16958702
145	0x3e025464	0.12727505
146	0x3cf36dc7	0.029715432
147	0xbe138ac5	-0.14408405
148	0x3c2c675e	0.0105226915
149	0x3bbba8ce	0.00572691
150	0xbc226b3f	-0.009913265
151	0xbb71e9ce	-0.003691304
152	0x3dc4cab3	0.09608974
153	0xbe0f6f7a	-0.14007369
154	0x3e7a2fd2	0.24432305
155	0xbea61b92	-0.3244291
156	0x3d1a57e2	0.037681468
157	0xbdb3bd20	-0.08776307
158	0x3e12cf27	0.14336835
159	0x3d980595	0.0742294
160	0x3e85d4a5	0.26138797
161	0x3db44c84	0.08803657
162	0x3f01bb34	0.50676274
163	0x3ca05c36	0.01957522
164	0xbd0155d7	-0.031576004
165	0xb896403f	-7.164524e-05
166	0xbe58cc1a	-0.21171609
167	0x3e2fd5f6	0.17171463
168	0xbda49681	-0.08036519
169	0xbeaa538c	-0.33266866
170	0xbe091ef3	-0.13390712
171	0xbe82db37	-0.25557873
172	0x3d7c8b2c	0.061656162
173	0x3e997981	0.29975513
174	0xbe833a49	-0.25630406
175	0xbd767f70	-0.060180128
176	0x3e58465a	0.21120587
177	0xbdbc058b	-0.09180745
178	0x3d83b658	0.06431264
179	0x3da13273	0.078709505
180	0x3d04272b	0.032263916
181	0x3d8532d0	0.06503832
182	0x3cf57f51	0.029967936
183	0x3e5d45e0	0.21608686
184	0x3e357b55	0.17722829
185	0xbc06b534	-0.008221913
186	0xbd8e3f79	-0.069457
187	0xbb52e22f	-0.0032178273
188	0x3dadd77c	0.08488366
189	0x3cc14538	0.023592576
190	0x3bac85ea	0.0052649872
191	0x3c28f215	0.010311623
192	0xbdef99ef	-0.116992824
193	0xbe0c241c	-0.1368565
194	0xbe9913a8	-0.2989781
195	0x3dfde644	0.12397435
196	0x3dc18642	0.09449436
197	0xbe3c64ce	-0.18397829
198	0x3e399ea9	0.1812693
199	0x3d2cc4f2	0.04218001
200	0xbe385f19	-0.18005027
201	0xbe46a71d	-0.19399686
202	0x3e6c6bc5	0.23087986
203	0x3e113b30	0.14182734
204	0x3c33d7ec	0.010976773
205	0xbe74e231	-0.2391441
206	0xbe890943	-0.2676488
207	0xbe3351af	-0.17511629
208	0x3e81e4f0	0.25369978
209	0xbe8eab5a	-0.27865106
210	0xbde79682	-0.11308004
211	0x3ebb3014	0.36560118
212	0x3d0f0d1b	0.034924608
213	0xbd939460	-0.07206035
214	0xbe83c299	-0.25734404
215	0x3ecff187	0.40613958
216	0x3ca5b997	0.020230098
217	0xbe46b1d0	-0.19403768
218	0xbd0ca784	-0.034339443
219	0xbe5f5df3	-0.21813183
220	0xbe908571	-0.28226808
221	0xbd94b2b3	-0.07260647
222	0xbd600c97	-0.054699507
223	0xbe937acd	-0.28804627
224	0xbd99f67d	-0.07517717
225	0xbec575a9	-0.3856633
226	0x3efa9ebf	0.4894924
227	0xbe1d4f26	-0.15362224
228	0xbc907e3e	-0.017638322
229	0xbe9cec5f	-0.30649087
230	0xbde8315b	-0.11337539
231	0x3eb090a3	0.3448535
232	0xbd773087	-0.060349014
233	0x3e285d27	0.16441785
234	0xbd401606	-0.046896003
235	0xbe9c94d3	-0.30582294
236	0xbe9baa89	-0.30403545
237	0xbe21ee00	-0.15813446
238	0xbe9356c0	-0.28777122
239	0xbc94ce39	-0.01816474
240	0x3e52df48	0.20592988
241	0xbe68a5f2	-0.22719553
242	0xbe6059bb	-0.2190923
243	0x3db43ee7	0.0880106
244	0xbe325c04	-0.17417914
245	0xbe3088d7	-0.172397
246	0xbe80d029	-0.25158814
247	0xbe0fa340	-0.14027119
248	0xbd342f18	-0.043990225
249	0xbb16bca1	-0.0023000615
250	0xbea02e56	-0.31285352
251	0xbd81af30	-0.063322425
252	0x3e41d279	0.18927945
253	0xbe9a293e	-0.3010959
254	0xbe33d37a	-0.1756114
255	0x3e1d5f05	0.15368278

lstm.weight_ih_l0_reverse f4 [256, 6]
0	0xbda83ea0	-0.0821507
1	0x3d818f0a	0.06326111
2	0xbce23959	-0.027615236
3	0xbdb4763d	-0.08811615
4	0x3dff2d8f	0.124598615
5	0x3caea139	0.021317111
6	0xbcb25a36	-0.021771532
7	0xbe41ef02	-0.1893883
8	0xbcdc236f	-0.026872365
9	0xbd86d1e8	-0.06583005
10	0xbeb271ba	-0.3485239
11	0xbee7a54d	-0.45243302
12	0xbcf83927	-0.03030069
13	0x3e4a7ce5	0.19774206
14	0x3e0293a9	0.1275164
15	0x3b89cd66	0.0042053936
16	0x3e77485f	0.24148701
17	0x3ec9a172	0.39380985
18	0xbe04860a	-0.12941757
19	0xbc69c9cd	-0.014269304
20	0xbe2a247b	-0.16615479
21	0xbe296cae	-0.16545364
22	0xbdff2654	-0.124584824
23	0xbe0890de	-0.13336512
24	0x3b54a4db	0.0032446894
25	0x3d8cac10	0.06868756
26	0xbd3248f2	-0.043526597
27	0x3d92d145	0.07168821
28	0x3e09a57a	0.1344203
29	0x3e97716b	0.2957872
30	0xbcd259d1	-0.025677593
31	0xbee38db1	-0.4444404
32	0xbd102f62	-0.035201438
33	0xbf4cb470	-0.79962826
34	0x3ea3fa4c	0.320269
35	0xbe7ac636	-0.24489674
36	0xbdfaa834	-0.122391135
37	0x3e3d214d	0.18469734
38	0xbed2714e	-0.4110207
39	0x3f17522b	0.59109753
40	0x3f49e63d	0.7886694
41	0xbe103764	-0.1408363
42	0x3d849b07	0.064748816
43	0x3d5ce05f	0.053924914
44	0x3f291f88	0.6606374
45	0x3f13ef62	0.57787144
46	0x3f0972c2	0.5369073
47	0x3ead69f4	0.33869898
48	0xbed2fa52	-0.41206604
49	0x3e872c43	0.26400957
50	0xbe30d65c	-0.17269272
51	0xbe8da6a8	-0.2766621
52	0x3dee0bc9	0.116233416
53	0xbddbeb1f	-0.10738205
54	0xbd766f29	-0.060164604
55	0xbbd157c7	-0.0063886377
56	0x3e4e3883	0.20138745
57	0xbd68f827	-0.05687728
58	0xbed95361	-0.42446426
59	0x3e3657a7	0.17806874
60	0xbdbdf0b8	-0.09274429
61	0xbdb141f8	-0.08655161
62	0xbdb5681a	-0.088577464
63	0xbd1f877d	-0.03894757
64	0x3d8cf43e	0.06882523
65	0xbe9ed9eb	-0.31025633
66	0xbbdf17aa	-0.006808241
67	0x3e5b8926	0.21439037
68	0xbd281421	-0.04103482
69	0x3e399383	0.18122678
70	0x3d6bcb39	0.057566855
71	0x3df8aa66	0.12141876
72	0x3dc3defd	0.09564016
73	0x3d8cb9f4	0.06871405
74	0xbd1a4ea7	-0.037672665
75	0xbf2dc8e1	-0.6788464
76	0x3e18f29b	0.14936297
77	0x3dead352	0.114660874
78	0x3ed26538	0.4109285
79	0x3e75aa7f	0.2399082
80	0xbc5b6d54	-0.013392765
81	0x3e2a6773	0.16641025
82	0x3dc47078	0.09591764
83	0x3dc6c8ce	0.09706269
84	0xbdb5dc98	-0.088799655
85	0xbda0bbbe	-0.07848309
86	0x3d09f71b	0.033682924
87	0x3d35b002	0.044357307
88	0x3e48d451	0.19612242
89	0x3ef201c7	0.4726698
90	0xbf0534a0	-0.52033424
91	0xbede0fc5	-0.43371406
92	0x3f94eb60	1.1634331
93	0xbd721a95	-0.05910738
94	0x3f014e87	0.5051045
95	0x3e0bed2d	0.13664694
96	0xbcd22ba7	-0.02565558
97	0x3f9e3bd1	1.2362005
98	0xbf2cb023	-0.67456263
99	0xbfcef92a	-1.6169789
100	0xbff043d5	-1.8770701
101	0x3eb5357b	0.35392365
102	0x3bc882eb	0.0061191223
103	0x3df19197	0.11795347
104	0x3dee9792	0.116500035
105	0x3dcf7efa	0.10131641
106	0xbd813955	-0.06309763
107	0x3ca73f97	0.020416064
108	0x3cb32e82	0.021872763
109	0xbe63541f	-0.22200058
110	0x3db68d69	0.089136906
111	0x3e36a87f	0.17837714
112	0x3ed99a76	0.42500657
113	0x3e702fde	0.2345576
114	0xbd140bb7	-0.036143985
115	0x3e0e68d4	0.13907176
116	0x3ded577e	0.115889534
117	0x3d8a6115	0.06756798
118	0x3d1005e7	0.03516188
119	0x3e0a4459	0.13502635
120	0xbd30c68f	-0.04315811
121	0x3bd0b2a8	0.0063689537
122	0x3d47b45c	0.04875599
123	0xbe0abea5	-0.13549288
124	0xbe856257	-0.2605159
125	0xbed79ac2	-0.42110258
126	0x3b4834bc	0.003054901
127	0xbcbeb25d	-0.02327841
128	0xbc81b8e5	-0.015835235
129	0xbe07d928	-0.13266432
130	0xbe92d4a4	-0.28677857
131	0x3da6a78b	0.08137425
132	0xbd4e9d50	-0.050442994
133	0x3e765a7b	0.24057953
134	0x3e5abd10	0.21361184
135	0x3e6d354a	0.2316486
136	0x3da6ff66	0.08154182
137	0x3edc4d83	0.43027887
138	0x3c565fb0	0.013084337
139	0xbf122817	-0.5709242
140	0x3eda0b13	0.42586574
141	0x3cfb5474	0.030679919
142	0x3e9fda55	0.31221262
143	0x3e38cea0	0.18047571
144	0xbcb508ba	-0.022098888
145	0x3e10354a	0.14082828
146	0x3e392de8	0.18083918
147	0x3c328f14	0.01089837
148	0x3d4218ae	0.047386818
149	0xbdde790a	-0.1086293
150	0xbd2c8d49	-0.042126928
151	0x3df874d7	0.121316604
152	0xbec56ff1	-0.38561967
153	0xbdb7536b	-0.089514576
154	0xbf557b42	-0.833912
155	0x3e67cd65	0.22636946
156	0xbebd0277	-0.36915943
157	0xbf3960b4	-0.7241318
158	0xbea6ce72	-0.3257938
159	0x3d6b20e8	0.05740443
160	0xbe590759	-0.21194209
161	0xbe19a4fd	-0.15004344
162	0x3de50360	0.11182284
163	0xbf0de3e2	-0.55425847
164	0xbe885bfe	-0.26632684
165	0x3da76af4	0.081746966
166	0x3cdea567	0.02717848
167	0x3e4ddf64	0.20104748
168	0x3d2cdad0	0.042200863
169	0x3e6036a3	0.21895842
170	0x3e943c2f	0.28952166
171	0x3e3e5451	0.18586852
172	0x3eaee480	0.34158707
173	0x3e7afa7c	0.24509615
174	0x3e8edfd7	0.2790515
175	0x3eb05858	0.344424
176	0x3f6be95d	0.9215296
177	0xba4231d8	-0.000740794
178	0x3d84de23	0.06487682
179	0xbe5a11e0	-0.21295881
180	0xbdebaba4	-0.11507347
181	0x3e1976c1	0.14986707
182	0x3dee7e72	0.11645211
183	0x3d4c239e	0.049838655
184	0x3d8a4915	0.067522205
185	0x3ead567b	0.33855042
186	0xbd439cef	-0.047757085
187	0xbd7d71de	-0.06187617
188	0xbe062519	-0.13100089
189	0xbd3a2d8f	-0.045453604
190	0x3d0dbabc	0.034601912
191	0xbe2095ba	-0.15682116
192	0xbb217ca7	-0.002464095
193	0x3d17d2e1	0.037066344
194	0xbc1861cc	-0.00930066
195	0x3e10e707	0.1415063
196	0x3da9c450	0.08289397
197	0x3ea9e217	0.33180305
198	0xbdd2583e	-0.10270737
199	0xbd3fb125	-0.046799798
200	0xbf0ab36c	-0.54180026
201	0xbe2da8a1	-0.16958858
202	0xbe75b82d	-0.23996039
203	0xbe093958	-0.13400781
204	0x3deb238d	0.1148139
205	0xbeff7157	-0.4989116
206	0xbf80fe44	-1.0077596
207	0xbee8e8ea	-0.454902
208	0x3e95b330	0.29238272
209	0x3e5f894a	0.21829715
210	0xbe2774b2	-0.1635311
211	0x3ee1428e	0.4399609
212	0x3f432b63	0.7623808
213	0x3e8930ec	0.26795137
214	0x3dd17426	0.10227232
215	0xbf0f9871	-0.5609198
216	0x3ddc5efc	0.10760304
217	0x3d193db2	0.037412353
218	0xbe4a4349	-0.1975223
219	0xbe57e12e	-0.21081993
220	0xbe017e86	-0.12645921
221	0x3ca0c47c	0.019624941
222	0xbafa99fe	-0.001911938
223	0xbd9b3680	-0.075787544
224	0x3d2aea9c	0.041727647
225	0x3d9c6aad	0.07637534
226	0xbec11c50	-0.37716913
227	0xbe8ff692	-0.28117806
228	0x3d8692f9	0.065710016
229	0xbaabdb56	-0.0013111632
230	0x3e925a11	0.2858434
231	0x3e86151a	0.26187974
232	0x3f2ada58	0.66739416
233	0x3e281b49	0.16416658
234	0x3f756ea5	0.95871955
235	0xbdf0c2dc	-0.117559165
236	0xbe1688b8	-0.14700592
237	0x3caf5c08	0.021406189
238	0xbd084caf	-0.033276256
239	0xbe6e8915	-0.2329448
240	0x3eb0d625	0.3453838
241	0xbcd76dc6	-0.026297461
242	0xbd52b9e9	-0.05144683
243	0x3dd70d91	0.105006345
244	0xbdfa2809	-0.12214667
245	0xbe3e9bdd	-0.18614145
246	0xbd8f5938	-0.06999439
247	0xbee6b927	-0.45063135
248	0x3e0f50e3	0.139957
249	0xbf216f67	-0.6306061
250	0xbe90db55	-0.28292337
251	0xbee5d8ef	-0.4489207
252	0x3cdcc232	0.026948068
253	0x3e99b5ae	0.30021423
254	0x3e9c8380	0.30569077
255	0x3ee33f37	0.44384167

lstm.weight_hh_l0_reverse f4 [256, 64]
0	0xbe29659f	-0.16542672
1	0x3cc10b34	0.023564912
2	0x3d108694	0.035284594
3	0xbe43d7a3	-0.19125228
4	0x3e070c27	0.1318823
5	0x3e0ea4a5	0.13929994
6	0x3d0cf2bf	0.03441119
7	0xbc92e5d2	-0.017931852
8	0x3d967ae2	0.07347657
9	0xbef72b10	-0.48275042
10	0xbddb16c2	-0.106977
11	0x3d9e2ced	0.07723413
12	0x3de479ed	0.11156068
13	0xbd0fd33b	-0.035113554
14	0x3dd27bb2	0.10277499
15	0x3da5fa3f	0.08104371
16	0x3c938cd2	0.018011484
17	0xbd6e4a4f	-0.058176335
18	0xbd8fc015	-0.070190586
19	0x3dd36b1b	0.10323163
20	0x3d0f633d	0.03500675
21	0x3bf9a2bd	0.007618277
22	0xbe1b8702	-0.1518822
23	0xbd757d03	-0.059933674
24	0xbc4611a9	-0.012089171
25	0x3d98bf42	0.074583545
26	0xbc0fc375	-0.008774628
27	0x3da88641	0.08228732
28	0x3dc9c9ce	0.09852944
29	0xbd9af1bb	-0.07565638
30	0x3dc6ead9	0.097127624
31	0xbda5d020	-0.08096337
32	0x3d9709a1	0.073748834
33	0xbc1af4af	-0.009457751
34	0xbc8debc6	-0.01732434
35	0x3de2929a	0.11063118
36	0x3d844aef	0.06459605
37	0x3d4f8c72	0.05067105
38	0x3d9dc843	0.077042125
39	0xbd10630d	-0.035250712
40	0xbe4c5b32	-0.19956663
41	0x3cc9cba4	0.024633236
42	0x3e1bafd3	0.1520379
43	0xbd17b0c6	-0.03703382
44	0x3dc1f8b7	0.09471267
45	0x3df82073	0.12115564
46	0xbace8f36	-0.0015759233
47	0x3cb56519	0.022142934
48	0x3e0bc388	0.13648808
49	0xbdc2ef7c	-0.09518334
50	0xbdf0a489	-0.117501326
51	0xbd10b866	-0.035332106
52	0x3da430d2	0.08017124
53	0x3d2b34de	0.041798465
54	0xbe15c2b6	-0.14625058
55	0xbc1f3b84	-0.0097187795
56	0xbd1ad433	-0.037800025
57	0xbe6147b9	-0.22000016
58	0x3e07dda8	0.13268149
59	0xbdc50624	-0.09620312
60	0x3cd7cdd2	0.02634326
61	0x3d7ccb06	0.061717056
62	0xbd961301	-0.073278435
63	0x3d5b5f68	0.053557783
64	0xbe053c54	-0.13011295
65	0x3e421d0f	0.18956397
66	0x3ec124ea	0.37723476
67	0x3d184ba8	0.037181526
68	0xbe4b7ccb	-0.19871823
69	0xbe1b8cdb	-0.15190451
70	0xbd938a9c	-0.07204172
71	0xbea55209	-0.3228915
72	0x3e4e8650	0.20168424
73	0x3d4848b3	0.048897456
74	0xbc95a65d	-0.018267805
75	0xbe6dc319	-0.23218955
76	0xbf260493	-0.6485073
77	0x3d49e449	0.049289975
78	0xbe22065a	-0.15822735
79	0xbe9ced7d	-0.3064994
80	0x3ecb5b1e	0.39717954
81	0x3db312a6	0.08743791
82	0x3da5953f	0.08085107
83	0x3d0235a0	0.031789422
84	0xbc24ab81	-0.010050655
85	0xbdea4238	-0.114384115
86	0x3e5eab96	0.21745142
87	0xbcaa7f2f	-0.020812599
88	0x3e0765bc	0.13222402
89	0xbec8c101	-0.3920975
90	0xbe2462c2	-0.16053298
91	0xbe83c946	-0.25739497
92	0x3ee1cf96	0.44103688
93	0xbe448900	-0.19192886
94	0xbe4708ef	-0.19437002
95	0x3dccdb62	0.100027815
96	0xbd91a743	-0.07111981
97	0xbe82114f	-0.2540383
98	0x3ddae105	0.1068745
99	0x3defce0e	0.11709224
100	0x3d20218d	0.039094497
101	0x3d91b674	0.07114878
102	0xbe5ff871	-0.21872117
103	0xbef34cf2	-0.47519642
104	0x3d317fb4	0.043334678
105	0xbe0bb07d	-0.13641544
106	0xbe7503e2	-0.23927262
107	0xbd02d7e4	-0.03194417
108	0x3e1ef308	0.15522397
109	0xbde856da	-0.113446906
110	0xbe351e16	-0.17687258
111	0x3dd9b71a	0.10630627
112	0x3eaff83b	0.34369072
113	0xbd552474	-0.052036718
114	0x3d3f249c	0.046665773
115	0x3ebbf186	0.36707705
116	0xbe48f5a5	-0.19624956
117	0xbe89276a	-0.26787883
118	0x3e0f53be	0.13996789
119	0x3de92f0b	0.11385926
120	0xbd89aded	-0.06722627
121	0x3e656dea	0.2240521
122	0xbe8490fa	-0.25891858
123	0xbdd70ae2	-0.105001226
124	0xbe9fd259	-0.3121517
125	0xbe4f488b	-0.20242517
126	0x3e211079	0.1572894
127	0x3dbbef16	0.091764614
128	0x3e114059	0.14184703
129	0x3df951a1	0.121737726
130	0x3d239fbd	0.03994726
131	0x3da36801	0.079788215
132	0x3eb8f4ff	0.36124417
133	0xbe36d29b	-0.17853777
134	0x3e3a22ac	0.18177289
135	0x3e7b59a7	0.24545918
136	0xbe48eade	-0.19620845
137	0x3f1800d0	0.5937624
138	0xbdb1d496	-0.08683126
139	0xbe7325db	-0.2374491
140	0x3c77e45d	0.01513013
141	0xbf0cad9a	-0.54952395
142	0x3df10462	0.11768414
143	0xbd86bee2	-0.06579377
144	0x3ed139aa	0.40864307
145	0xbcd81c80	-0.026380777
146	0xbd8a5ccb	-0.0675598
147	0xbcfb1036	-0.030647378
148	0xbd41d071	-0.047317926
149	0x3ddb4cc8	0.10708004
150	0xbe2adf1f	-0.16686676
151	0xbe638190	-0.22217393
152	0x3db8d9d1	0.0902592
153	0x3df6c02a	0.12048371
154	0x3e365647	0.1780635
155	0x3cd2f085	0.025749454
156	0xbdc3170f	-0.095258825
157	0x3e0fca5d	0.14042039
158	0xbd88dc2d	-0.0668262
159	0xbd937f85	-0.07202057
160	0xbe7665bd	-0.24062248
161	0x3e4291ef	0.19000982
162	0xbdb63ea6	-0.08898668
163	0x3cec1470	0.02881834
164	0xbd6c3caf	-0.05767506
165	0x3e0cd661	0.13753654
166	0x3e4fc4f0	0.2028997
167	0xbd710193	-0.058839392
168	0xbdda1c1f	-0.10649895
169	0xbe05fa32	-0.13083723
170	0x3e647344	0.22309595
171	0xbddd41d3	-0.108035706
172	0xbcde75fc	-0.027155869
173	0x3dad242e	0.08454166
174	0x3e216aa0	0.1576333
175	0xbd05d682	-0.032675274
176	0x3d9fbe06	0.07799916
177	0x3e5d9383	0.21638303
178	0x3dc68209	0.09692771
179	0xbe47e63b	-0.1952142
180	0x3db1c55f	0.08680224
181	0x3e3ac14d	0.18237801
182	0x3d6e08e3	0.058113944
183	0x3cff31c2	0.031151656
184	0x3e365ad9	0.17808093
185	0x3da00932	0.07814254
186	0x3e3a54b0	0.18196368
187	0xbd6e97f8	-0.058250397
188	0x3dadaf5a	0.08480711
189	0xbe3fa098	-0.18713605
190	0xbe5169e8	-0.20450556
191	0xbd8ffd1a	-0.07030697
192	0xbdf74ed1	-0.1207558
193	0x3de3d6ee	0.11124979
194	0x3d3ed930	0.046593845
195	0xbc698ea9	-0.014255204
196	0xbb155116	-0.0022783927
197	0xbd5b464c	-0.053533837
198	0xbe83426b	-0.2563661
199	0xbdfd1b42	-0.12358715
200	0x3d908e6e	0.07058416
201	0x3d45b9fb	0.048273068
202	0x3dbd9d69	0.09258539
203	0x3dfb9360	0.12283969
204	0x3d2a3879	0.041557763
205	0x3d28c79d	0.04120599
206	0xbe3665bc	-0.17812246
207	0xbd918c37	-0.07106822
208	0x3ec852ed	0.39125767
209	0xbceb335c	-0.028711013
210	0xbcd7e68b	-0.026355049
211	0xbc96a513	-0.01838926
212	0x3c19b82b	0.009382288
213	0xbe37a04e	-0.17932245
214	0x3e4a0e5d	0.19732042
215	0x3c66020b	0.014038573
216	0x3d35a18d	0.04434352
217	0xbe9c9252	-0.30580384
218	0xbe163c5f	-0.14671467
219	0x3d526345	0.051364202
220	0x3d67dcc3	0.05660702
221	0xbd531984	-0.051538005
222	0xbe0e3093	-0.13885717
223	0x3de7d1f1	0.1131934
224	0x3b4fc3f7	0.0031702498
225	0xbe6ccfae	-0.23126099
226	0x3dcc0c1b	0.099632464
227	0x3cb8786f	0.022518365
228	0x3d01ed0c	0.031720206
229	0x3e600c81	0.2187977
230	0xbe3d3b76	-0.18479714
231	0xbe00cf13	-0.12578993
232	0x3c2157cc	0.009847593
233	0xbb5b17c6	-0.0033430918
234	0xbe76349a	-0.24043503
235	0xbe2ca8f0	-0.1686132
236	0x3e34143e	0.17585847
237	0xbe13a4fc	-0.14418405
238	0xbc0cf775	-0.00860392
239	0xbd8b6db1	-0.06808031
240	0x3ca1455f	0.019686399
241	0xbc5cf62e	-0.013486428
242	0xbd3cd508	-0.0461016
243	0x3dafd4df	0.08585524
244	0xbbb8ad8e	-0.0056359237
245	0xbdf41d26	-0.11919622
246	0x3be95c16	0.007121573
247	0x3dd1f6b0	0.1025213
248	0xbde42c93	-0.11141314
249	0x3e26944c	0.16267508
250	0xbf148e5e	-0.58029735
251	0x3d8bca9b	0.06825753
252	0xbe043547	-0.12910949
253	0xbdb74b9e	-0.0894997
254	0x3c6c9f7e	0.014442323
255	0xbdc390cb	-0.095491014

lstm.bias_ih_l0_reverse f4 [256]
0	0x3dde3216	0.10849397
1	0xbebaddba	-0.3649729
2	0x3e9d51ea	0.30726558
3	0xbe892442	-0.26785475
4	0x3e8a8d37	0.27060863
5	0xbe5f7e9d	-0.21825643
6	0xbe8af01b	-0.2713631
7	0x3ec36466	0.38162535
8	0xbe203354	-0.1564458
9	0x3e805e01	0.2507172
10	0xbe91bb11	-0.28463033
11	0x3d91d90f	0.07121479
12	0x3e2f5a19	0.17124213
13	0x3cc05094	0.023475923
14	0x3ee756f2	0.45183522
15	0x3ed8b361	0.42324355
16	0x3d24df5c	0.040252075
17	0xbcd21796	-0.025646012
18	0x3e976512	0.29569298
19	0x3d88c91b	0.06678983
20	0xbe879a6a	-0.26484996
21	0x3e668dcb	0.22515027
22	0x3ebca3a1	0.3684359
23	0x3eb0f40b	0.3456119
24	0xbe3f9d8b	-0.18712442
25	0x3e0e3a62	0.13889459
26	0x3c9c6167	0.019089414
27	0x3e203e8f	0.15648864
28	0x3dead3f4	0.11466208
29	0xbecb1781	-0.3966637
30	0x3eab8cb2	0.3350578
31	0xbeb4f1ec	-0.35340822
32	0x3eca7044	0.39538777
33	0xbd9252a8	-0.07144672
34	0x3dc9b2df	0.0984857
35	0xbf1e2789	-0.61779076
36	0xbdf3e185	-0.11908249
37	0xbe8e4eb3	-0.27794418
38	0x3e0445c9	0.12917246
39	0xbe93f690	-0.2889905
40	0xbe5be3b9	-0.21473588
41	0xbf08e198	-0.5346923
42	0x3e9363dd	0.28787127
43	0x3ebd2baa	0.36947376
44	0x3ec1a1c4	0.3781873
45	0x3f249eca	0.6430479
46	0xbee8beaf	-0.4545798
47	0x3beb6a33	0.007184291
48	0x3f17c1ed	0.5928028
49	0xbe64ea51	-0.2235501
50	0xbe40b95c	-0.18820709
51	0xbee382fc	-0.4443587
52	0x3cab59dd	0.020916874
53	0xbe34b5ec	-0.17647523
54	0xbec20f08	-0.37902093
55	0x3e7e20a2	0.24817136
56	0xbeaf9735	-0.3429505
57	0xbed0b24d	-0.40761033
58	0xbed4cc9a	-0.4156235
59	0x3e4f1ddd	0.20226236
60	0x3ead8ba9	0.33895615
61	0x3e0b4a16	0.1360248
62	0xbecc7200	-0.39930725
63	0xbe7d06b6	-0.24709591
64	0x3e218ffc	0.15777582
65	0xbe791c66	-0.2432724
66	0xbe94133e	-0.2892093
67	0xbd9bda9e	-0.07610057
68	0x3ed7b1ad	0.42127743
69	0xbe202e00	-0.15642548
70	0xbe6ba9da	-0.23014012
71	0xbea6b038	-0.3255632
72	0x3e99f5c7	0.30070326
73	0x3ecb6254	0.39723456
74	0xbe520ad9	-0.2051195
75	0xbe79696c	-0.24356622
76	0xbe05da58	-0.13071573
77	0xbe9e6195	-0.30933824
78	0xbe1a8263	-0.15088801
79	0xbea9fb5a	-0.3319958
80	0x3ec0d13c	0.37659633
81	0xbe3cddf1	-0.18444039
82	0xbdb76df0	-0.08956516
83	0xbd772359	-0.060336445
84	0xbdeb98b9	-0.11503739
85	0xbe92b232	-0.28651577
86	0xbf08f16c	-0.5349338
87	0x3e8bd564	0.27311242
88	0x3e1d2c0f	0.15348838
89	0xbe9ea1a6	-0.30982703
90	0x3e8a2f5c	0.26989257
91	0xbdf55cff	-0.11980628
92	0x3de16f60	0.11007571
93	0xbeada207	-0.3391268
94	0xbd91b7e7	-0.07115155
95	0xbdf4292d	-0.11921916
96	0x3e6ba954	0.23013812
97	0x3efce60d	0.49394265
98	0x3dfa5fe0	0.12225318
99	0xbdf15226	-0.11783247
100	0xbd130062	-0.035889037
101	0xbe6f09d0	-0.23343587
102	0xbd0fe824	-0.035133496
103	0x3d27cfd0	0.04096967
104	0xbe8e93b8	-0.27847075
105	0xbdc82992	-0.09773554
106	0xbed97cba	-0.4247797
107	0xbd97472d	-0.073866226
108	0x3e5bfdf6	0.21483597
109	0x3dcf77f9	0.10130305
110	0xbe8b1157	-0.27161667
111	0xbd02f12d	-0.031968284
112	0x3eb7fcd7	0.3593509
113	0xbdf8bca2	-0.12145354
114	0xbdfc9154	-0.12332407
115	0xbe69f1fe	-0.22846219
116	0xbe1dd11e	-0.15411803
117	0x3ed4ff58	0.41601062
118	0xbeaa1ca9	-0.3322499
119	0xbd52dc6b	-0.05147974
120	0x3ccbd216	0.02488045
121	0xbe031582	-0.12801173
122	0xbe8f2355	-0.27956644
123	0xbe028437	-0.12745748
124	0xbeb335fc	-0.35002124
125	0x3ea02ff0	0.31286573
126	0xbe776449	-0.2415935
127	0x3cb0e44f	0.021593241
128	0x3ca5a36b	0.020219525
129	0x3d5f01a9	0.054444943
130	0xbed30915	-0.41217867
131	0xbd81dcc0	-0.06340933
132	0x3e82778c	0.25481832
133	0x3c0b4484	0.008500222
134	0xbd290e80	-0.041273594
135	0x3ea8ae9e	0.32945722
136	0x3df549d6	0.11976974
137	0x3ec00c47	0.37509367
138	0x3ea4f3ca	0.32217246
139	0xbdca36f6	-0.09873764
140	0xbe72e915	-0.23721726
141	0xbeaeb9ef	-0.3412623
142	0x3e37eeea	0.17962232
143	0x3e8f4b4b	0.2798713
144	0xbedcf70d	-0.43157235
145	0xbe3390e4	-0.1753574
146	0xbe31a827	-0.17349301
147	0x3dd13e9b	0.10217019
148	0x3c3139f8	0.0108170435
149	0x3e6a4565	0.22878034
150	0xbe9a001c	-0.30078208
151	0xbe892331	-0.2678466
152	0xbe4563a6	-0.19276294
153	0x3e5d7966	0.21628341
154	0xbf28f796	-0.66002786
155	0x3ddec768	0.108778775
156	0xbe874da9	-0.26426437
157	0x3eebcc51	0.4605432
158	0x3e45dfcb	0.19323651
159	0x3e004616	0.12526736
160	0xbe58886b	-0.2114579
161	0x3e936ea9	0.28795364
162	0xbe79d8a0	-0.24399042
163	0x3d2def40	0.042464495
164	0xba62c104	-0.00086499774
165	0xbe5c8fe4	-0.21539265
166	0x3e819d18	0.25315166
167	0x3e8ac14e	0.27100605
168	0xbc8d93b2	-0.01728234
169	0x3bda7928	0.006667275
170	0x3e876973	0.2644764
171	0x3e0315f1	0.12801339
172	0x3f2f815f	0.6855678
173	0x3ef2a5f0	0.47392225
174	0xbe52da0f	-0.20590995
175	0x3d7c158b	0.061543982
176	0xbee4b638	-0.44670272
177	0x3e7ef767	0.24899064
178	0x3eb3c32d	0.35109845
179	0xbe8e456b	-0.27787337
180	0xbdad684d	-0.084671594
181	0xbe6eca66	-0.23319396
182	0x3d54bee1	0.05193985
183	0x3e187906	0.14889917
184	0xbd8a05f9	-0.067394204
185	0x3eaed609	0.3414767
186	0x3e2308e5	0.15921362
187	0x3d52fdac	0.05151145
188	0x3e99cbf7	0.30038425
189	0x3e24f221	0.1610799
190	0x3e183ae9	0.14866222
191	0x3e03fb32	0.12888792
192	0xbf197d78	-0.59957075
193	0x3d78da5e	0.060755126
194	0xbe4cfc09	-0.20018019
195	0xbe28d445	-0.16487224
196	0x3e32a35f	0.17445134
197	0xbe601bc7	-0.21885596
198	0xbde931f6	-0.113864824
199	0x3efff47c	0.49991214
200	0xbef7d1d0	-0.48402262
201	0xbd9d4038	-0.076782644
202	0xbe83f79d	-0.2577485
203	0xbf79e4a9	-0.9761453
204	0x3d48cb7f	0.049022194
205	0xbeabc573	-0.3354908
206	0x3ecb60ac	0.39722192
207	0xbf073a9d	-0.5282381
208	0x3eef696a	0.46760112
209	0xbeacca7e	-0.3374824
210	0xbbc81b1a	-0.0061067464
211	0xbe9b433d	-0.30324736
212	0xbe9814ee	-0.29703468
213	0xbf028834	-0.5098908
214	0x3ed725dc	0.42021072
215	0xbea9f560	-0.3319502
216	0xbead739a	-0.3387726
217	0xbd702525	-0.058629174
218	0x3e709687	0.23494922
219	0x3d2da3fa	0.04239271
220	0x3f15b0cf	0.58472914
221	0xbdaeb75b	-0.08531066
222	0xbd5c1cc4	-0.05373837
223	0xbea929d1	-0.33039716
224	0xbdff1e43	-0.12456944
225	0x3ea78937	0.32721874
226	0xbeaaaa70	-0.33333158
227	0x3d25a101	0.04043675
228	0xbd77e38a	-0.060519733
229	0xbe87564f	-0.26433036
230	0x3ddc4ad8	0.10756463
231	0x3e8471ce	0.25868076
232	0xbda08ddf	-0.0783956
233	0xbe0c6604	-0.13710791
234	0x3ed610f1	0.418098
235	0xbe941844	-0.28924763
236	0xbe961927	-0.29316065
237	0xbdf100b8	-0.11767715
238	0xbe84776d	-0.25872365
239	0x3ebf5de5	0.37376323
240	0xbea70467	-0.32620546
241	0xbe4b3114	-0.1984294
242	0xbe1e9b0d	-0.15488835
243	0x3ebccf8c	0.36877096
244	0xbe9f33a1	-0.31094077
245	0xbc6f1f98	-0.014594935
246	0x3e4a3d54	0.19749957
247	0x3e9ef2b5	0.31044546
248	0x3dcaa612	0.09894957
249	0x3da3bd65	0.079951085
250	0xbe745f93	-0.23864584
251	0xbe3319f2	-0.17490366
252	0x3d9bc423	0.076057695
253	0xbd4f03fc	-0.05054091
254	0x3e047f85	0.1293927
255	0xbe3be0b3	-0.18347435
