forecasting/artifact/bilstm.pt (torch, 157050 bytes, 23 tensors)

lstm.weight_ih_l0 f4 [128, 6]
000000 32 b5 cf bd d6 5a 9d bc c9 68 bc 3d fe 1a ed ba
       -0.10141982 -0.019208353 0.09199674 -0.0018089709
000010 5c 94 1a 3e 6d ad 8f bc 60 f8 c6 3e f7 33 de be
       0.15095657 -0.01753875 0.3886137 -0.4339902
000020 32 16 24 bf 63 ef 52 be d1 b9 d9 be 01 46 a8 be
       -0.6409637 -0.20599131 -0.4252458 -0.3286591
000030 99 97 0c 3e c0 3a 06 be 00 e3 de be 5c d7 05 bf
       0.13729705 -0.13108349 -0.43532562 -0.5228174
000040 0e a0 7c be 07 21 3d 3e 76 ce 08 3c 7f 09 47 be
       -0.24670431 0.1846963 0.008350005 -0.19437216
000050 b2 64 81 be bf 20 f0 bd 68 5b 6b 3b 02 92 e1 be
       -0.25272137 -0.11724996 0.0035912637 -0.44056708
000060 9c ac f7 be 95 77 a7 be 01 ba ce be a2 69 f8 3e
       -0.48373878 -0.3270842 -0.40376285 0.4851809
000070 6c 33 cd 3e 93 02 12 3f 47 e6 d1 be 2b 46 79 bd
       0.40078294 0.5703518 -0.40996 -0.060857933
000080 c2 3f 19 be 73 8a 06 bf 1d fb 2d 3d 2f a0 13 3f
       -0.14965728 -0.52555007 0.04247581 0.57666296
000090 6a aa 2c bc 23 e2 9e 3e 9e d7 62 3d 86 67 86 be
       -0.010538677 0.31031904 0.05538141 -0.26250857
0000a0 10 19 1c 3e 5b af c2 be f7 7a 29 bd 75 8b eb bc
       0.15243936 -0.3802441 -0.041377034 -0.028753022
0000b0 fa f9 e7 bc b2 37 b7 3c 9d 4e 0e 3e 38 f9 02 3e
       -0.02831744 0.022365425 0.13897176 0.12790382
0000c0 f3 09 19 3e 8d c4 17 3e 0f 48 27 3e 3b fc ef 3a
       0.14945202 0.14821072 0.16336082 0.0018309423
0000d0 66 be 17 3d b1 08 02 3e d5 e0 d0 3c fc ac 50 bd
       0.037046812 0.12698628 0.025497833 -0.05094622
0000e0 cb 0d 55 be fd 05 0b bd d7 c9 0b be 53 18 88 bd
       -0.20806043 -0.033941258 -0.13651215 -0.066452645
0000f0 12 9e d4 bd a2 fa 2d 3e 52 bd 91 bc db bd 10 3d
       -0.10381712 0.1699014 -0.01779047 0.03533731
000100 f0 d5 ec 3d 0c 15 98 3d ea 67 fe bd 79 da 09 3e
       0.11564243 0.074258894 -0.12422164 0.13462247
000110 6c 6f c1 3d 3f 0f 63 bd dd a0 15 3b 32 90 ad 3e
       0.0944508 -0.05543446 0.0022831478 0.33899075
000120 00 2b e9 3d 68 a6 17 bd 08 e5 b2 bc 83 25 10 bf
       0.11385155 -0.03702393 -0.021837726 -0.5630724
000130 7e 98 07 be 1b f4 31 bd e5 8e e5 bd a9 af 9d 3e
       -0.13241765 -0.043445688 -0.112088956 0.3079808
000140 3c 29 ec 3e 2f be 89 bb 69 a1 e0 be 7f dc fa be
       0.4612521 -0.00420358 -0.43873146 -0.4899635
000150 64 6c e1 3e 92 02 1f be 6c 73 8e bd 9a 0c 20 3f
       0.44028008 -0.15528324 -0.06955609 0.6251923
000160 82 dd ad 3d be 21 37 bf b6 f0 e7 3d d9 21 85 bd
       0.08489515 -0.7153586 0.11325209 -0.065005966
000170 62 f8 91 3c f4 40 3f 3e f9 b7 92 3d 92 77 ef 3d
       0.017818633 0.18677121 0.07163996 0.11692728
000180 70 0d 26 be 70 e0 a8 3d bc 7a a6 be 6b 2a 7a be
       -0.16216063 0.08245933 -0.32515514 -0.24430244
000190 ef 8b 25 3d 34 8c af 3e 4d 91 b5 3b 40 9e ed be
       0.040416654 0.34286654 0.005541003 -0.46409798
0001a0 9e a0 c5 3e 23 12 26 3f de a9 54 3f bd dc fd 3d
       0.38599104 0.64871424 0.83071697 0.12395618
0001b0 25 5c 8a bd 5a b8 92 3d 22 f1 39 bf 77 fe e3 3e
       -0.067558564 0.071640685 -0.72633564 0.4453008
0001c0 49 f0 14 3f b3 db 9d 3e 53 79 b0 bb 87 fc 44 bd
       0.58179146 0.3083168 -0.0053855567 -0.04809239
0001d0 d1 48 3e 3c b1 60 71 3c 07 99 cd 3d 45 58 b5 bd
       0.0116140405 0.014732526 0.10038953 -0.08854727
0001e0 f1 64 9f bd 8c de 86 bd d8 5a 2e 3e 52 b8 f5 38
       -0.07782925 -0.06585416 0.17026842 0.00011716843
0001f0 f8 20 ef 3d fa 5b 70 3e f7 dc c5 bb 9f 17 8a bc
       0.1167621 0.23472586 -0.006038304 -0.016856967
000200 ea 99 59 3d 61 42 14 3e b8 b8 88 3d 7d e0 03 3d
       0.0531253 0.14478447 0.06675857 0.03219651
000210 d3 b8 61 be 9c 7d 67 bc 74 95 8c 3c 0f 4f 68 bd
       -0.22043161 -0.014129069 0.017161109 -0.05671602
000220 2c 64 b7 3d 6a d5 55 3e db 19 1d 3e c0 95 45 3d
       0.08954653 0.20882192 0.15341894 0.048238516
000230 7a 0d 09 be 7b 4b 0f 3e 50 24 57 3e 11 d6 bc 3e
       -0.13384047 0.13993637 0.21009946 0.3688207
000240 76 a5 cd 3b 5c dd 0d 3e 03 a5 2a 3e 1f 7a 14 3d
       0.006275828 0.13853973 0.1666451 0.036249276
000250 d5 a1 4e 3d 2f 91 eb bc 1b 85 9c be f8 aa ad 3e
       0.050447304 -0.028755752 -0.305703 0.339195
000260 ca ba 60 3e ef c8 55 be 71 d6 0b 3f c8 34 ca be
       0.21946254 -0.20877431 0.54624087 -0.39493394
000270 f8 b6 5e 3e 2d 87 a9 bd af e1 22 3e c3 bc 57 3f
       0.21749485 -0.08277736 0.15906404 0.842724
000280 b6 d5 ba 3d 7f d2 25 bf e1 4d b0 bd eb 0d 15 3e
       0.091227934 -0.64774317 -0.08608604 0.1455609
000290 7c 3d 18 3e 48 2b 90 3d 43 12 9a 3d 0e d5 8a 3e
       0.14867204 0.07039505 0.075230144 0.27115673
0002a0 64 d3 ca bd 06 1e 41 be 09 54 2b bf 99 5b a2 3e
       -0.09903601 -0.1885911 -0.669251 0.31710508
0002b0 33 12 46 be 80 2e 60 be 07 ab 30 3f e3 88 ce 3e
       -0.1934288 -0.21892738 0.69010967 0.4033881
0002c0 ba d2 41 3f 0f 9d c8 bd a9 6a 3f 3e 85 e5 57 3e
       0.7571217 -0.097955815 0.18693031 0.21083649
0002d0 d9 7e 2d be 0b cc 27 3d 24 f6 21 be 24 d9 e9 3c
       -0.1694292 0.040966075 -0.15816551 0.028545924
0002e0 2f c7 21 be 8e 7e 17 be 3b 88 be 3d f1 82 1f bf
       -0.15798639 -0.1479437 0.09303328 -0.62309176
0002f0 ee 16 f1 3b e5 41 4b bf d6 dc 48 be ed d7 7c be
       0.0073574698 -0.7939742 -0.19615492 -0.24691744
000300 d0 4a 3c 3d 29 9b 85 3c 72 da 00 be c5 64 2e bd
       0.045969784 0.016309338 -0.1258333 -0.04257657
000310 4b 00 a5 bd c1 bc fd bd df db 94 bd 59 19 55 be
       -0.080566965 -0.123895176 -0.072684996 -0.2081045
000320 6a 71 32 3e 83 58 7c be 9a 06 de be b7 23 c8 be
       0.17426077 -0.2464314 -0.43364412 -0.39089748
000330 47 2e 75 3e d1 d0 6d 3e ac 04 03 be 6d cf 60 3e
       0.23943435 0.23224188 -0.12794751 0.21954127
000340 61 a7 89 3e 8e ea 58 3e dd 46 8f bc 60 c6 60 bd
       0.26885512 0.21183226 -0.017489845 -0.054876685
000350 8a e4 0a bd 08 84 25 3e 56 d4 3e 3e 1e fd 56 be
       -0.033909358 0.16163647 0.18635687 -0.20994994
000360 01 64 fc ba 63 fe 97 bf f6 e5 06 be 78 2e 1e 3e
       -0.0019255878 -1.1874508 -0.1317366 0.15447414
000370 7c 94 73 bf da 78 55 be 5b be 04 3e e3 a7 de bd
       -0.95148444 -0.20846882 0.1296324 -0.108718656
000380 38 d2 82 be 3d 8d 04 be 9b 3f 09 3e ce ad b0 3e
       -0.2555101 -0.12944503 0.1340317 0.34507602
000390 7e b8 bf be bf 23 a6 bd 88 19 3b 3f 3e be e9 3c
       -0.37445444 -0.08112287 0.7308583 0.028533097
0003a0 7f 7a be 3e b8 53 ab 3e 0e cb d7 bc af 5d 83 3e
       0.37202832 0.3346231 -0.026341941 0.25657412
0003b0 c3 6d 2b 3d 38 7f b2 3e 90 42 82 3d 6e ce ef 3d
       0.041852724 0.34862685 0.06360352 0.11709295
0003c0 8e 6f 37 3b a7 d4 42 3d 34 0a e9 bd ab 25 78 bc
       0.0027990076 0.047566082 -0.11378899 -0.0151456995
0003d0 d0 22 20 3e 15 26 80 3d 13 34 08 3d 81 2a 0c be
       0.1563828 0.062572636 0.033252787 -0.13688089
0003e0 92 5a 68 be 0e 01 e2 be 07 93 0a be e7 78 15 3e
       -0.226908 -0.4414143 -0.13532649 0.14596902
0003f0 d9 15 cd 3d 40 c3 90 3d 0d 21 fd 3b bd 45 76 3c
       0.10013933 0.07068491 0.007724887 0.015031275

lstm.weight_hh_l0 f4 [128, 32]
000000 c1 6b 8d 3d 6b 59 2c 3e 80 fb 0a bf 34 40 3b bd
       0.06905318 0.16830985 -0.5429001 -0.045715526
000010 2b d5 1f be ca 3a 3b 3e 50 e5 23 bd 14 2e 2c 3e
       -0.15608661 0.18284145 -0.04001361 0.16814452
000020 98 b1 b0 3d 9e b2 40 3e 4c e3 62 bd 61 5f 81 3d
       0.08627623 0.18818137 -0.05539255 0.0631702
000030 c4 5b 17 3f a7 1b 49 be 05 8a b3 bd ca 83 46 bd
       0.591244 -0.19639455 -0.087665595 -0.048465528
000040 4f e8 3b 3c bd 44 c7 bd c9 f3 fb 3d 40 95 e6 3c
       0.011468961 -0.09729908 0.12302358 0.02814734
000050 bf 69 d8 bd 48 45 5c bd 2e 9f cb bd 92 fa 54 3d
       -0.105670445 -0.05377701 -0.099424705 0.051996775
000060 5c 7f e4 3d 43 88 40 bf 8e db 5c 3d 90 06 50 bd
       0.111571044 -0.7520792 0.05392032 -0.05078751
000070 43 0f 90 3c e2 c7 42 bd f8 78 29 3c 0e 24 88 be
       0.017585402 -0.047553904 0.010343783 -0.26590008
000080 a9 9f 83 be 25 69 55 3f d9 16 94 bf 62 3e f2 3d
       -0.2570775 0.8336356 -1.1569473 0.11828305
000090 e5 5e ff 3e ca a4 e8 3e 61 87 b1 be ed 9a c5 3e
       0.49877086 0.45438224 -0.34673598 0.38594761
0000a0 db 42 2d be fe df f1 bc 30 83 2f bf eb 34 27 3f
       -0.16920035 -0.029525753 -0.6855955 0.6531512
0000b0 9c 25 02 3f 39 7d 8b be 93 b4 25 bf a7 8c c2 be
       0.5083864 -0.27243975 -0.6472866 -0.37997934
0000c0 9e b6 1c 3e af 94 6b be 9c 54 24 3e 2f c6 ac 3c
       0.15304038 -0.23005937 0.16047901 0.021090595
0000d0 15 15 41 3e 97 9a e3 3d d5 1a 29 3f 47 12 04 3e
       0.18855698 0.1111347 0.6605657 0.12897597
0000e0 21 f1 ad be 58 d5 95 bf aa 63 27 3f fb d1 7b bd
       -0.3397303 -1.1705732 0.6538645 -0.06147955
0000f0 8a 6a 00 3d 1d ff 05 bf 38 7c 83 bd 68 d5 df be
       0.031351604 -0.52342397 -0.06420177 -0.43717504
000100 86 8f b0 3e 1e 17 47 bf cb 56 4a be 66 e9 8c 3e
       0.344845 -0.7776965 -0.19759671 0.2752182
000110 7e 7b 84 3e 23 6e 38 3c 37 d3 af bd c9 34 32 bf
       0.25875467 0.011256727 -0.08585208 -0.69611794
000120 59 eb a0 be 57 b6 8b bd e6 9c 0b 3f 4e e3 7d be
       -0.31429556 -0.06821888 0.54536283 -0.24793741
000130 62 e3 5e bf a4 bb e7 bf 87 07 a5 3e d3 92 4c 3f
       -0.8706571 -1.8104138 0.32232305 0.79911536
000140 97 7a 01 3d b4 f1 a1 bd fa 15 ee be 8f 90 52 be
       0.03161105 -0.07907429 -0.46501142 -0.20562957
000150 e2 2c c4 be ce d2 23 bf fc ec b7 bf 6e 7c 82 be
       -0.38315493 -0.6399354 -1.4369197 -0.25485557
000160 73 5d 8b 3f 59 85 92 3f 75 2b 3e bf 37 b9 46 be
       1.0887893 1.1446944 -0.7428506 -0.19406591
000170 99 bd bf be 35 6d 62 3f c1 57 73 3e 41 a3 32 3f
       -0.3744934 0.88447887 0.23763944 0.69780356
000180 6a 29 a3 3e 67 47 13 3e fd 28 8a 3d ca b8 27 3e
       0.31867534 0.14382707 0.06746099 0.16379085
000190 30 4c 11 be 22 a9 27 3f f1 6c bd 3e f8 69 76 3c
       -0.1418922 0.6549245 0.36997178 0.015039913
0001a0 e8 a6 d6 3d b8 8d 5b 3c 34 6f d0 be ac 02 1e 3f
       0.104810536 0.013400488 -0.4070984 0.61722827
0001b0 3b e8 5b 3c ae 2e 08 3e 48 4b b9 bd e9 e6 13 be
       0.013422067 0.13299057 -0.09047562 -0.14443554
0001c0 fe a7 c5 be 64 04 b5 39 0b b0 12 be 24 eb c7 3e
       -0.3860473 0.00034526282 -0.14324968 0.39046586
0001d0 4b 4f 0f 3f 6e 82 90 3e 99 52 e5 bc 5b 11 52 bf
       0.55980366 0.2822451 -0.027993487 -0.8205773
0001e0 b3 df 9d be 88 a9 9b 3d 8d ff 1c 3f b2 c4 14 3f
       -0.3083473 0.07600695 0.6132744 0.58112633
0001f0 7e 92 f4 3e b7 41 ac 3e f4 09 58 be de 14 84 be
       0.47768015 0.33643886 -0.21097547 -0.2579717
000200 57 48 1f 3d e8 56 7b 3f a3 b1 4b 3f 7b 70 0d 3e
       0.038887348 0.98179483 0.7956793 0.13812439
000210 04 b3 65 be e4 b3 55 be af 29 67 bf db 5f 8e bf
       -0.2243157 -0.20869404 -0.9029798 -1.1123003
000220 60 2d a1 bd c8 84 2e bd ee df 55 3f 1e 46 73 bf
       -0.07869983 -0.0426071 0.83544815 -0.95028865
000230 47 c9 d0 be ba 05 25 bf c7 ed 12 3f e9 a0 52 bf
       -0.40778562 -0.64461863 0.5739407 -0.8227678
000240 9f cc 10 3f 79 9e 9f 3d 14 80 1b 3f 5e b7 a8 3b
       0.56562227 0.07793898 0.60742307 0.005148812
000250 6a 70 08 bf c0 04 eb 3e 21 cd 8d 3d 92 77 59 3e
       -0.5329653 0.4590206 0.06923891 0.21237019
000260 c6 76 9e 3e b3 f2 30 3f 63 3a 20 bf 5a ef 0f bf
       0.30949992 0.6912033 -0.6258909 -0.56224597
000270 db ee 61 3e 3f 2e 0a 3f d5 cb de 3b 2f 3c 9b 3e
       0.22063772 0.53976816 0.006799201 0.30319354
000280 72 30 c0 bd 81 ed 48 3e 34 ad 6f 3c 84 b9 a1 bd
       -0.0938424 0.1962185 0.014628697 -0.078967124
000290 4f 96 1f be 10 36 f0 be a6 94 20 bf f2 d1 2f 3e
       -0.15584682 -0.46916246 -0.6272682 0.17169932
0002a0 e4 62 a4 bd 2a 71 91 bb c9 76 2d 3f c4 39 85 bf
       -0.080266744 -0.004438539 0.67759377 -1.0408254
0002b0 5d 81 1e be fa 66 7e bd a1 d4 a5 3e 6f d7 cb be
       -0.15479036 -0.062109925 0.32388785 -0.398128
0002c0 7b 7c 42 3f db a5 dd bd f6 9c 85 3d f1 e4 bc be
       0.7597119 -0.1082265 0.065240785 -0.36893418
0002d0 ec fe 04 bf 73 0c f0 bd 8c 5c ab be 8b e2 92 3f
       -0.5195148 -0.117211245 -0.33469045 1.1475385
0002e0 35 da 07 3e bc 18 a9 be 68 af 03 bf 8d 2c 75 bf
       0.13266833 -0.33026683 -0.51439524 -0.95771104
0002f0 0e f3 80 bf a1 21 56 be 8d f2 47 3f a5 db 8f 3d
       -1.0074174 -0.20911266 0.7810448 0.07024316
000300 93 9f 40 bc 8a dd 45 3f 21 a2 0f 3f 85 96 1d bd
       -0.011756795 0.77291167 0.56106764 -0.038473625
000310 c1 5b 2d bf e4 9b b0 be 14 41 df 3e 44 1f 02 3e
       -0.6771813 -0.34493935 0.43604338 0.1270724
000320 1c ad 50 3e 56 19 77 be 44 4a 42 3e b7 dd 51 be
       0.20378536 -0.24130759 0.18973643 -0.20494734
000330 62 0f cb 3e e9 28 52 3f 6a 53 7c 3e f9 e7 a0 3e
       0.39660174 0.82093674 0.24641195 0.3142698
000340 17 5e 80 be df 4b a4 bd 9b b4 29 bf c7 44 a4 be
       -0.25071785 -0.08022284 -0.6629121 -0.32083723
000350 1a d0 b6 be 92 8e df be 44 2a db be cc 9b 9d be
       -0.35705644 -0.4366346 -0.42805684 -0.30782926
000360 b9 2b 4c be ae 03 5a be cb 1e 12 be f7 e1 96 be
       -0.19938554 -0.21290466 -0.14269559 -0.29469272
000370 fe 7e 9f be cd e7 7f 3e f4 d8 57 3e 39 56 18 3e
       -0.31151575 0.24990769 0.21078855 0.14876641
000380 f9 93 e2 bd 88 a0 20 3e 18 3d 65 be d8 b4 84 3d
       -0.1106338 0.15686238 -0.22386587 0.06479806
000390 9c b4 a6 3d d4 df 2d bc 5e fb 16 bf 0c 04 6a bd
       0.08139917 -0.010612447 -0.58977306 -0.057132766
0003a0 78 ae a9 3d 0e c7 d8 bd ce da a5 3d 01 de c5 be
       0.082852304 -0.10584842 0.08098374 -0.38645938
0003b0 b7 1a b4 3e ae ae b8 3c 6a 78 3c 3e 1c 84 cf be
       0.35176632 0.022544231 0.1840531 -0.4053048
0003c0 1d d0 c9 3e 20 d1 92 3d c0 8d 91 3e de 4b 3e bd
       0.3941659 0.07168794 0.2842846 -0.04645907
0003d0 28 22 99 be e1 ac 40 be 98 8e f8 3d 00 fb 5c 3e
       -0.29908872 -0.18815948 0.121365726 0.21580124
0003e0 c4 6a 6b 3e 89 40 ca be 52 97 4b be 8f 5a b1 bd
       0.22989947 -0.3950236 -0.19881943 -0.08659851
0003f0 9e 55 50 be 3b 3c 15 be d6 1b 6b 3d a9 74 a4 3d
       -0.2034516 -0.14573757 0.057399593 0.08030064

lstm.bias_ih_l0 f4 [128]
000000 66 67 1d 3d fc 9f a5 bd d3 29 80 3e af 6d 20 bf
       0.038428687 -0.08087155 0.2503191 -0.62667364
000010 f0 2b 22 3e b4 05 10 3f e4 8b b5 be 84 4d 7c 3e
       0.15837073 0.562587 -0.3545829 0.24638945
000020 22 f7 41 3e 1f 1e 45 3e 79 c0 ea bd 7f 11 2c 3e
       0.1894193 0.19249772 -0.114624925 0.16803549
000030 64 18 cc 3d b2 e6 56 be 56 6c 59 bf 7c 88 90 3d
       0.0996559 -0.20986441 -0.8493093 0.07057282
000040 fb 66 c2 3e 47 c5 b7 3e 47 1e 89 3e 7b ee 10 be
       0.37969193 0.35892698 0.26780912 -0.14153473
000050 f6 f7 87 3e 98 a1 11 3e ce 40 29 3d 47 f5 8d 3e
       0.26556367 0.142218 0.04132157 0.27726194
000060 b9 1d 54 bd ed 27 d2 bd 98 bb 4d bf 52 98 19 3e
       -0.05178616 -0.102615215 -0.8036437 0.14999512
000070 61 d4 af be c6 3c 04 3f 80 ff d0 bd e7 56 e8 3c
       -0.3434172 0.5165523 -0.10204983 0.02836175
000080 c9 9e 79 bd ff 26 c2 be a8 fb 93 3e 80 f4 fe bc
       -0.060942445 -0.37920377 0.28902936 -0.031122446
000090 ac 17 a7 be ec 3f 94 3e 83 22 8a 3e 62 a8 b1 3e
       -0.32635248 0.2895502 0.26979455 0.34698778
0000a0 77 5c a8 bb 59 ee 04 bd 98 81 89 3e b2 5f 47 3e
       -0.005137976 -0.03245387 0.26856685 0.19470099
0000b0 aa 83 18 be 83 ff 53 be 9d 1b 35 bc e2 e3 69 be
       -0.14893976 -0.20702939 -0.011053947 -0.22840837
0000c0 51 35 82 3e e7 11 33 be 6a ce 9b bd 15 c5 51 bc
       0.25431302 -0.17487298 -0.0760773 -0.012803336
0000d0 fe 0b 97 3e fb be 5a 3c 63 f6 4a 3c 61 55 b8 bc
       0.29501337 0.013351197 0.012387845 -0.02250165
0000e0 ad 5c d5 3d 34 43 2c 3e 59 c2 4e be 0e be 31 3e
       0.10418067 0.16822511 -0.20191325 0.17357656
0000f0 52 2a 3c 3d 94 d7 5a 3d 08 dd db 3d 68 10 e2 3d
       0.045938797 0.053428248 0.10735518 0.110382855
000100 ed cf 76 3d 76 ec dc bd 3c 3b c8 be 32 61 f6 bd
       0.060256887 -0.10787289 -0.39107692 -0.12030257
000110 fb 2f 69 3e 97 fa 26 3e 26 53 88 be d1 fa 12 3e
       0.2277221 0.1630653 -0.26625937 0.14353491
000120 c2 14 ae bc 9d e9 dd bd 63 85 f2 3d 8a 09 50 be
       -0.021250132 -0.10835574 0.11841848 -0.20316139
000130 4c c0 06 3e 0b e5 a0 3d 60 91 91 3d c3 f0 51 be
       0.13159293 0.078561865 0.07107806 -0.20502
000140 90 b0 28 3e 07 7f 1c bd 2d 0e d2 3e ba 58 0e be
       0.16473603 -0.03820708 0.4102644 -0.13901034
000150 81 72 78 3e e7 c8 f8 3d 6d 92 96 3e 5c 39 11 3e
       0.2426243 0.12147694 0.2940859 0.14182037
000160 8d 45 33 bd ce 50 81 bd 95 dc cb bd b0 ce 0b 3e
       -0.0437675 -0.063142404 -0.09954182 0.13653064
000170 a6 42 15 3c ba 37 cd bc fa cc 98 3e 05 28 36 be
       0.0091101285 -0.025050987 0.29843885 -0.17788704
000180 36 9e 4f be 31 8c 55 3e d8 5c e3 3e 5d 3c a4 3d
       -0.20275196 0.2085426 0.44406772 0.08019326
000190 50 29 30 3e ca cd 20 3e 2c 7b 97 3e 61 38 dd 3e
       0.1720326 0.15703502 0.2958616 0.43207076
0001a0 af bb 9b bd 4a d7 72 be 98 d7 33 bf 00 03 ed be
       -0.07604157 -0.23714939 -0.70250845 -0.4629135
0001b0 f3 84 59 3e 73 5e ea 3c 17 d2 27 bd 68 3b e0 3c
       0.21242122 0.02860949 -0.04097184 0.027372077
0001c0 27 69 24 3e 6d 5b f3 b9 76 5c 0e be 3a b2 2b be
       0.16055737 -0.0004641669 -0.13902459 -0.16767207
0001d0 ef a7 2c bf d1 47 c2 be 75 11 84 3e 0f d0 28 3f
       -0.67443746 -0.37945417 0.2579457 0.6594247
0001e0 f5 ee 01 be f2 1c 3b 3f db 13 a9 bd 3b e5 8b 3e
       -0.12688811 0.7309104 -0.0825574 0.27323326
0001f0 b6 44 16 3e 16 6c 88 3e 40 7b b5 3d 79 1e c4 be
       0.14674649 0.26644963 0.08861399 -0.383045

lstm.bias_hh_l0 f4 [128]
000000 d2 e4 9c 3d 7f 6b 70 be 00 39 88 3e 36 df 1c bf
       0.076608315 -0.23478507 0.26605988 -0.6127809
000010 ca e7 71 3e 43 c7 25 3f c3 9e eb be fc 25 ff 3d
       0.23623577 0.64757174 -0.46019563 0.12458417
000020 be 8a 47 3e a4 f3 29 b9 db 2d 07 3e 72 15 b8 3e
       0.1948652 -0.00016207859 0.13201086 0.3595386
000030 45 80 7d 3e a5 1c c8 be 10 48 38 bf 5a 2a bb 3d
       0.24755962 -0.39084354 -0.7198496 0.09138937
000040 54 a7 ad 3e 42 e7 c7 3e ef 39 4a 3e d6 7a e7 bb
       0.33916724 0.39043623 0.19748662 -0.0070642037
000050 3d c5 ae 3e e1 d3 2e 3d 6c 9a 64 3d 50 f3 b3 3e
       0.34134856 0.042682532 0.05581133 0.3514657
000060 3a e9 af bc 20 8b f3 bb 2b d8 4c bf f0 34 90 3e
       -0.021473516 -0.0074323565 -0.80017346 0.28165388
000070 7b 4d a5 be a1 93 d8 3e d4 b8 1e be 2c 98 21 bd
       -0.32285675 0.42300132 -0.15500194 -0.039451763
000080 84 6b 7b bd b5 02 c6 be 27 23 00 3e b7 e7 24 be
       -0.06138183 -0.3867394 0.1251341 -0.16104017
000090 68 0f ca bd 99 c7 97 3e 4c d0 88 3e 7b 22 a2 3e
       -0.0986622 0.29644468 0.26721418 0.31666932
0000a0 24 5f 10 3e ae 1a 0a 3e e2 80 75 3e d4 de 6d 3e
       0.14098793 0.1348674 0.23974946 0.23229533
0000b0 60 d9 2d bd 44 a8 a2 be b6 3a 04 be 41 2a 64 be
       -0.042443633 -0.31769 -0.12913021 -0.22281744
0000c0 82 b6 96 3e 1b b8 90 bc 52 f4 16 bd 6a 3b a1 bd
       0.29436117 -0.017665913 -0.036854096 -0.078726605
0000d0 4e 3c 3b 3e 25 2a 95 bd ec bd 72 3e 65 62 07 bd
       0.18284723 -0.07283429 0.23705262 -0.03305282
0000e0 7a 46 91 bd cc 2b 59 3e 3b dd fe bd 84 6e a3 3e
       -0.070935205 0.21208113 -0.1244454 0.31920254
0000f0 1a cb 9d 3d 49 34 2b bd ac 88 9f bd eb 5c 5b 3e
       0.07704754 -0.04179791 -0.0778974 0.21422164
000100 22 8b 9f bc 22 72 87 be 54 b2 c1 be e7 48 82 bd
       -0.019475523 -0.26454264 -0.37831366 -0.06361561
000110 a6 f9 04 3e 22 89 a2 3e fb 94 a5 be dc 56 31 3e
       0.12985858 0.3174525 -0.32340226 0.1731829
000120 e0 c1 81 bd 09 2d c1 bc 0d 30 6c bc e1 0f e0 bd
       -0.06335807 -0.023581045 -0.014415753 -0.10940529
000130 3e f7 a6 3e e8 66 b7 3d 50 72 32 3e f1 7c 13 be
       0.32610506 0.08955175 0.1742642 -0.1440313
000140 a9 be fd 3d 53 36 79 be 91 87 cf 3e 58 89 0b be
       0.12389881 -0.2433713 0.40533116 -0.13626611
000150 d1 ee d3 3e 74 8e 7c 3e fa 64 9b 3e e6 0d 7b 3e
       0.4139314 0.24663717 0.30350477 0.2451702
000160 e1 31 de 3d 9d af 55 be c4 39 73 bd 31 61 91 3e
       0.108493574 -0.20867772 -0.05938126 0.28394464
000170 31 20 b6 bd 12 f3 7e bd fd fe 8a 3e 92 6d a5 be
       -0.08892859 -0.06224353 0.27147666 -0.32310158
000180 28 31 73 be f0 98 64 3e bd 2b 98 3e 7b c8 74 bd
       -0.2374922 0.22323966 0.2972087 -0.059761506
000190 67 bb 9e 3e e3 3f ae 3e 14 0a 10 3e ae 6e fa 3e
       0.31002352 0.34033117 0.14066344 0.48912567
0001a0 e9 b4 74 be a5 c2 14 be f9 8f 46 bf 82 83 fa be
       -0.23897137 -0.14527376 -0.77563435 -0.48928457
0001b0 28 12 8d 3e 1e e1 a3 3c 8c 01 28 be 56 5e e4 3c
       0.27552915 0.020004805 -0.1640684 0.027877014
0001c0 39 70 4a 3d ae d6 58 3e 94 42 7a be 39 82 cd bd
       0.04942343 0.21175644 -0.2443946 -0.100346036
0001d0 20 e7 21 bf 41 90 95 be 13 3b 44 3e 65 5b 23 3f
       -0.63243294 -0.2921162 0.1916316 0.6381133
0001e0 f1 15 89 bd a2 eb 6a 3f 1e 1c 6f be e7 14 25 3e
       -0.06693638 0.917658 -0.2335057 0.16121255
0001f0 25 aa 66 3d 5a 00 96 3e ad 63 e6 3d 55 20 9b be
       0.056314606 0.29297143 0.112494804 -0.30298105

lstm.weight_ih_l0_reverse f4 [128, 6]
000000 14 a1 fd ba b9 f5 70 be dc 2f ca 3e b2 1b 65 be
       -0.0019350373 -0.23531236 0.3948964 -0.22373846
000010 e0 43 38 be c4 f2 2a 3f 82 83 dc 3c 80 12 07 3e
       -0.17994642 0.6677668 0.026918177 0.13190651
000020 61 0d 8d bc bd 6c 84 bc de 5a fa 3b 78 1e 86 3e
       -0.017218294 -0.016165132 0.0076402267 0.2619512
000030 83 1a fc bd 24 ab 8d bb 7c c7 ff 3c 75 32 65 be
       -0.12309744 -0.00432338 0.031223051 -0.22382529
000040 3d 0e 2b 3d 8a e2 ae 3e 0d be f2 3e ad 36 5b 3d
       0.041761626 0.3415721 0.47410622 0.05351894
000050 9a 62 64 be 8d 96 4e 3e e3 1c 08 3e 3b 62 f3 be
       -0.22303239 0.20174618 0.1329227 -0.4753588
000060 75 4e 0e 3e 93 5e 9a 37 64 b1 cf bd 5a 43 15 3e
       0.13897116 1.840227e-05 -0.101412565 0.14576474
000070 e3 49 bb 3e 6c 98 c6 3e 5b e4 0b be 31 f0 43 be
       0.3657981 0.38788164 -0.1366133 -0.19134595
000080 2b 32 07 3e 3c 54 a7 bd 9a ad 9a bd d6 22 3f be
       0.13202731 -0.08170363 -0.07552643 -0.18665633
000090 b0 f5 94 3d 99 95 92 3d c0 af da 3d e3 6e 17 3e
       0.07273424 0.0715744 0.10678053 0.14788394
0000a0 bf 65 2b 3e 06 12 b6 3e 26 5f 02 3a a5 39 ba bd
       0.16738032 0.35560626 0.00049732847 -0.09093026
0000b0 5f 42 a3 3d b4 a6 8f 3d 3e 77 39 3d 22 34 c9 be
       0.07971644 0.07014218 0.045279734 -0.39297587
0000c0 72 da b2 bc f1 33 6e bb a4 a3 dd 3b 63 c4 3d 3e
       -0.021832678 -0.0036346877 0.0067638922 0.18531947
0000d0 8e 55 f9 3c 54 e5 7c be be 02 4c 3e 9b b4 05 bd
       0.030436303 -0.24696857 0.19922921 -0.032642942
0000e0 44 19 67 3e b5 86 2d 3e 56 03 f8 3d 05 97 90 3e
       0.22568232 0.16945918 0.12110011 0.2824022
0000f0 db 7e b2 be b6 3b d4 b9 3c c5 63 3e 97 50 15 bf
       -0.34862408 -0.0004048028 0.22243208 -0.58326095
000100 6d 2f 33 be 15 40 21 3f a5 3e 0c 3e 8d 5b 6f 3e
       -0.1749856 0.62988406 0.13695772 0.23374768
000110 3e 50 8f 3e 4b 06 b7 3e f8 58 0d 3e 9c 59 39 3e
       0.27990907 0.3574699 0.1380347 0.1810059
000120 69 6d 23 be a1 9a 31 bd bb 77 70 bd 72 3a 4a 3d
       -0.15959705 -0.043360356 -0.058707934 0.049372144
000130 43 87 3e 3d 52 e3 e2 3d 8b 12 d2 3d 63 a7 c6 3d
       0.046515714 0.11078514 0.10257443 0.09699895
000140 9f 19 bd 3e a7 ba 45 3e f4 69 96 3d 5c c4 5a bd
       0.3693361 0.19309483 0.07344428 -0.05340992
000150 1f e6 fb bd 2e fa 35 be c0 d4 48 bd 67 ba 71 bd
       -0.122997515 -0.17771217 -0.04903102 -0.059015658
000160 1e 5b dd bd 64 f0 87 be 81 20 6e 3b 75 b1 99 bd
       -0.10808395 -0.2655059 0.0036335292 -0.0750455
000170 63 66 e6 be f6 88 d8 3e c1 dc 2c 3e 4c 1f 83 be
       -0.4499999 0.42291993 0.16881086 -0.25609815
000180 8e f0 c0 bc b2 e1 93 3e 6f bc 3c 3e 54 0d eb 3d
       -0.023552205 0.2888313 0.18431257 0.114771515
000190 c1 e0 c5 3e c7 7d db 3e a5 90 77 be b5 55 b6 be
       0.38648036 0.42869398 -0.24176271 -0.35612264
0001a0 94 54 ad bd 3e fc a8 be 19 8d 80 bd af 48 90 3e
       -0.084633976 -0.33004946 -0.06276912 0.28180453
0001b0 96 c2 1d be a3 e6 9f 3d 97 45 0d be 82 c4 46 bf
       -0.1540626 0.07807662 -0.13796078 -0.776436
0001c0 20 ec 9c bd d4 1d 49 3f ba 77 19 bf cc 7a 40 bf
       -0.07662225 0.7856114 -0.59948313 -0.75187373
0001d0 02 5a 54 3d 54 26 25 be 77 a8 6e be de b9 88 be
       0.05184365 -0.16127902 -0.23306452 -0.26704305
0001e0 51 fa 9a 3e ba 75 01 3e b2 d3 0a 3e db f1 14 3e
       0.302691 0.12642565 0.13557318 0.14545386
0001f0 54 05 65 3e eb aa 23 3e 80 d3 34 bd ec 05 f1 3e
       0.22365314 0.15983169 -0.044147015 0.4707483
000200 8a ae a0 3e 52 13 9a 3c 66 97 94 3e f5 b5 0b 3e
       0.31383163 0.01880804 0.29021758 0.1364363
000210 ed f1 38 3d ef c1 c7 bc 4e d0 b8 3d 4b c2 d1 3d
       0.045152593 -0.024384467 0.09024106 0.102421366
000220 e9 5d 15 3e ed f5 3a bc fb ac 81 3d df 0c b0 3c
       0.14586605 -0.011411172 0.063318215 0.021490512
000230 5f 08 65 3d 99 fb 9d 3c 71 c2 d4 3e ca 8c b0 3e
       0.055916186 0.01928501 0.41554597 0.34482414
000240 ec 0f 48 bd 4a 82 43 bc 30 cd 17 bd 85 93 35 3e
       -0.04884331 -0.011932919 -0.037060916 0.17732055
000250 f8 94 a2 3d 18 fa 76 3d 52 55 1e 3e 3f b4 d6 3e
       0.0793857 0.0602971 0.15462235 0.41934392
000260 b6 1a 0e 3f 51 b6 23 3f a8 de 04 3f 27 48 0d bf
       0.5550951 0.6395007 0.51902246 -0.5518822
000270 cb 2f b5 be 32 1b 67 3e be 9e d4 be f8 e6 21 bf
       -0.35388026 0.22568968 -0.4152736 -0.63243055
000280 94 8c 4c be 54 f8 c3 3e 2f 99 e5 bd 96 b1 5e bd
       -0.19975501 0.38275397 -0.11210858 -0.054368578
000290 41 63 16 be 3b 16 36 3e 20 9b 83 bd 93 66 2b 3d
       -0.146863 0.17781918 -0.06426072 0.04184587
0002a0 b5 3f bc bd 01 22 81 be eb 18 a4 be 04 44 e2 be
       -0.09191839 -0.25221255 -0.3205026 -0.44192517
0002b0 8d e0 2d be 10 87 6d 3e 43 39 e0 bd 3e 99 99 3d
       -0.1698019 0.23196054 -0.10948422 0.07499932
0002c0 90 13 84 3d 21 88 c7 bd 64 66 11 3e 00 43 9e 3e
       0.06449044 -0.097427614 0.14199215 0.30910492
0002d0 38 10 ed bd 8a 7e 0b 3f 39 7e 48 bd aa da 45 bf
       -0.11575359 0.5448996 -0.0489485 -0.7728678
0002e0 a8 b5 1f bf 6b a5 41 be d5 20 66 3d 51 0f 9a 3c
       -0.6238656 -0.18910758 0.056183655 0.018806132
0002f0 d0 67 af 3d 1f 12 21 3e d9 de 01 3e cc 31 a8 3e
       0.085647225 0.15729569 0.12682666 0.32850492
000300 1b ec 9c bd 79 65 c2 bd d4 91 f3 3d dc e6 5d be
       -0.07662221 -0.094920106 0.11893049 -0.21670097
000310 07 51 37 be c7 48 69 be 0c ab ae 3d 6e 01 46 3e
       -0.17902003 -0.22781669 0.08528718 0.19336483
000320 c7 73 a6 3e d2 e6 9a 3d ea 69 e8 38 4e ba e4 3e
       0.32510206 0.07563557 0.0001108235 0.4467339
000330 3b 60 3b be 9e e5 ee be 1b d7 eb 3d 05 12 b7 be
       -0.18298428 -0.4665956 0.115156375 -0.35755935
000340 c9 d2 88 bd ac 23 79 be c8 29 83 3c 65 f3 df 3c
       -0.06680829 -0.24330014 0.016011134 0.02733774
000350 93 7b 7b bc cd b3 5e be 0b 8e 1e be a9 9c f1 be
       -0.015349287 -0.21748276 -0.15483873 -0.47189835
000360 a3 b5 ae 3d 9a 6f 72 bd 99 80 d0 be f3 28 02 be
       0.08530738 -0.059188463 -0.40723112 -0.12710933
000370 d2 aa 92 be 04 05 91 be fa b0 e0 3e 0a d1 3c 3e
       -0.2864595 -0.2832414 0.43885022 0.18439117
000380 24 ce a5 3c 77 01 92 3e 67 38 72 3d 48 ec fb 3e
       0.020239897 0.28516743 0.05913582 0.49203706
000390 49 dd 73 3d 96 5e 7b bd 83 a5 fe 3c 20 4c 5f 3e
       0.059537206 -0.0613695 0.031084782 0.21806383
0003a0 0d 21 fe 3d c8 df 8b 3e 8a 48 6c 3d 19 9d 97 be
       0.12408648 0.2731917 0.057686366 -0.29612043
0003b0 12 b6 3d bf a3 b4 c2 bd 9e f8 85 be 51 4c 97 be
       -0.7410594 -0.0950711 -0.26166242 -0.29550412
0003c0 fc 27 db bd 2c b0 84 3e 53 11 a5 3c 8e f9 35 be
       -0.10700986 0.25915658 0.020149862 -0.17770979
0003d0 3f e5 3b be 3a 7f 3a be 2d 91 a4 be 15 70 c6 bd
       -0.18349169 -0.18212596 -0.3214201 -0.09689347
0003e0 ac e5 1e be 30 a5 46 bf c6 0a cc be 0f fb c2 3d
       -0.155173 -0.77595806 -0.3985197 0.09520542
0003f0 f8 82 77 3d 1f f1 52 bf 7f 90 60 3e d6 51 7c bc
       0.060427636 -0.8239917 0.21930121 -0.015400371

lstm.weight_hh_l0_reverse f4 [128, 32]
000000 9c d2 da be 2b 69 2e bf 17 7a fc be 9b bd a8 3e
       -0.42738807 -0.68129224 -0.49311897 0.32957157
000010 d4 a1 88 3e 77 65 e5 bd e4 92 c7 3e a0 b9 48 3f
       0.26685965 -0.112009935 0.38979256 0.7840824
000020 30 15 5d be 14 ca 0b 3f 88 f9 17 3f 02 61 b2 3d
       -0.21590114 0.5460522 0.5936513 0.08709909
000030 91 26 2e 3e 5b 88 1e 3f 4f 3b db 3d 08 c0 c3 3d
       0.170069 0.6192681 0.107046716 0.095581114
000040 5c fd 05 3f 1b e1 75 bf 5c 6e 2f bf f4 ed 3f bf
       0.5233972 -0.9604661 -0.6852777 -0.7497246
000050 b4 26 89 3d f0 43 04 bd 94 9d ed bd c8 ae 2a 3f
       0.06696835 -0.032291353 -0.11602321 0.66672945
000060 31 9e d2 be 9b 2a 99 3e e1 58 98 be 06 8c bf be
       -0.41136315 0.29915318 -0.2975531 -0.37411517
000070 e7 46 80 3a b9 b1 64 be fd 94 34 bf 13 3f c0 be
       0.0009786756 -0.22333421 -0.7053984 -0.37548122
000080 fd 7b 6d 38 0e 68 4d 3c d6 be d4 3d 51 a5 a4 3d
       5.6620676e-05 0.012537016 0.103879616 0.08039344
000090 1f 8f c7 bd 45 e0 92 3d 36 2c 7e bb 49 54 25 bd
       -0.09744095 0.07171682 -0.0038783676 -0.040363584
0000a0 93 89 29 3d 84 2f 8f bc bc d1 21 be 10 3b 8f 3c
       0.041390967 -0.017478712 -0.15802664 0.017484218
0000b0 0e a2 8d 3d 1d 5a b9 bd 1c 52 a9 bd 5f 45 a0 3b
       0.06915675 -0.09050391 -0.08267614 0.004891082
0000c0 e5 33 2a 3e ce 39 af 3d 87 a7 d4 bd 91 03 83 bb
       0.16621359 0.08555947 -0.10383516 -0.003998228
0000d0 29 12 9a bd b3 8e 4b 3d 40 cf b6 bd 22 7e 96 3d
       -0.07522995 0.049696635 -0.089262486 0.07348277
0000e0 7e 97 31 3d 02 50 aa be 37 92 e5 bc 3f 8c 15 3e
       0.043357365 -0.33264166 -0.028023822 0.14604281
0000f0 b0 c6 ec 3c d6 5b 8c bc 57 57 9f bd 20 9c 96 bd
       0.028903335 -0.017133635 -0.07780331 -0.07353997
000100 ad 17 eb 3b cc 3c 23 3e 34 72 a6 bd 92 18 70 3a
       0.007174453 0.15941161 -0.08127251 0.00091589347
000110 ae 43 f1 3d 6b 23 d0 bd 8e 0d 73 be a5 56 3a 3d
       0.11780487 -0.101630054 -0.2373564 0.045492787
000120 07 7f c9 3d cf 3b 68 be e7 a6 a9 be 6e 3d 4e be
       0.09838682 -0.22679065 -0.3313515 -0.20140621
000130 b6 e9 4a 3e e1 67 64 bd d2 85 47 bd 0e 20 fa be
       0.19815716 -0.05576313 -0.048711605 -0.4885258
000140 fd bb 1f 3e 6c 01 e4 3e 80 4a 4a be 6b 9f c5 3e
       0.15599056 0.44532335 -0.19754982 0.3859819
000150 83 34 18 3e 5c de 09 be 44 56 54 3e 29 a7 e3 3d
       0.14863782 -0.1346373 0.20736033 0.11115868
000160 08 7c 69 3d 1d 03 21 bf 82 18 e3 bd 48 4f a3 bd
       0.05700305 -0.62895375 -0.11088659 -0.07974106
000170 69 f6 0b 3f f1 11 fc 3d 8e 2e e9 3d 45 89 1f 3e
       0.5467287 0.123081096 0.11385833 0.15579708
000180 4a 89 02 3f ae 05 30 3f 66 f3 bc 3e 99 76 0f bf
       0.50990736 0.68758667 0.36904448 -0.5604034
000190 5b 91 28 3e c2 fb 09 bf 61 0d 40 bf e2 98 aa 3e
       0.16461699 -0.53899777 -0.75020415 0.33319765
0001a0 0e 61 72 bd 94 3a 7d be 82 37 5a bf c8 3d c9 bd
       -0.05917459 -0.24729377 -0.8524095 -0.09826237
0001b0 97 64 0f bf ca aa 07 bf 70 b6 92 bc 6f f9 80 be
       -0.5601286 -0.5299498 -0.017909259 -0.25190303
0001c0 c5 5a 49 be 59 83 7f 3e d7 c3 41 3f 7d cb 6f bd
       -0.19663532 0.24952449 0.7568945 -0.05854367
0001d0 dc 0f cc bd 46 bb 8a be 3d 0b 2c bd bf 46 5c bc
       -0.099639624 -0.27096003 -0.042002905 -0.013444602
0001e0 84 f0 9c 3e 9a 42 a7 bf db d2 fe be e7 c0 a3 3e
       0.3065225 -1.30672 -0.49770245 0.3198311
0001f0 b3 1a e8 3e fd d8 0c 3f 7d 3f 46 3e f5 8c 25 3e
       0.4533287 0.550186 0.19360156 0.16167052
000200 8d 28 80 be ec 11 a8 3d fb f9 99 bd a8 1a fd bd
       -0.25030938 0.08206543 -0.07518383 -0.123586
000210 a2 2e 8c 3e 45 03 21 bf 87 81 ef 3e 31 50 ab bd
       0.27379328 -0.62895614 0.4677851 -0.08364905
000220 b6 5f 80 be 69 a1 76 3d e3 dc 4d 3c ec c8 d1 be
       -0.25073022 0.060212526 0.0125648705 -0.40973604
000230 ff 85 39 bd c3 6e a3 3e cb de 8a 3e 76 8a b6 3d
       -0.045293804 0.31920442 0.27123103 0.08913128
000240 b4 3c 8a 3e 53 82 bd be 43 e5 82 be a9 bc 14 bf
       0.26999438 -0.37013492 -0.25565538 -0.5810037
000250 9e cb 1d be e8 fa 60 be 0a 28 86 3e 5c fa 8d 3e
       -0.15409705 -0.21970713 0.26202422 0.27730072
000260 9f 4c 0c be 42 f6 b3 be 2e 95 2c be bf 7b 09 be
       -0.13701104 -0.35148817 -0.16853783 -0.13426112
000270 92 c4 02 be ea 23 7e be 87 6b 4f be 07 73 96 3e
       -0.12770298 -0.24818388 -0.20255862 0.29384634
000280 ed 3f e3 be ac 47 14 bf 20 c5 8f be 19 6e 6e 3f
       -0.4438471 -0.5792186 -0.28080082 0.93136746
000290 a3 45 64 be 94 33 97 3d 58 fc 4f 3f 49 03 1c 3f
       -0.2229219 0.073828846 0.8124442 0.6094251
0002a0 c9 4d eb bd 92 fd 06 3f 1b fd ca 3f e9 f9 3b 3e
       -0.11489446 0.5273067 1.5858492 0.18357052
0002b0 53 de c0 3e 77 ee 6c 3e ba 8c b4 3c d0 6b 36 3f
       0.3766962 0.23137842 0.02203976 0.7125826
0002c0 48 ba ab be 74 b4 aa 3c 62 d9 2b bf df 3e 7a bd
       -0.3354056 0.020838 -0.67128575 -0.061095115
0002d0 1b 85 cf bf 8d 51 52 3e 1c 88 80 bd 91 0b 03 be
       -1.6212496 0.20538922 -0.06275961 -0.12797381
0002e0 76 5e 10 bf 4f 4b 4e 3f 37 40 57 be 70 cb e9 3e
       -0.56394136 0.8058366 -0.2102059 0.45663023
0002f0 48 3d b3 bf fb 96 09 bf 5b f5 52 be c1 c6 08 bf
       -1.4003077 -0.53746 -0.20601408 -0.53428274
000300 41 ff f7 be 50 1d fa be f7 fa ce 3e fc 7e 09 3f
       -0.4843693 -0.4885049 0.40425846 0.5370939
000310 dc b2 bc 3e ac 81 51 bc 7e 80 5f 3e 5c 94 42 3e
       0.3685521 -0.012787264 0.2182636 0.19001907
000320 e8 9c 8c 3e 23 cf 0f 3f a7 d5 22 3f fc 62 4c be
       0.2746346 0.5617544 0.6360726 -0.19959635
000330 4c c2 c1 be cb 40 b5 3d 14 22 b1 3c 8b b4 d6 3e
       -0.3784355 0.08850249 0.021622695 0.41934618
000340 a6 1e 03 3f e6 88 8c 3e e8 b7 cc be 9f 13 21 bf
       0.5121864 0.27448195 -0.3998406 -0.62920564
000350 1e 39 4b 3e 53 b9 c3 3e 71 b8 8b bd bf c1 19 3f
       0.19846007 0.3822733 -0.06822289 0.6006126
000360 fc 7b 94 be ca 97 86 bd 06 2d bb 3e bc 9b bf bd
       -0.29000843 -0.0657192 0.36557788 -0.09355876
000370 65 f6 fd be 84 a9 03 bf fe 8c de be 59 0e 30 bf
       -0.49602047 -0.51430535 -0.43466944 -0.6877189
000380 3e 92 fd 3e 88 fd 74 3d 65 74 06 bf 68 a0 28 3f
       0.49525636 0.0598121 -0.52521354 0.6586976
000390 3a 09 86 bf 92 66 62 bf 0d a1 14 3e 04 4f 99 3e
       -1.0471566 -0.8843776 0.14514561 0.29943097
0003a0 08 ad eb be fe 69 c1 3e 80 c2 f7 be dc 2a 63 bf
       -0.4603045 0.37776178 -0.4839058 -0.88737273
0003b0 b0 8c a7 3e b2 66 5d 3d 6f 02 45 3d 32 b1 34 bf
       0.32724524 0.054053016 0.048098024 -0.7058288
0003c0 0e a2 1f 3f 86 e4 c8 be 8c b7 f3 be 07 9b ef bd
       0.6235665 -0.3923685 -0.47600973 -0.11699491
0003d0 34 a2 06 be 7b 68 43 3e 6a c8 60 3e 43 d2 20 3e
       -0.13147813 0.19082825 0.21951452 0.15705208
0003e0 2e 4f b9 3d 8b 9f 93 be e7 5a 0d be 7c 5c 66 be
       0.090483055 -0.2883266 -0.13804208 -0.22496217
0003f0 b9 3e 42 3f 42 b9 37 3f c3 2c ef be ca 46 b7 3d
       0.7587696 0.71767056 -0.46713838 0.08949049

lstm.bias_ih_l0_reverse f4 [128]
000000 14 69 22 3f 00 a7 3e 3e 82 c2 be 3e f0 b9 24 bf
       0.63441586 0.18618393 0.37257773 -0.6434622
000010 c0 bc 5f 3e 64 66 3f bb 61 5d b5 3e bf 52 f4 be
       0.21849346 -0.0029205317 0.35422805 -0.4771938
000020 93 99 06 bf 78 b3 53 3e 76 d6 82 3f ee 4a 1f 3e
       -0.52578086 0.2067393 1.0221698 0.15555927
000030 9f 93 ab 3e 01 2f 4c be 79 20 80 be 4a 24 4f 3d
       0.33511063 -0.19939806 -0.25024775 0.050571717
000040 62 eb 85 3e e8 a9 d9 3e f6 96 7b 3f 7c 25 99 be
       0.26156145 0.4251244 0.98277223 -0.2991141
000050 42 d3 02 3f b1 e1 63 3e 89 73 06 be 08 5f b0 3e
       0.51103604 0.22254063 -0.1313001 0.34447503
000060 c3 94 47 3c 0c 68 08 bf f3 68 37 3f 4a b7 c7 3d
       0.012181464 -0.5328376 0.71644515 0.097517565
000070 32 d7 1c 3f c5 ec 9e 3e 6e 6a be be 2c fb a2 3e
       0.6126586 0.31040016 -0.37190574 0.31832254
000080 66 e5 81 be 93 4d 03 3f cb d0 0c be b2 c3 8f be
       -0.2537033 0.51290244 -0.13751523 -0.2807899
000090 c0 44 39 be df 23 23 3f 82 99 53 3e 65 7d e7 be
       -0.18092632 0.6372661 0.20664027 -0.45212856
0000a0 68 0c c1 be 85 13 ab 3e 93 a7 60 3e 77 6b d4 3d
       -0.37704778 0.3341333 0.21938924 0.1037206
0000b0 dd e3 13 bf db a9 8b bd ea 7e a1 bc 44 fd 0e 3e
       -0.57769567 -0.06819507 -0.019713838 0.139638
0000c0 66 a8 a3 be 8b ea d3 be ac 32 16 bf 29 87 89 bf
       -0.31964415 -0.4138988 -0.5867107 -1.0744373
0000d0 fa 77 da be f3 54 2d be b5 22 0a be 6f 06 06 bf
       -0.4266966 -0.16926937 -0.13489802 -0.52353567
0000e0 2f 4d 71 3e 8a f1 27 3e 5d c2 98 be 00 24 bb be
       0.235646 0.16400734 -0.29835787 -0.36550903
0000f0 65 1a be 3d 0d 0b c8 be fb 3a 03 bf 1d 54 02 3e
       0.09282378 -0.3907093 -0.5126187 0.12727399
000100 d9 d8 14 bf 8f 9e 7e be 5a e2 bf be 53 99 8a 3d
       -0.58143383 -0.24865173 -0.3747738 0.067675255
000110 31 b0 b0 3e 0a 05 18 be cd f8 e2 3d cc f3 f2 be
       0.34509423 -0.14845672 0.11082611 -0.47451627
000120 59 ad e8 be 3a 45 6b 3d 02 f9 3e 3e c6 e9 7e 3e
       -0.45444754 0.057439066 0.18649676 0.24893865
000130 97 e6 dd 3e 9e 52 9d be a3 97 97 bc 3a 51 b2 3e
       0.4333999 -0.30727094 -0.018504923 0.34827596
000140 f7 45 06 bf e1 93 1a 3e 0c b7 65 be b5 2e 38 3e
       -0.5245051 0.15095474 -0.22433108 0.17986567
000150 01 10 b4 bd 8f a1 b2 be ac c7 15 be 4c a1 35 3e
       -0.08792115 -0.34888884 -0.1462695 0.17737311
000160 f7 e8 1d 3d 55 1e c2 3e eb cc d6 3e 71 3d de 3e
       0.03855225 0.37913767 0.41953215 0.4340625
000170 b6 2f 94 be 45 6d d2 bd 3a 65 8a bd db 49 ec bd
       -0.2894265 -0.10274748 -0.06757589 -0.11537524
000180 fe 03 fa 3e 6b f0 8a 3e 45 bc 38 be d7 12 00 3e
       0.4883117 0.2713655 -0.18040569 0.12507187
000190 32 6a ff 3d 3f 56 09 3e fb ea f4 3e 34 24 1c be
       0.12471427 0.13411807 0.47835526 -0.15248185
0001a0 4a 4d cf 3e 7e e2 42 bf eb 8a c1 3e 2f bb 88 be
       0.40488654 -0.7612685 0.37801298 -0.2670531
0001b0 a1 d6 a0 3e ec de d3 bf 60 65 39 be f9 10 d1 be
       0.3141375 -1.6552405 -0.18105078 -0.40833262
0001c0 06 ec 50 3e bc 87 01 be d4 55 c8 3e 8a de af 3e
       0.20402536 -0.12649435 0.39127982 0.3434947
0001d0 e1 91 8d 3e af d3 de 3e 43 76 9c be d3 b0 09 3f
       0.2765036 0.43520877 -0.30558977 0.5378544
0001e0 ed 70 89 bf ef b2 ce 3e 2b c2 2a 3f 20 04 ad 3c
       -1.0737587 0.4037089 0.66702527 0.021120131
0001f0 1d 88 ce 3e 34 a5 6f 3f 5f bf 0f 3f 2b 27 ce be
       0.4033822 0.93611455 0.56151384 -0.40264258

lstm.bias_hh_l0_reverse f4 [128]
000000 ec 1e 3d 3f 8e e8 8d 3e ed 21 5a 3e 03 fa 4a bf
       0.7387531 0.27716488 0.21302004 -0.7928774
000010 3c 29 13 3e 15 e4 0e 3e 06 74 5f 3e 71 01 33 bf
       0.14371198 0.13954194 0.21821603 -0.69924074
000020 01 f3 04 bf c5 06 a4 3d b9 a7 85 3f 82 25 91 bd
       -0.51933295 0.08009104 1.044181 -0.07087232
000030 26 43 38 3e 65 33 d8 bd 28 80 9b bd 1f 8c 8f 3e
       0.17994365 -0.10556678 -0.07592803 0.2803659
000040 a0 8f 94 3e 3d d0 c8 3e 07 ba 7c 3f 1d 46 47 be
       0.29015827 0.39221373 0.98721355 -0.1946034
000050 07 6a 0d 3f 69 4b 14 3e 93 2a 18 be ee 58 3f 3e
       0.5523991 0.14481892 -0.14859991 0.18686268
000060 8e 99 b0 3d 49 58 2c bf 3f ed 57 3f 5c 35 6c bd
       0.08623038 -0.6732221 0.84346384 -0.057668075
000070 3b 9e 14 3f fc bf c6 3e a6 1e b7 be 0f d4 2b 3e
       0.5805394 0.38818347 -0.3576557 0.16780113
000080 df d2 f3 bd c0 cb c4 3e 6c 0e 5f be 14 b0 9e be
       -0.11905455 0.384367 -0.21782845 -0.30993712
000090 40 5b 73 bd 68 e0 19 3f 6f 60 55 3c 7d f7 bf be
       -0.059413195 0.6010804 0.01302348 -0.37493506
0000a0 c8 2e 53 be 2c 88 ae 3e f1 fb a1 3e 8f 59 f5 3d
       -0.20623314 0.34088266 0.3163753 0.119799726
0000b0 8b 86 e3 be 91 48 67 3d dd f5 e2 bc f9 1d 27 3e
       -0.44438586 0.05646569 -0.027705127 0.16320027
0000c0 a0 50 fd be fd 73 ba be 54 09 fc be 68 c7 83 bf
       -0.49475574 -0.36416617 -0.49225867 -1.0295229
0000d0 ba a4 ae be 4d fc 1d be d1 26 41 be 49 fb db be
       -0.3411005 -0.15428276 -0.18862464 -0.42965153
0000e0 c5 a6 93 3e e3 64 93 3e 32 cd 86 be cc d9 bb be
       0.28838173 0.28787908 -0.26328427 -0.36689603
0000f0 d6 8b 9b 3e 8e 75 56 be 3d 03 28 bf 0e 54 66 bb
       0.30380124 -0.20943281 -0.6562994 -0.0035145315
000100 97 0e 1c bf 37 33 38 be 1e c3 cc be aa 24 ae 3d
       -0.6095976 -0.17988287 -0.39992613 0.08503087
000110 6e 32 85 3e d6 7b ae bd 48 6d 48 3e 9e 91 13 bf
       0.26015037 -0.085197136 0.19572937 -0.5764407
000120 36 f2 bd be d8 93 7a 3d 49 cc b5 3e c7 bd d1 3e
       -0.37098855 0.06117615 0.3550742 0.409651
000130 5a da 31 3e 01 72 50 be ce c9 dc 3d ec 26 3a 3e
       0.17368451 -0.20355989 0.10780679 0.1817891
000140 3c b4 01 bf 5b 54 8f 3e 21 48 36 be c2 c1 5b 3e
       -0.5066564 0.27994046 -0.17800952 0.21460631
000150 55 0e 46 be 36 db bc be d7 cf 62 bd 49 72 87 3e
       -0.19341405 -0.36885995 -0.055373993 0.2645438
000160 38 53 b6 3d 08 7a b8 3e ea 44 c1 3e d9 25 0d 3f
       0.089025915 0.36030602 0.3774789 0.55135876
000170 34 1c bf be ce 1f aa be 81 8d cd bd 0f 2d 31 be
       -0.37326205 -0.3322739 -0.10036755 -0.17302345
000180 c3 cf a2 3e c5 9b b1 3e 51 06 3b be e9 14 fd 3c
       0.31799135 0.34689155 -0.18264128 0.03089376
000190 a5 1c c4 3e b6 51 ac 3d d4 01 2e 3f 68 d1 f3 bc
       0.38303104 0.084140226 0.6797154 -0.029762939
0001a0 6e 66 e9 3e b8 5e 54 bf be d4 c6 3e ca ab 82 be
       0.4558596 -0.8295703 0.38834184 -0.2552169
0001b0 6b 60 2c 3e c1 14 ce bf e2 76 e5 bd 27 d1 da be
       0.16833656 -1.6100084 -0.11204316 -0.42737696
0001c0 d7 1e ba 3e 8f 84 1e be 5c 39 d5 3e 77 67 71 3e
       0.36351654 -0.15480255 0.41645324 0.23574625
0001d0 ae f9 d8 3e 25 c5 07 3f 8a 07 c8 bd 6d 66 30 3f
       0.4237799 0.53035194 -0.09767063 0.6890629
0001e0 0a b1 8c bf d1 82 8b 3e 83 ce 05 3f b2 31 fb bb
       -1.0991528 0.27248242 0.52268237 -0.0076658363
0001f0 81 2a a9 3e 1f fe 51 3f 06 86 19 3f 10 1a 92 be
       0.3304024 0.82028383 0.5997013 -0.2853551

lstm.weight_ih_l1 f4 [128, 64]
000000 25 df 83 3d 73 91 41 3e 8f 99 c4 3d 55 84 d8 3d
       0.06439046 0.1890314 0.095996015 0.10572115
000010 b5 6c bf bd 23 64 35 3e 54 42 5c be 5d 53 9e bd
       -0.09346906 0.1771398 -0.21509677 -0.07730744
000020 77 bb 63 3d 62 c5 0e be eb 20 d6 bd e1 ed 87 3e
       0.055598702 -0.13942483 -0.10455497 0.26548675
000030 84 40 81 bd 32 48 99 3e 9f 48 6d be 94 e5 29 3e
       -0.063111335 0.29937893 -0.23172234 0.16591483
000040 92 f9 11 3e 8d d1 25 be 27 d5 37 be 00 b2 44 3e
       0.1425536 -0.16193219 -0.17952405 0.19208527
000050 93 e9 21 3e 43 b4 21 3e ef cc d5 bd 38 f2 8b be
       0.15811758 0.1579142 -0.104394786 -0.27333236
000060 58 27 0c be 05 a3 1f 3d 98 17 ab 3e b6 1b 08 3f
       -0.13686883 0.038973827 0.33416438 0.53167284
000070 63 19 9d 3e 30 12 cb 3d d8 9c dd be 93 2f 07 3e
       0.3068343 0.09915578 -0.43283725 0.13201742
000080 30 6a 65 bd aa 66 22 3f 1b 1a af be 02 91 3b bf
       -0.05600947 0.634379 -0.34199604 -0.7326814
000090 5c 8a d2 be 75 97 eb bd c3 f7 11 be f3 d7 28 bd
       -0.41121185 -0.115034975 -0.1425467 -0.04122157
0000a0 14 51 88 3d 56 ab 73 be f6 21 22 be 5d f5 27 3e
       0.066560894 -0.23795828 -0.15833268 0.16402192
0000b0 7e eb bf 3e 00 d8 68 be fd 4b a1 bd 08 57 1d 3f
       0.37484354 -0.22738647 -0.07875822 0.61460924
0000c0 28 f5 55 be 21 11 c5 3c ad 4b 0a 3e bb f0 30 3e
       -0.20894301 0.02405602 0.1350543 0.17279331
0000d0 a2 cc a8 3c 3f 52 09 bd ee 71 78 bd 40 95 8a be
       0.020605389 -0.0335257 -0.060655527 -0.27066994
0000e0 f6 0b 0e 3e fa c5 a7 be d3 54 61 be a7 25 b2 3e
       0.1387175 -0.32768232 -0.22005014 0.3479435
0000f0 7c b5 71 bd 04 df 17 3e 07 fc e4 be 73 b2 f2 3e
       -0.059010968 0.14831167 -0.44723532 0.4740177
000100 3a 20 0a 3e 9e 27 19 bd e3 08 af be 80 08 b5 3d
       0.13488856 -0.037391298 -0.34186468 0.08839512
000110 5b 39 02 bf a1 b3 ed 3d ae 3f 8f 3e ab 76 9a 3e
       -0.5086877 0.11606527 0.2797827 0.3016866
000120 04 a1 1a 3e 79 a2 bf 3c 15 ac 61 3c 46 e3 97 3e
       0.15100485 0.023392903 0.013773938 0.29665583
000130 42 00 85 bd 0e 3d a4 bc 71 91 ec bc 2f 00 80 bd
       -0.0649419 -0.020048644 -0.028877946 -0.06250035
000140 01 e2 55 bf 65 85 b6 3c be 7d 9d bd 88 b7 c5 bd
       -0.8354798 0.022280404 -0.07689999 -0.096541464
000150 90 c0 89 bc 9a f2 b4 bd f8 17 47 3c 30 ad 43 be
       -0.016815454 -0.08835335 0.012151711 -0.19109035
000160 ab 1c fd bd c5 5b ea 3e 6e 04 00 3e a3 e8 9b 3e
       -0.123589836 0.4577314 0.1250169 0.30450925
000170 9f a2 8b 3d 13 aa 8b 3d 0b 34 c0 bd f2 83 db 3d
       0.06818127 0.068195485 -0.093849264 0.10718526
000180 d8 a7 5b 3c 6a 2f 7f 3e 5a 55 dc 3d 22 8f 80 3d
       0.013406716 0.24920431 0.10758467 0.062773004
000190 d8 53 66 be 17 f3 9c 3d f8 0a bf bb b4 0c e3 3c
       -0.22492921 0.07663553 -0.005830165 0.027716018
0001a0 a0 84 cc bd 39 f3 8b be 45 5a 00 bf e9 fe dd 3d
       -0.09986234 -0.27334002 -0.5013774 0.10839636
0001b0 a5 25 50 3e f9 7b d1 bc 18 fa 31 3d 28 95 8e 3e
       0.2032686 -0.02557181 0.0434514 0.27848172
0001c0 99 86 91 be 37 83 c4 bc 51 58 ab 3d ab 20 03 bd
       -0.28423002 -0.02398835 0.083664544 -0.032013576
0001d0 6c bc 97 3f 77 71 00 3d 37 d8 02 be d3 6e 22 3d
       1.1854377 0.03135821 -0.12777792 0.03965647
0001e0 ef ab 95 3d 27 57 35 3e 94 76 ff bd 5f 87 41 3e
       0.07308184 0.17709027 -0.12473789 0.18899296
0001f0 91 2b e9 3d 08 b8 36 ba 18 52 b5 3e f6 3a 90 3e
       0.11385263 -0.0006970172 0.35414195 0.28169984
000200 69 2e 48 3c 0a ff 30 bf a7 dc 6a be 41 54 29 be
       0.012218096 -0.6913916 -0.22935735 -0.16536047
000210 2b f7 10 be dc 2b f7 bd 55 e9 76 bf 8f 6c 25 3e
       -0.14156787 -0.120689124 -0.96449786 0.16154693
000220 4a f1 01 be 25 cd 04 bd 5b 03 9c 3d 73 aa ab 3d
       -0.126897 -0.032422204 0.076178275 0.0838212
000230 6b c1 b1 3e 7d bc 9f 3f c8 57 c0 3d 85 22 80 3e
       0.3471788 1.2479397 0.09391743 0.25026336
000240 06 7c 56 3f 6d 8c df 3d 70 69 26 3f 92 bd 26 be
       0.83782995 0.10915456 0.65004635 -0.16283253
000250 e1 b1 88 3c 8b e2 4e be 1a 67 f6 bd 43 27 1b bc
       0.016686382 -0.20203607 -0.12031384 -0.00946981
000260 11 1f 16 3e fc 49 13 bf 28 ce fe 3b 99 75 cd be
       0.14660288 -0.57534766 0.0077760406 -0.40128782
000270 3e 8a fb 3d 45 5a 95 bd 52 a2 a3 3d 40 24 93 3e
       0.12282227 -0.07292608 0.079899445 0.28738594
000280 2a 29 f6 be b5 e6 66 be 14 4d 8b be d8 5a bc be
       -0.4807828 -0.22548945 -0.27207243 -0.36788058
000290 c3 80 97 3c 6f 33 65 bd b9 7c 56 3f 61 9c 50 3e
       0.018494016 -0.055957254 0.8378406 0.20372154
0002a0 bb 83 00 be 18 11 23 bd fb 37 b6 3d 42 60 44 be
       -0.12550251 -0.039811224 0.08897396 -0.19177344
0002b0 84 7b d0 3e 1e 46 87 bc 12 78 7e 3b b3 48 48 3e
       0.40719235 -0.016512927 0.0038828892 0.19558983
0002c0 26 9f a8 3d 47 9b 16 3e 16 4d 7f 3e 28 82 b8 3e
       0.0823348 0.14707671 0.2493175 0.360368
0002d0 9d 90 d7 be 33 b2 59 3c 8c 79 31 3e b3 57 31 3d
       -0.4210252 0.013287115 0.17331523 0.043296527
0002e0 d0 bf 89 bd 3e c7 00 be a3 8f 41 3d 5f 11 53 be
       -0.067260385 -0.12576005 0.047256123 -0.20612095
0002f0 b0 7a 31 3f ad 3f 77 be 80 d8 11 bf c2 71 d3 be
       0.6932783 -0.24145384 -0.5697098 -0.41297728
000300 7d 77 26 3e 61 7f 45 3f 71 78 c8 3e 82 da e5 3d
       0.16256519 0.7714749 0.3915439 0.11223318
000310 a2 ab bc bf 8c 1d 4a 3f fb e9 fe 3c be 7e 62 bf
       -1.4739878 0.78951335 0.03111743 -0.88474643
000320 17 53 ad 3d 69 6e 05 be f2 37 b2 3e e5 0b be 3e
       0.08463114 -0.130304 0.34808308 0.3711845
000330 bb 9b 6d 3e 7d df 74 bf b7 3c 7c 3e ae 7e a1 bd
       0.23203938 -0.95653516 0.24632536 -0.0788549
000340 67 08 9e bf 30 0f ba bd c0 fa 91 bf 91 ec eb 3d
       -1.2346314 -0.09084928 -1.1404648 0.11519731
000350 08 d0 0b bf 70 71 50 be 19 21 a0 be 88 6f 23 bf
       -0.54614305 -0.20355773 -0.31275252 -0.6384206
000360 ad 7c 4b 3f 11 6f 28 3f ee 76 e4 bd 66 f1 75 3e
       0.79487115 0.65794474 -0.111554965 0.24017867
000370 9b 7b b1 3d 0f e2 28 3f e6 de a3 be dc 42 61 3c
       0.08666154 0.6596994 -0.32005996 0.013748851
000380 bc 3e 0d 3f a7 ea 97 3e a6 0e 83 3f bc 83 b4 be
       0.5517385 0.29671213 1.0238845 -0.35256755
000390 21 09 2b 3d 89 ca ae be fd a6 56 be c1 72 65 be
       0.041756753 -0.34138897 -0.20962138 -0.22407056
0003a0 90 a8 52 3f e0 45 f7 bc 1b 10 a2 3e 43 89 05 be
       0.82288456 -0.030184686 0.31652912 -0.13040642
0003b0 e1 f4 49 bf 2d d0 e0 bd f6 9e a4 bd 43 98 d8 3b
       -0.7888928 -0.109772064 -0.08038132 0.006609948
0003c0 b0 00 5c bf 7f 47 18 3f 35 a3 04 3f 65 9d ff 3b
       -0.8593855 0.59484094 0.51811534 0.0078007453
0003d0 64 88 f8 be da e2 2c 3e 18 df b8 bd aa 16 e0 be
       -0.48541558 0.16883412 -0.09026927 -0.4376729
0003e0 a1 23 14 be dc 5a 69 bd 92 8d 14 bf 06 48 67 bd
       -0.14466716 -0.056971416 -0.5802852 -0.05646517
0003f0 0b a0 ba be 95 87 d5 3e eb 53 9c 3f c5 f5 9c 3d
       -0.36450228 0.41705003 1.221311 0.07664064
