forecasting/artifact/bilstm.pt (torch, 157050 bytes, 23 tensors)

lstm.weight_ih_l0 f4 [128, 6]
-0.14281228 -0.13720945 0.40483734 -0.13585241 0.073259756 0.4648689 -0.2239692 -0.030732684
0.039084326 0.12219692 0.09079683 0.116835855 -0.035528697 0.16712505 0.28691503 0.045456965
0.16589643 0.43117154 -0.1819705 -0.13118254 -0.103162885 -0.05672415 -0.19471149 -0.3683925
-0.3118728 0.3081033 -0.27915937 -0.23004206 -0.1424472 -0.40847388 -0.057361227 0.32709193
0.024623476 -0.14628713 0.1278894 0.14217101 -0.04677419 -0.09753379 0.071129896 0.0068299016
0.2992117 0.19623463 0.12911823 0.121397175 0.12254723 0.6103457 -0.052761525 0.06510137
0.06095645 0.05945857 -0.036881916 0.058500085 0.0058925636 0.17255785 -0.2960335 0.229479
0.19729376 -0.3624988 -0.059192505 0.049665276 -0.17649235 -0.2966532 -0.4068679 -0.17474373
-0.32447067 -0.15599531 -0.41169003 0.14816432 -0.077911384 -0.64260525 -0.23229387 0.06901688
0.049274404 0.113549985 -0.044266127 0.046137683 0.074182615 0.08892247 -0.23094052 0.12423719
-0.13284482 0.5584145 -0.2016931 -0.43357092 -0.14695741 -0.052973337 0.12934764 0.19391449
0.22415356 0.2458233 -0.041323714 0.04922499 0.034314953 -0.053160638 0.04995603 0.16277821
-0.049369022 -0.21505755 0.022042055 -0.030046377 0.007804886 -0.16724133 -0.071334265 0.16495809
0.05024135 0.0722085 0.060044333 0.17594053 -0.42569765 -0.20347846 -0.23495474 -0.014900112
-0.054088656 -0.20571731 -0.15625134 -0.02063066 -0.031058645 0.5284769 0.013881047 -0.5963
-0.08092544 0.15233758 0.08514208 0.07785884 0.027847096 -0.21863335 -0.29683366 0.4490979
-0.064032584 0.26307967 0.19190595 0.38832304 0.0019820216 0.09111768 -0.2294855 0.11974496
0.20504299 0.11809428 -0.2246974 -0.5436063 -0.9000051 -0.9083035 -0.5349736 -0.267662
0.18436427 -0.06915356 0.091514185 0.09566692 -0.02161954 -0.22576034 0.13664143 0.13205168
0.099103905 0.11487782 0.084448464 0.06511397 -0.24125318 0.0828888 -0.13012709 -0.04330063
0.17731172 0.24458739 0.02981454 0.34652314 -0.28247228 0.12394493 0.11201789 -0.3039624
-0.0136691695 -0.5439321 -0.19373122 -0.25576985 -0.5969802 -0.44064626 -0.22433513 -0.34601685
-0.28967506 0.31842527 -0.19012858 -0.1849607 -0.0036244409 0.016872836 0.17871988 -0.18809614
0.549387 0.12013974 0.059772063 -0.21394841 -0.0045972345 -0.13773893 -0.0067651607 -0.1341285
0.06754553 0.11504313 -0.053475752 0.078451835 0.039691865 0.24243027 -0.04986631 0.15106767
-0.048760343 -0.025265338 0.013713483 0.27921757 0.39108178 -0.03213771 -0.16703683 0.17746072
-0.2472468 -0.4028104 -0.1974848 -0.115053296 -0.35541552 0.004630447 -0.23547739 -0.033049963
0.19299476 0.27614355 0.04103798 0.09911903 0.14892794 -0.33777252 -0.25677997 0.32932338
0.1421754 -0.16917615 0.46556395 0.428324 -0.06464443 0.1812788 -0.023774639 -0.0053212093
0.0876395 0.26532075 -0.029088598 0.07363137 -0.037749063 -0.05430864 0.032110374 -0.17229915
-0.05234664 0.1486137 0.27546486 0.05577785 0.056871 0.16411923 0.18306135 0.15490901
0.2411009 0.15703656 0.086239055 0.1633521 0.13850799 -0.3399462 -0.4845959 -0.33280876
00000000: 623d 12be a280 0cbe d746 cf3e e51c 0bbe
00000010: 3609 963d 4c03 ee3e 2f58 65be 1cc3 fbbc
00000020: e316 203d 6142 fa3d b0f3 b93d a347 ef3d
00000030: 8a86 11bd d422 2b3e 87e6 923e 1531 3a3d
00000040: c1e0 293e 84c2 dc3e 7a56 3abe b754 06be
00000050: 1047 d3bd 9557 68bd 7362 47be f19d bcbe
00000060: cbad 9fbe b7bf 9d3e faed 8ebe 2590 6bbe
00000070: aedd 11be 7d23 d1be 9bf3 6abd 9878 a73e
00000080: 2cb7 c93c 4bcc 15be 70f5 023e 4795 113e
00000090: 4b96 3fbd ccbf c7bd 8dac 913d 5ecd df3b
000000a0: 4732 993e bbf1 483e 9237 043e 159f f83d
000000b0: 0bfa fa3d 9e3f 1c3f 781c 58bd de53 853d
000000c0: 78ad 793d d48a 733d 7e11 17bd c99d 6f3d
000000d0: 6816 c13b 01b3 303e b491 97be 8bfc 6a3e
000000e0: 6007 4a3e 7199 b9be d773 72bd d16d 4b3d
000000f0: 69ba 34be eee2 97be fd50 d0be 05f0 32be
00000100: 0521 a6be 3cbd 1fbe 09c9 d2be 63b8 173e
00000110: 0190 9fbd c781 24bf 72de 6dbe b958 8d3d
00000120: f5d3 493d e58c e83d 6650 35bd defa 3c3d
00000130: 0eed 973d fc1c b63d ac7b 6cbe 1170 fe3d
00000140: 7908 08be 41f4 0e3f a388 4ebe 02fd ddbe
00000150: 017c 16be 92fa 58bd b573 043e 8591 463e
00000160: 8388 653e 1ab9 7b3e 0e43 29bd 25a0 493d
00000170: d68d 0c3d f8be 59bd b29e 4c3d 55af 263e
00000180: 2c37 4abd 0c38 5cbe 8a91 b43c d223 f6bc
00000190: 21c0 ff3b 5041 2bbe b317 92bd c6ea 283e
000001a0: e0c9 4d3d 0de2 933d 0cf1 753d c129 343e
000001b0: 0bf5 d9be a85c 50be fa97 70be 991f 74bc
000001c0: 118c 5dbd 8fa7 52be 5a00 20be a101 a9bc
000001d0: b36e febc 434a 073f 556d 633c 1ea7 18bf
000001e0: 3dbc a5bd 62fe 1b3e f95e ae3d 7574 9f3d
000001f0: 981f e43c 6ce1 5fbe 95fa 97be 29f0 e53e
00000200: 8423 83bd 61b2 863e fe82 443e 47d2 c63e
00000210: cee4 013b e89b ba3d 3ffe 6abe d83c f53d
00000220: caf6 513e 6adb f13d 1317 66be c829 0bbf
00000230: bc66 66bf 9486 68bf 08f4 08bf fe0a 89be
00000240: fdc9 3c3e 62a0 8dbd ca6b bb3d 05ed c33d
00000250: 761b b1bc b82d 67be bbeb 0b3e 8e38 073e
00000260: fdf6 ca3d 1045 eb3d 51f3 ac3d 795a 853d
00000270: 130b 77be 9ac1 a93d 0940 05be 005c 31bd
00000280: 3491 353e 1e75 7a3e 9f3d f43c 7b6b b13e
00000290: 35a0 90be d7d6 fd3d a369 e53d f6a0 9bbe
000002a0: a7f4 5fbc 223f 0bbf 7a61 46be 44f4 82be
000002b0: b2d3 18bf 639c e1be 1cb8 65be 1f29 b1be
000002c0: 4a50 94be a308 a33e 11b1 42be 5666 3dbe
000002d0: 0788 6dbb e738 8a3c 5802 373e 469c 40be
000002e0: a0a4 0c3f d30b f63d 8dd3 743d 4b15 5bbe
000002f0: 66a4 96bb 6f0b 0dbe 48ae ddbb fb58 09be
00000300: 5055 8a3d bc9b eb3d 6409 5bbd 5bab a03d
00000310: f093 223d a43f 783e 9e40 4cbd 7cb1 1a3e
00000320: edb8 47bd 41f9 cebc 84ae 603c 9bf5 8e3e
00000330: df3b c83e d5a2 03bd b40b 2bbe 43b8 353e
00000340: 442e 7dbe 2a3d cebe 7539 4abe 10a1 ebbd
00000350: 06f9 b5be 01bb 973b fc20 71be 665f 07bd
00000360: 6ba0 453e b062 8d3e 7117 283d ebfe ca3d
00000370: 9180 183e 85f0 acbe aa78 83be 139d a83e
00000380: 6e96 113e 833c 2dbe 665e ee3e 494d db3e
00000390: 4d64 84bd 26a1 393e 08c3 c2bc 8a5d aebb
000003a0: 577c b33d 1fd8 873e 364b eebc 0bcc 963d
000003b0: c39e 1abd bd72 5ebd 2b86 033d 306f 30be
000003c0: 6e69 56bd 312e 183e bb09 8d3e 5177 643d
000003d0: 91f1 683d df0e 283e 6f74 3b3e 78a0 1e3e
000003e0: 28e3 763e 31ce 203e 1a9e b03d c645 273e
000003f0: 0ad5 0d3e 6e0d aebe f41c f8be e965 aabe

lstm.weight_hh_l0 f4 [128, 32]
0.28520277 0.32523733 -0.16640545 -0.095310606 -0.39936367 -0.22528198 0.1283515 0.07506445
-0.7184467 -0.83837456 -0.25189823 -0.6532549 -0.024268938 0.38430527 -0.39627612 0.33781707
0.015107831 -0.43407142 0.16338477 0.0355073 -0.5532984 -0.36591932 0.107163966 -0.10846559
-0.14456509 0.034436043 -0.6939354 -0.1417525 0.1656727 -0.0676521 0.15552312 -0.048601534
0.16510373 0.29703808 0.13291611 0.0033930326 -0.5169005 -0.04252978 -0.022012744 -0.08905879
-0.15211542 0.019406362 -0.25465685 -0.39791682 -0.019487483 0.3501444 -0.042558994 0.37536937
0.047037035 -0.286555 0.5024642 0.30855104 -0.2586721 -0.15798292 -0.15514173 0.60426915
-0.3151057 0.5761824 0.05257894 -0.134526 0.0872719 -0.2245514 -0.25968033 -0.21036103
0.43337324 0.35664415 -0.17004912 0.025532523 0.11796174 -0.7828623 0.076756135 -0.0634128
-0.8102878 -0.5811332 -0.18965855 -0.4920834 -0.18877538 0.23813991 -0.2623721 0.07655197
-0.10693768 -0.043252032 -0.1320922 0.14719035 -0.09483654 0.028297976 -0.022064598 0.9609536
-0.08463054 0.03464177 -0.7009512 -0.06647329 -0.3183079 0.15355271 -0.42674372 -0.064177394
-0.29770795 -0.34928232 -0.08321368 -0.26789147 0.120130196 0.1878087 0.04612721 -0.054584824
0.018889362 0.35918897 0.57070607 0.3388791 0.030189767 -0.12230139 0.14648308 -0.08143558
0.01591211 0.4398781 -0.0660447 -0.17744659 0.08773755 -0.10460987 0.43818668 0.35420474
-0.10893084 -0.15096462 0.23423341 0.15312342 -0.081949934 0.16816272 0.44527715 0.0008072379
-0.51890093 -0.5759305 0.17110546 -0.09771114 0.3460739 0.9221326 0.016533928 -0.09149454
0.78463006 0.7458316 -0.03132145 0.5543115 -0.10787928 0.0045572757 0.8607153 0.5733033
-0.019012885 0.38967854 0.16654074 0.024970284 0.43766704 0.08554795 -0.49416533 -0.24052508
0.23559944 0.018980935 1.313052 0.07017401 0.05927084 0.23780195 0.48635146 -0.28439513
0.46639144 0.28363612 -0.47578946 0.059261937 -0.0529757 0.015019678 0.25388998 0.0778987
-0.97188294 -0.657377 -0.1390676 -0.486277 0.2281202 0.12324382 -0.3721077 0.17828067
0.02160374 -0.63909256 -0.05871667 -0.04577064 -0.042532988 -0.5024254 -0.5995899 0.9050665
0.012812389 -0.15617733 -0.96720326 -0.01093735 0.037242133 -0.030738587 -0.5100875 0.2051133
0.03376161 0.183187 -0.13353984 -0.0037058766 -0.10772379 -0.46147442 0.058600545 0.040104758
-0.2030287 -0.2222689 -0.16591652 -0.101444796 -0.040232815 0.024752066 -0.45823494 0.16116442
-0.07995979 -0.015570687 -0.038757194 -0.16019271 -0.15268134 0.15304478 -0.13095346 -0.6114965
0.016201967 -0.06025577 -0.07481618 -0.031996932 0.017731447 -0.0016915798 -0.5194667 -0.041120935
-0.048288234 -0.12911528 -0.41417095 0.17245959 0.14295329 1.3712051 0.15728575 -0.018655363
-0.21201982 0.07081233 -0.37273282 0.042500097 -0.05847168 -0.063922234 -0.20290412 0.078516215
0.05163278 0.40138704 0.18797913 -0.08458659 -0.008766648 -0.026017249 -0.1400494 -0.05372629
0.26926848 0.018982051 0.89224 -0.01255304 -0.031611532 -0.0005235837 -0.07313235 -0.11202397
00000000: 1906 923e 8285 a63e 3166 2abe 3532 c3bd
00000010: 6579 ccbe 52b0 66be 936e 033e 64bb 993d
00000020: 1fec 37bf b79f 56bf cef8 80be b73b 27bf
00000030: a7cf c6bc a9c3 c43e b4e4 cabe 5cf6 ac3e
00000040: d686 773c 9c3e debe 564e 273e 1a70 113d
00000050: f7a4 0dbf c759 bbbe c878 db3d 3523 debd
00000060: df08 14be cf0c 0d3d c0a5 31bf 9127 11be
00000070: 1ba6 293e 2f8d 8abd 7441 1f3e 6712 47bd
00000080: f410 293e 6015 983e 291b 083e a45d 5e3b
00000090: 9753 04bf b533 2ebd 1254 b4bc 7464 b6bd
000000a0: 25c4 1bbe 17fa 9e3c 6262 82be c1bb cbbe
000000b0: 37a4 9fbc 2046 b33e 5752 2ebd 6a30 c03e
000000c0: e8a9 403d 56b7 92be 7ea1 003f 67fa 9d3e
000000d0: ab70 84be 46c6 21be 79dd 1ebe 62b1 1a3f
000000e0: 8955 a1be b180 133f 045d 573d 2fc1 09be
000000f0: 9cbb b23d cdf0 65be d2f4 84be e268 57be
00000100: 19e3 dd3e 109a b63e 5b21 2ebe 9529 d13c
00000110: ed95 f13d aa69 48bf 5232 9d3d 92de 81bd
00000120: 056f 4fbf 25c5 14bf da35 42be 5bf2 fbbe
00000130: 554e 41be f3da 733e a355 86be 47c7 9c3d
00000140: 2402 dbbd 0b29 31bd 2d43 07be 11b9 163e
00000150: a939 c2bd 28d1 e73c d1c0 b4bc 0e01 763f
00000160: c752 adbd 87e4 0d3d 8a71 33bf 2623 88bd
00000170: 41f9 a2be ec3c 1d3e 277e dabe 706f 83bd
00000180: 2d6d 98be 22d5 b2be ef6b aabd 1229 89be
00000190: d206 f63d ed50 403e e3ef 3c3d 5694 5fbd
000001a0: ddbd 9a3c 9ee7 b73e cb19 123f 9081 ad3e
000001b0: 8850 f73c 2779 fabd a9ff 153e b3c7 a6bd
000001c0: 1d5a 823c b437 e13e 7242 87bd 8fb4 35be
000001d0: bfaf b33d b33d d6bd 015a e03e 535a b53e
000001e0: 2217 dfbd 7896 1abe e2da 6f3e 63cc 1c3e
000001f0: 5ed5 a7bd d932 2c3e 5efb e33e d29c 533a
00000200: b1d6 04bf 2e70 13bf 4536 2f3e c71c c8bd
00000210: 9930 b13e e210 6c3f 2972 873c 7d61 bbbd
00000220: 84dd 483f d2ee 3e3f ec4a 00bd 5ce7 0d3f
00000230: d0ef dcbd 3355 953b d757 5c3f 01c4 123f
00000240: e9c0 9bbc f283 c73e a889 2a3e 7b8e cc3c
00000250: e515 e03e c333 af3d 3d03 fdbe 354c 76be
00000260: fb40 713e e87d 9b3c 1712 a83f 64b7 8f3d
00000270: fbc5 723d 5b82 733e 0f03 f93e 3d9c 91be
00000280: dcca ee3e c138 913e ad9a f3be a5bc 723d
00000290: 0cfd 58bd 1815 763c defd 813e 5b89 9f3d
000002a0: 52cd 78bf dc49 28bf bd67 0ebe 4df9 f8be
000002b0: 5798 693e 4267 fc3d e784 bebe 358f 363e
000002c0: 54fa b03c 929b 23bf e480 70bd ff79 3bbd
000002d0: 1237 2ebd f39e 00bf b97e 19bf 70b2 673f
000002e0: 0eeb 513c f3ec 1fbe a29a 77bf 9232 33bc
000002f0: 358b 183d 7dcf fbbc 1895 02bf 3909 523e
00000300: 9d49 0a3d 5f95 3b3e abbe 08be 4bde 72bb
00000310: 4a9e dcbd 6046 ecbe 2007 703d e344 243d
00000320: c1e6 4fbe 759a 63be 05e6 29be 4ac2 cfbd
00000330: 2acb 24bd d8c4 ca3c c59d eabe 4908 253e
00000340: f5c1 a3bd 321c 7fbc ddbf 1ebd 8f09 24be
00000350: 7f58 1cbe c5b7 1c3e aa18 06be 098b 1cbf
00000360: fdb9 843c c1ce 76bd 3a39 99bd 370f 03bd
00000370: 8a41 913c 00b8 ddba c5fb 04bf 6d6e 28bd
00000380: e2c9 45bd cc36 04be 370e d4be 3f99 303e
00000390: 5962 123e a683 af3f 840f 213e 22d3 98bc
000003a0: b91b 59be 0e06 913d d6d6 bebe 9514 2e3d
000003b0: 0080 6fbd a9e9 82bd 19c6 4fbe 1ccd a03d
000003c0: e57c 533d 9a82 cd3e 9a7d 403e bc3b adbd
000003d0: fda1 0fbc 2022 d5bc 1c69 0fbe 1910 5cbd
000003e0: 8fdd 893e 3f80 9b3c d769 643f 44ab 4dbc
000003f0: 187b 01bd 1b41 09ba 6ac6 95bd d36c e5bd

lstm.bias_ih_l0 f4 [128]
0.41222855 0.1559216 0.24285218 -0.14850964 -0.4844458 0.10953635 0.18279256 -0.08263312
0.22349474 0.17664766 -0.22129743 0.34478346 -0.05785831 -0.61680126 0.34320167 0.14429781
-0.07174486 -0.011887485 -0.33696622 -0.43879193 -0.1438012 0.371698 0.1164748 -0.04778108
-0.23143871 0.21209492 0.39836884 -0.12933864 -0.32167748 -0.17080776 0.23004957 -0.2250426
0.115325026 0.22895822 -0.41553828 -0.074939 -0.46660852 0.38084167 0.17221545 -0.024460845
0.12317935 0.331327 -0.36400738 -0.402515 0.100515045 -0.17367385 0.3859017 0.34509763
-0.068173945 -0.2675274 -0.08929642 -0.1329945 -0.3277916 -0.2223719 0.1642619 -0.39429522
-0.1726133 0.10858004 0.20377272 0.21498767 0.010163431 0.005387976 0.6399126 -0.09214077
0.07403259 0.15451619 -0.69779515 0.34079573 -0.13487253 0.47161657 0.05823319 0.112331584
-0.10934039 -0.31024805 -0.20364015 0.1729057 0.21651916 0.1287161 -0.12870383 -0.7438217
-0.004594412 -0.1597891 0.17029329 -0.13553475 -0.108064 -0.12657282 0.14728819 0.18378243
-0.07530796 0.18366596 -0.05586737 0.06912838 -0.07618412 0.007942968 -0.23753072 0.16934574
-0.13852547 -0.6134676 0.19334868 0.086891085 -0.05026637 -0.010834447 0.42822477 -0.29584712
0.38041955 0.354669 0.11887734 0.22511496 -0.90213513 -0.12422012 0.6434663 -0.31378055
-0.22266531 -0.33776873 0.0727219 0.13257167 -0.117059685 0.15222183 -0.09734064 0.44719565
-0.28534067 -0.52279866 -0.343023 -0.39202127 -0.017319568 -0.10366633 0.38346398 0.083271205
00000000: 9f0f d33e e9a9 1f3e 3eae 783e e912 18be
00000010: 4809 f8be 9854 e03d f92d 3b3e 8e3b a9bd
00000020: cedb 643e 20e3 343e cb9b 62be 7587 b03e
00000030: d6fc 6cbd b0e6 1dbf 21b8 af3e cec2 133e
00000040: f8ee 92bd bac3 42bc d686 acbe 56a9 e0be
00000050: 9f40 13be 334f be3e 578a ee3d 18b6 43bd
00000060: 45fe 6cbe 692f 593e 00f7 cb3e 5971 04be
00000070: e9b2 a4be 3be8 2ebe 1d92 6b3e 9171 66be
00000080: 872f ec3d 0674 6a3e 6fc1 d4be 9e79 99bd
00000090: 50e7 eebe aefd c23e 3f59 303e 1c62 c8bc
000000a0: 7445 fc3d b1a3 a93e 2d5f babe 7216 cebe
000000b0: d5da cd3d 8fd7 31be e894 c53e a3b0 b03e
000000c0: c89e 8bbd 5af9 88be 0be1 b6bd b62f 08be
000000d0: 4dd4 a7be 76b5 63be 4634 283e 10e1 c9be
000000e0: 8ac1 30be 365f de3d cca9 503e ba25 5c3e
000000f0: 8584 263c 9e8d b03b 50d1 233f 4db4 bcbd
00000100: 669e 973d 7e39 1e3e b4a2 32bf c77c ae3e
00000110: 061c 0abe ba77 f13e ed85 6e3d 1a0e e63d
00000120: dbed dfbd d5d8 9ebe 0b87 50be 310e 313e
00000130: 33b7 5d3e 27ce 033e f0ca 03be 196b 3ebf
00000140: b98c 96bb c19f 23be 5d61 2e3e 9fc9 0abe
00000150: a950 ddbd 4e9c 01be b7d2 163e 7631 3c3e
00000160: 0f3b 9abd ee12 3c3e 2fd5 64bd 2e93 8d3d
00000170: 6b06 9cbd 3923 023c 413b 73be f868 2d3e
00000180: 9fd9 0dbe 360c 1dbf 32fd 453e f4f3 b13d
00000190: 1ce4 4dbd f782 31bc 4740 db3e 4679 97be
000001a0: 5ac6 c23e 2d97 b53e f675 f33d 8984 663e
000001b0: 54f2 66bf 1e67 febd 35ba 243f d8a7 a0be
000001c0: 6002 64be 06f0 acbe 38ef 943d dec0 073e
000001d0: fdbc efbd 0ae0 1b3e 885a c7bd d4f6 e43e
000001e0: 2c18 92be 22d6 05bf b6a0 afbe 03b7 c8be
000001f0: c4e1 8dbc 034f d4bd 6455 c43e 188a aa3d

lstm.bias_hh_l0 f4 [128]
0.25761825 0.2690971 0.416144 -0.40426368 -0.4169402 0.2135711 0.21872137 0.053517096
0.22033544 0.25298408 -0.15229288 0.21770701 0.1529009 -0.5361124 0.38039258 -0.009722519
-0.18979073 -0.047141276 -0.1752419 -0.61258954 -0.15696877 0.28325316 0.06439573 0.13421196
-0.23145327 0.06816426 0.29501855 -0.20805341 -0.1828082 -0.38496032 0.13025565 -0.19332059
0.032394227 0.18650486 -0.22630088 0.061754946 -0.4690962 0.4496834 0.33715498 -0.102337636
0.06273772 0.38798398 -0.31792927 -0.22617926 0.0017627181 -0.17882372 0.18036558 0.43213946
-0.0048645306 -0.3140866 -0.008189383 -0.18440272 -0.267808 -0.1657589 0.117837414 -0.41193804
-0.13037854 0.20189689 0.11107334 0.018799491 0.05243749 0.030299861 0.7229569 -0.02945526
0.123250894 0.0766658 -0.8025377 0.2622594 -0.23714077 0.46035826 -0.01876209 0.12397189
-0.18566911 -0.2756084 -0.23097885 0.37610257 0.25584885 0.0266873 -0.27286646 -0.99199015
0.012155495 -0.29302627 0.18168457 -0.12599163 -0.13121314 -0.1105655 0.05285716 0.21115072
0.124774985 0.16802473 -0.101636395 -0.05881711 0.10092225 0.052039072 -0.44633132 0.106745556
-0.1105727 -0.643544 0.12383416 0.15885788 -0.06123412 -0.010301492 0.29097694 -0.2705971
0.27563924 0.18695165 0.11501747 0.14473112 -0.93534994 -0.033492804 0.80628973 -0.32498428
-0.1529856 -0.34095907 -0.028634403 0.017465763 0.0009992245 0.20959035 -0.23967817 0.44021073
-0.11526092 -0.44024003 -0.15934505 -0.35516512 0.14777929 -0.06401592 0.35633168 0.09830463
00000000: 8ae6 833e 18c7 893e d410 d53e a6fb cebe
00000010: 3079 d5be 62b2 5a3e 7ff8 5f3e be34 5b3d
00000020: 9d9f 613e 2187 813e aaf2 1bbe 96ee 5e3e
00000030: 0e92 1c3e aa3e 09bf d1c2 c23e 334b 1fbc
00000040: 8058 42be 3617 41bd 9d72 33be abd2 1cbf
00000050: 6cbc 20be 8f06 913e e9e1 833d dc6e 093e
00000060: 1602 6dbe b499 8b3d ac0c 973e f40b 55be
00000070: 1332 3bbe 8519 c5be bd61 053e d5f5 45be
00000080: cfaf 043d 21fb 3e3e 6bbb 67be c1f2 7c3d
00000090: 612d f0be e73c e63e 949f ac3e 6596 d1bd
000000a0: a27c 803d d6a5 c63e a0c7 a2be 899b 67be
000000b0: 010b e73a 911d 37be c1b1 383e 6241 dd3e
000000c0: a466 9fbb f5cf a0be c32c 06bc 11d4 3cbe
000000d0: 211e 89be b3bc 29be be54 f13d 8be9 d2be
000000e0: f481 05be 0fbe 4e3e 6b7a e33d 6401 9a3c
000000f0: b2c8 563d 6a37 f83c b413 393f 284c f1bc
00000100: f76a fc3d f502 9d3d 1c73 4dbf dd46 863e
00000110: 08d5 72be 14b4 eb3e f4b2 99bc f9e4 fd3d
00000120: 0b20 3ebe 8b1c 8dbe b885 6cbe 8490 c03e
00000130: 9ffe 823e 539f da3c 27b5 8bbe 11f3 7dbf
00000140: d727 473c 8a07 96be 850b 3a3e f303 01be
00000150: bd5c 06be 2a70 e2bd c080 583d e537 583e
00000160: 078a ff3d ad0e 2c3e be26 d0bd 36ea 70bd
00000170: 53b0 ce3d ec26 553d 8a85 e4be 6a9d da3d
00000180: f173 e2bd 4dbf 24bf c49c fd3d a4ab 223e
00000190: a1d0 7abd 97c7 28bc eefa 943e b48b 8abe
000001a0: 9620 8d3e 4170 3f3e 488e eb3d 6534 143e
000001b0: 1873 6fbf c02f 09bd 0169 4e3f 5764 a6be
000001c0: 42a8 1cbe 3092 aebe b292 eabc 5c14 8f3c
000001d0: 69f8 823a da9e 563e 326e 75be 4d63 e13e
000001e0: eb0d ecbd 2467 e1be 592b 23be 34d8 b5be
000001f0: 7453 173e c71a 83bd 1b71 b63e f053 c93d

lstm.weight_ih_l0_reverse f4 [128, 6]
0.056641754 0.18702625 -0.07273117 0.042196807 0.039705038 0.13907199 0.024002405 -0.14606252
-0.30921263 -0.4726968 -0.26960436 0.55642694 0.02783444 0.06248785 0.25461423 0.016798917
0.009641926 0.45181423 0.40536147 -0.48984337 0.15403564 -0.617448 -0.34679604 0.85728323
-0.31953225 0.077286735 0.3631707 -0.102875106 -0.30077 -0.35859993 -0.16129903 0.18234473
-0.23562673 0.34848785 0.12618874 0.08184293 0.06379257 -0.014601812 0.1828489 -0.051034633
0.21774627 0.12623763 -0.6225975 0.055328436 0.06558504 -0.15946782 0.008698787 0.47183222
0.00561032 -0.0033637802 -0.056743145 -0.03985013 -0.11209594 0.0064201043 0.009655858 -0.021537308
0.03376489 0.13638 0.28121006 0.15910277 0.16978376 0.00066598284 0.08621112 0.16122347
0.29317006 0.28720775 0.13234149 0.10757707 -0.074737824 0.1239601 0.07178201 0.1347346
0.09850362 -0.08660151 -0.08961421 -0.031113971 0.26687393 0.17382392 0.009793484 0.2201718
0.0356004 -0.10842815 0.14814208 0.2654157 -0.011357131 0.10878601 -0.08664981 0.14810887
0.05532248 0.41842023 0.37173584 0.32490897 0.6828337 0.7044655 0.17064585 -0.4913429
-0.19254756 0.1540197 -0.040218394 0.16911568 0.07239257 0.34175286 0.12112924 0.50314516
1.0584214 -0.08880308 0.18193692 0.3546766 0.010195243 0.042864203 -0.08550768 -0.7316878
-0.05334872 0.6720254 -0.06598654 -0.38163808 0.34095845 -0.7436758 -0.20196082 0.7050158
0.1523756 -0.10117547 0.07973754 -0.56020033 -0.09716925 0.49722973 -0.19847341 0.44273248
0.02710524 0.47379783 0.18259688 0.28285658 -0.03215661 -0.019838268 0.09287151 0.24265948
0.03584868 0.34714058 -0.05830813 -0.1542411 0.013846004 0.34939617 0.14262623 0.240716
-0.04806649 0.13509394 0.34201366 -0.1673993 0.06949645 0.4909532 0.18930629 0.012267914
0.14683296 0.32576358 0.23979473 0.24971242 0.10264543 0.28776854 0.32539234 -0.08908979
0.4428421 0.46203047 -0.03640311 -0.015460143 -0.011212319 0.008873698 0.06081925 0.13029608
-0.09345735 0.019026654 0.3730799 -0.6580711 -0.07075625 0.42253238 -0.121663354 0.12211158
0.10281592 0.26946142 -0.04234629 -0.52900255 0.02086047 0.029062232 -0.064602904 0.17215794
0.026317889 -0.16742153 -0.10282411 0.12431744 0.080451 -0.60074615 -0.061692793 0.5254964
0.10355217 0.10812788 -0.06859385 -0.004697126 -0.20531921 0.013360274 -0.16314173 0.09379987
0.05641908 0.0011384365 0.062411122 0.049294725 -0.10123771 -0.65594524 -0.08571929 -0.5192463
-0.2623416 0.158558 -0.09855268 -0.10138994 -0.04114519 -0.086027734 -0.2884517 -0.39521053
-0.1854116 0.2559948 0.20535249 0.33087724 0.30657855 0.23474987 0.06191899 0.18494475
-0.4428574 0.46001232 0.16032226 0.009170008 0.046148892 -0.08435031 -0.05642153 0.12209031
0.3540832 0.23401377 -0.106985 -0.03449291 -0.13407448 -0.19059832 -0.12857309 -0.12681045
-0.060683023 -0.061166037 0.14282332 -0.14341559 -0.07894938 -0.12091007 -0.19952625 -0.34480768
0.051377755 -0.3152625 -0.36315295 -0.2863582 0.12392856 -0.20025171 -0.12609123 -0.168457
00000000: 2f01 683d cf83 3f3e 14f4 94bd 8fd6 2c3d
00000010: c0a1 223d e368 0e3e b1a0 c43c 6a91 15be
00000020: 1e51 9ebe 5105 f2be 9509 8abe ff71 0e3f
00000030: 0d05 e43c 43f3 7f3d cc5c 823e e29d 893c
00000040: 2bf9 1d3c 3254 e73e 8a8b cf3e c0cc fabe
00000050: 85bb 1d3e 1211 1ebf 408f b1be ea76 5b3f
00000060: bb99 a3be 8248 9e3d 83f1 b93e 2fb0 d2bd
00000070: 87fe 99be 699a b7be 932b 25be 94b8 3a3e
00000080: 2248 71be 006d b23e 9f37 013e 449d a73d
00000090: aea5 823d 703c 6fbc be3c 3b3e b109 51bd
000000a0: e1f8 5e3e 7044 013e 8d62 1fbf 12a0 623d
000000b0: 7351 863d 884b 23be 5b85 0e3c fe93 f13e
000000c0: c6d6 b73b de72 5cbb 806b 68bd e439 23bd
000000d0: 8e92 e5bd bd5f d23b 9b33 1e3c 026f b0bc
000000e0: 0e4d 0a3d 33a7 0b3e c4fa 8f3e d6eb 223e
000000f0: cbdb 2d3e 5a95 2e3a 758f b03d c417 253e
00000100: 631a 963e e50c 933e 8784 073e 5e51 dc3d
00000110: 2510 99bd cbde fd3d 7202 933d def7 093e
00000120: 44bc c93d 225c b1bd a887 b7bd bae2 febc
00000130: b3a3 883e e6fe 313e d974 203c b774 613e
00000140: bad1 113d 940f debd 8fb2 173e 91e4 873e
00000150: 4313 3abc 33cb de3d 7575 b1bd daa9 173e
00000160: d399 623d 2d3b d63e 2954 be3e 785a a63e
00000170: 30ce 2e3f da57 343f c9bd 2e3e 4c91 fbbe
00000180: 302b 45be 57b7 1d3e 0bbc 24bd a92c 2d3e
00000190: 8e42 943d 3bfa ae3e 9b12 f83d 1fce 003f
000001a0: 5a7a 873f 64de b5bd ac4d 3a3e 2c98 b53e
000001b0: f309 273c 6092 2f3d a71e afbd e44f 3bbf
000001c0: 3084 5abd db09 2c3f f323 87bd 1166 c3be
000001d0: 1b92 ae3e 8a61 3ebf d1ce 4ebe ea7b 343f
000001e0: 5908 1c3e 1635 cfbd 6f4d a33d 4a69 0fbf
000001f0: ac00 c7bd e594 fe3e 9d3c 4bbe d5ad e23e
00000200: cf0b de3c a195 f23e adfa 3a3e 94d2 903e
00000210: a6b6 03bd dd83 a2bc 6b33 be3d ba7b 783e
00000220: 11d6 123d 69bc b13e 81d4 6ebd 61f1 1dbe
00000230: 5ada 623c 0ee4 b23e 9c0c 123e 417e 763e
00000240: 5ee1 44bd 1156 0a3e 6a1c af3e b96a 2bbe
00000250: 2854 8e3d 385e fb3e 82d9 413e 5cff 483c
00000260: 615b 163e 7cca a63e c08c 753e 9db4 7f3e
00000270: c437 d23d 6656 933e d399 a63e b574 b6bd
00000280: 33bc e23e 428f ec3e 6d1b 15bd 8a4c 7dbc
00000290: e0b3 37bc fd62 113c 9b1d 793d 566c 053e
000002a0: 9166 bfbd c9dd 9b3c 5404 bf3e 5977 28bf
000002b0: a7e8 90bd 2a56 d83e a32a f9bd a315 fa3d
000002c0: 2791 d23d d9f6 893e 4e73 2dbd b66c 07bf
000002d0: 94e3 aa3c eb13 ee3c 874e 84bd 2c4a 303e
000002e0: 9d98 d73c 8d70 2bbe 7295 d2bd 249a fe3d
000002f0: 7ec3 a43d 80ca 19bf 95b1 7cbd ef86 063f
00000300: 2913 d43d 2672 dd3d ef7a 8cbd 59ea 99bb
00000310: 333f 52be 0de5 5a3c a00e 27be 251a c03d
00000320: b117 673d 9737 953a cea2 7f3d 44e9 493d
00000330: b755 cfbd 07ec 27bf 988d afbd 53ed 04bf
00000340: a351 86be 075d 223e fdd5 c9bd 87a5 cfbd
00000350: dc87 28bd 4f2f b0bd f1af 93be 0959 cabe
00000360: 8adc 3dbe c011 833e ec47 523e be68 a93e
00000370: ddf7 9c3e 4562 703e c49e 7d3d 2862 3d3e
00000380: 35be e2be bc86 eb3e 852b 243e cd3d 163c
00000390: 9f06 3d3d dbbf acbd 431a 67bd 7c0a fa3d
000003a0: 654a b53e 4ea1 6f3e f41a dbbd 7048 0dbd
000003b0: d24a 09be 352c 43be aaa8 03be 99da 01be
000003c0: c38e 78bd 3d89 7abd 4740 123e 89db 12be
000003d0: 36b0 a1bd b39f f7bd 9c50 4cbe a28a b0be
000003e0: 7b71 523d 166a a1be 2fef b9be 8b9d 92be
000003f0: 42ce fd3d c90e 4dbe 0f1e 01be fe7f 2cbe

lstm.weight_hh_l0_reverse f4 [128, 32]
-0.13128482 -0.024880113 0.4767789 -0.02712378 0.14350821 -0.055464797 -0.2263405 -0.1014637
-0.053194236 -0.0037973693 0.16950218 -0.05249632 0.04355102 -0.4530363 0.044687577 -0.06326414
0.13036752 -0.9029903 -0.1937608 -0.103475265 0.16713376 -0.16494127 0.09838215 0.04037653
-0.65482914 0.2479348 -0.080244824 0.029342744 -0.19945449 0.10115321 0.1426176 -0.11266795
-0.085708626 -0.45346287 -0.6662105 -0.48871192 -0.9413895 -0.12835589 1.4535087 0.8517197
0.037526254 -0.068399295 -0.7042043 -0.03418343 0.014856635 0.40391153 -0.5696226 -1.1542096
1.249413 0.6752232 1.0907395 1.7698096 -1.7782106 0.9224346 0.62911487 1.1917931
0.38027775 -0.4369572 0.33691886 0.02893471 0.65548444 -0.27742046 -0.32341683 1.6297511
-0.94485754 -0.30842772 -0.66845334 -0.22030589 -0.8083178 1.1236979 0.38398552 0.7834482
-0.14227962 0.22106436 -0.22280735 0.5235237 -0.63096046 1.0861039 -0.76131 -0.6870858
0.9178721 -0.013432694 1.0202359 0.4582353 -0.5450887 0.41605785 1.1162577 0.4041408
0.47279993 -0.11972638 0.009809383 0.77437633 0.6922314 0.38408956 0.023312276 0.5372782
-0.61842585 -0.3741907 -0.16681454 0.3642833 -0.12897329 0.44063368 0.0087493025 -0.36822218
-0.046406746 -0.35139897 -0.011080492 0.016259264 0.20768258 0.023510188 0.18611993 0.056257416
-0.1270054 0.15227905 -0.31962448 0.17852618 -0.24012531 0.093872115 -0.65276 -0.21698005
0.16288897 0.051646236 0.8204632 -0.4030669 -0.1969005 0.5623447 -0.0278641 0.2011456
0.6889417 0.8573875 0.59440446 -0.7926743 0.8823656 -0.5061122 -0.11864614 0.14921364
-0.0015670573 0.52865696 0.8237692 0.7773959 -0.41142994 -0.7272582 -0.8651456 -0.06069304
-0.86793536 -0.72268283 0.20942222 -0.28653765 0.20806903 -0.54098606 -0.13547876 -0.39796314
-0.60238504 0.37968975 -0.11260138 1.2440145 -0.2434912 -0.5725784 0.086353846 -0.3423725
0.5840745 0.4212122 0.6488512 -0.2258923 0.4351502 -0.5813614 -0.4248221 -0.47366682
0.011641078 -0.011402029 0.22120036 0.09549747 -0.5193591 -0.40188438 0.14220855 0.7223923
-0.3453169 -0.11597825 -0.61991006 -0.22976223 0.55478084 -0.15715112 -0.4231526 -0.45782995
-0.10982924 0.17334396 -0.057879563 -0.43631315 -0.62296087 -0.081916176 -0.02222441 -0.64258575
-0.18264528 -0.42592233 -0.2984282 0.11487437 0.03507258 0.08857596 0.35615236 0.10014797
0.0057379296 -0.16974479 0.22891752 -0.12406067 0.062395155 0.31444165 -0.12857433 -0.1847655
0.013065173 -0.18623072 -0.05310566 0.39724666 -0.3840669 0.11288051 0.024130564 0.04611324
-0.072270855 -0.2859855 0.5968758 -0.0039974903 0.34939545 0.2180566 0.077041894 0.34186947
0.027820485 0.09105336 -0.08486784 0.17241466 0.37050804 0.150907 0.3306016 -0.12807593
-0.07682412 -0.08968071 -0.018719237 -0.13352764 -0.03927083 -0.09804878 -0.21503107 -0.48362243
0.7011881 -0.5330152 0.49003515 0.8580258 -0.49413556 0.18434778 0.1807429 0.6448068
-0.28438383 -0.15665558 0.22720127 0.20369592 0.6040677 0.04819436 0.24466264 0.5223213
00000000: 876f 06be 61d1 cbbc 5d1c f43e b132 debc
00000010: d1f3 123e 0e2f 63bd cec5 67be 33cc cfbd
00000020: 33e2 59bd 49dd 78bb fb91 2d3e 6206 57bd
00000030: 8e62 323d 60f4 e7be 520a 373d a190 81bd
00000040: 107f 053e 5f2a 67bf 3b69 46be d7ea d3bd
00000050: 1d25 2b3e 5de6 28be 957c c93d dc61 253d
00000060: e2a2 27bf 9fe2 7d3e 6657 a4bd 3260 f03c
00000070: cc3d 4cbe 6a29 cf3d 590a 123e 74be e6bd
00000080: 0188 afbd 492c e8be c58c 2abf 7338 fabe
00000090: e7fe 70bf ba6f 03be 930c ba3f 4d0a 5a3f
000000a0: 21b5 193d ee14 8cbd bc46 34bf ed03 0cbd
000000b0: 3e69 733c 7ecd ce3e c9d2 11bf 24bd 93bf
000000c0: c4ec 9f3f 6ddb 2c3f 5a9d 8b3f 1f89 e23f
000000d0: 689c e3bf ad24 6c3f ac0d 213f ad8c 983f
000000e0: c4b3 c23e dbb8 dfbe a180 ac3e 7c08 ed3c
000000f0: d4cd 273f 0e0a 8ebe e496 a5be af9b d03f
00000100: 2fe2 71bf 3dea 9dbe c21f 2bbf de97 61be
00000110: eaed 4ebf 55d5 8f3f c099 c43e 1090 483f
00000120: c0b1 11be b25e 623e 9c27 64be a605 063f
00000130: a086 21bf 7405 8b3f 36e5 42bf dbe4 2fbf
00000140: aaf9 6a3f cd14 5cbc 1797 823f d19d ea3e
00000150: ef8a 0bbf 8905 d53e 88e1 8e3f 8beb ce3e
00000160: d512 f23e 1b33 f5bd 89b7 203c 873d 463f
00000170: 1436 313f 63a7 c43e 63f9 be3c 108b 093f
00000180: 2851 1ebf ec95 bfbe 6ed1 2abe 5783 ba3e
00000190: 9311 04be bd9a e13e 3c59 0f3c 9e87 bcbe
000001a0: 0015 3ebd 91ea b3be f48a 35bc 2632 853c
000001b0: beaa 543e 7098 c03c 3996 3e3e 2d6e 663d
000001c0: b40d 02be 0aef 1b3e d2a5 a3be 91cf 363e
000001d0: 69e3 75be 0640 c03d 481b 27bf 0530 5ebe
000001e0: 5ecc 263e 018b 533d e009 523f c95e cebe
000001f0: 49a0 49be d2f5 0f3f 4143 e4bc 1df9 4d3e
00000200: 7c5e 303f bf7d 5b3f e42a 183f b4ec 4abf
00000210: b6e2 613f 9290 01bf bffc f2bd 76cb 183e
00000220: b865 cdba 1056 073f 8ae2 523f 6b03 473f
00000230: f2a6 d2be 982d 3abf 2f7a 5dbf 4499 78bd
00000240: 0331 5ebf be01 39bf c772 563e 10b5 92be
00000250: 0c10 553e 107e 0abf f2ba 0abe d3c1 cbbe
00000260: e835 1abf b266 c23e 8d9b e6bd de3b 9f3f
00000270: c255 79be 7f94 12bf 49da b03d 734b afbe
00000280: e885 153f 20a9 d73e 1d1b 263f 5050 67be
00000290: 02cc de3e 1ad4 14bf 4882 d9be 7584 f2be
000002a0: 38ba 3e3c 93cf 3abc 5982 623e 2d94 c33d
000002b0: b8f4 04bf cac3 cdbe 1e9f 113e b4ee 383f
000002c0: 60cd b0be 0186 edbd 6db2 1ebf ca46 6bbe
000002d0: 1e06 0e3f 39ec 20be 75a7 d8be b068 eabe
000002e0: 27ee e0bd 1481 313e 1f13 6dbd 7064 dfbe
000002f0: 5d7a 1fbf abc3 a7bd f70f b6bc 8080 24bf
00000300: 5d07 3bbe 7e12 dabe 95cb 98be 4143 eb3d
00000310: 44a8 0f3d 5067 b53d 9a59 b63e 611a cd3d
00000320: 3e05 bc3b 94d1 2dbe 5b69 6a3e 8513 febd
00000330: 1092 7f3d 7ffe a03e fda8 03be 2b33 3dbe
00000340: 4f0f 563c 44b3 3ebe 5285 59bd ea63 cb3e
00000350: 6ba4 c4be e62d e73d 76ad c53c 3de1 3c3d
00000360: be02 94bd b16c 92be dacc 183f 61fd 82bb
00000370: f6e3 b23e 3b4a 5f3e 24c8 9d3d 8409 af3e
00000380: c9e7 e33c 2f7a ba3d 31cf adbd 788d 303e
00000390: 3bb3 bd3e 5d87 1a3e 9d44 a93e 5626 03be
000003a0: f755 9dbd 85aa b7bd 1659 99bc 78bb 08be
000003b0: 73da 20bd cccd c8bd 1b31 5cbe 5c9d f7be
000003c0: 1081 333f af73 08bf e3e5 fa3e 94a7 5b3f
000003d0: 56ff fcbe aac5 3c3e ab14 393e 0f12 253f
000003e0: c29a 91be 526a 20be 73a7 683e aa95 503e
000003f0: 2ea4 1a3f 7367 453d d888 7a3e d9b6 053f

lstm.bias_ih_l0_reverse f4 [128]
0.038282227 0.7276025 0.69193965 1.1474459 -0.50618786 0.10747921 0.3543411 0.43880746
-0.26978675 0.20617765 0.13070253 -0.014038102 0.2969221 0.4692749 0.18424843 -0.58562535
0.16252571 0.4460638 0.847513 0.7853444 0.7473867 0.23816146 0.26630393 0.1835345
0.6570723 -0.027691979 0.29329988 0.12868573 0.60297203 -0.5333501 -0.16048887 0.81157404
0.0372199 0.21364866 -0.06321934 -0.29590285 0.23650591 0.11350369 0.13505241 -0.30432537
0.029706426 -0.16705945 0.1394308 0.33821413 0.04819663 0.24332383 0.4846712 0.27009732
-0.09338567 0.27880073 -0.51268214 0.009125965 0.29148108 0.3676838 -0.22834046 0.18034273
-0.6060999 0.14361344 -0.28142026 -0.10728188 0.3859365 -0.37570122 -0.20960084 0.12570383
-0.13160935 -0.31915653 -0.012781507 0.38939816 -0.34719864 0.28907156 0.21830304 0.2262791
0.112027444 -0.15379228 -0.16556635 -0.27256584 0.2228233 0.21629506 0.1425058 -0.08021459
0.21926297 0.16799088 0.14395726 0.37060326 -0.3545922 0.13098915 -0.35221094 0.29065254
0.3484382 0.09338476 0.3490609 -0.45804703 0.12052636 0.114307515 0.15182015 0.32181773
-0.4247007 0.5853334 -0.24041362 0.41755396 0.32345468 0.029204877 0.82942396 0.19963703
-0.24571192 0.11979457 -0.17760679 -0.084513105 0.29979476 -0.55406183 0.15488549 0.86762846
-0.7221599 0.046264667 0.56000125 0.24232161 0.21553318 0.5589186 -0.5253451 0.7323613
-0.13065143 0.4636188 0.92067397 0.28534836 0.11270348 0.013665737 0.0033029506 0.12165266
00000000: d3cd 1c3d 2844 3a3f f522 313f 82df 923f
00000010: 8795 01bf 0f1e dc3d 326c b53e 5fab e03e
00000020: 7d21 8abe 3c20 533e e2d6 053e 1100 66bc
00000030: 2c06 983e cd44 f03e 9fab 3c3e 8beb 15bf
00000040: 246d 263e 7962 e43e 9df6 583f 550c 493f
00000050: bc54 3f3f 99e0 733e fd58 883e 78f0 3b3e
00000060: e435 283f 4ada e2bc 672b 963e 31c6 033e
00000070: 605c 1a3f a289 08bf 3257 24be 51c3 4f3f
00000080: e573 183d b7c6 5a3e 2479 81bd 9480 97be
00000090: 9b2e 723e 9f74 e83d 2e4b 0a3e 89d0 9bbe
000000a0: e45a f33c a211 2bbe f3c6 0e3e 672a ad3e
000000b0: d469 453d e229 793e d326 f83e 324a 8a3e
000000c0: fc40 bfbd f8be 8e3e 233f 03bf 1285 153c
000000d0: 023d 953e 0d41 bc3e 15d2 69be c4ab 383e
000000e0: 5d29 1bbf 670f 133e 5116 90be 9ab6 dbbd
000000f0: 7899 c53e e95b c0be 9aa1 56be 81b8 003e
00000100: 9ac4 06be 7c68 a3be 8769 51bc 325f c73e
00000110: 05c4 b1be 3001 943e d58a 5f3e b5b5 673e
00000120: a56e e53d b97b 1dbe 3a8a 29be c08d 8bbe
00000130: cb2b 643e 747c 5d3e 0aed 113e 8c47 a4bd
00000140: 7986 603e cd05 2c3e 8869 133e b6bf bd3e
00000150: 1c8d b5be 0522 063e fe54 b4be 69d0 943e
00000160: 7e66 b23e 8240 bf3d 1cb8 b23e 2485 eabe
00000170: 86d6 f63d 0f1a ea3d be76 1b3e 4bc5 a43e
00000180: 5f72 d9be 69d8 153f fd2e 76be a2c9 d53e
00000190: da9b a53e 113f ef3c 2155 543f a66d 4c3e
000001a0: e89b 7bbe db56 f53d 8ede 35be 3515 adbd
000001b0: b37e 993e ffd6 0dbf 4d9a 1e3e e61c 5e3f
000001c0: 79df 38bf 0580 3d3d 3e5c 0f3f 2823 783e
000001d0: bbb4 5c3e 4a15 0f3f 047d 06bf 087c 3b3f
000001e0: 7dc9 05be 715f ed3e 4ab1 6b3f 2e19 923e
000001f0: 15d1 e63d 41e6 5f3c 5176 583b 0825 f93d

lstm.bias_hh_l0_reverse f4 [128]
0.02505011 0.7778231 0.59315693 1.2247484 -0.402781 -0.006700664 0.26863548 0.5015669
-0.17260325 0.27518734 0.2348871 0.06659318 0.15946381 0.38054872 0.18734837 -0.6802069
0.31603602 0.5362789 0.84484893 0.67028385 0.67339015 0.1978328 0.3126372 0.3297001
0.64100236 -0.054083463 0.31104815 0.020602584 0.6568641 -0.495748 -0.07045165 0.74591124
-0.000767625 0.24223845 0.094861835 -0.19586149 0.15491661 0.079758644 0.02126012 -0.19043007
-0.094859645 -0.32508853 0.12595886 0.29315898 0.2488002 0.064023845 0.5073145 0.28367263
-0.07833364 0.35728812 -0.44315886 -0.11858492 0.3506162 0.24384972 -0.24411252 0.3128072
-0.5730251 0.15689816 -0.3828326 -0.1849096 0.40298748 -0.21770777 -0.21587652 0.21576323
-0.085897304 -0.4060242 -0.025185468 0.40963894 -0.23372017 0.2671908 0.28574705 0.3154328
0.26955134 -0.19683379 -0.20492552 -0.20579322 0.27277982 0.11733662 0.14625417 0.010006936
0.15160425 0.10614193 0.13548683 0.33180118 -0.35713473 0.104630485 -0.40286717 0.2698439
0.21460922 -0.06242723 0.39524698 -0.320988 0.16281672 0.12438648 0.29469946 0.25142896
-0.40387625 0.6297672 -0.23664057 0.52949035 0.2454411 -0.11416118 0.7900289 0.4287268
-0.21754622 0.24783166 0.019573275 -0.06797327 0.16666631 -0.5916959 0.019728638 0.82218206
-0.8167788 0.13786806 0.3645742 0.363049 0.34038836 0.46265474 -0.3578076 0.79638386
-0.028816726 0.6166437 0.9276683 0.29703322 0.2400228 0.037320197 -0.036024485 0.1892403
00000000: e335 cd3c 6a1f 473f 22d9 173f 8ec4 9c3f
00000010: 5039 cebe 3e91 dbbb 978a 893e b066 003f
00000020: e8be 30be 5be5 8c3e 3e86 703e 0162 883d
00000030: 7b4a 233e 48d7 c23e 40d8 3f3e 0a22 2ebf
00000040: 79cf a13e 9349 093f 0548 583f b997 2b3f
00000050: 4c63 2c3f ae94 4a3e fc11 a03e 74ce a83e
00000060: bb18 243f 9f86 5dbd b441 9f3e c0c6 a83c
00000070: 3f28 283f afd2 fdbe f448 90bd 0af4 3e3f
00000080: 713a 49ba 5b0d 783e ec46 c23d ea8f 48be
00000090: 76a2 1e3e 8058 a33d b429 ae3c 1a00 43be
000000a0: c645 c2bd 0172 a6be 5cfb 003e ef18 963e
000000b0: 7bc5 7e3e ef1e 833d 5ddf 013f 8a3d 913e
000000c0: 636d a0bd 78ee b63e b8e5 e2be a7dc f2bd
000000d0: f783 b33e beb3 793e a2f8 79be 4428 a03e
000000e0: c6b1 12bf e9a9 203e a202 c4be f158 3dbe
000000f0: 6054 ce3e c9ee 5ebe bc0e 5dbe 09f1 5c3e
00000100: edea afbd 67e2 cfbe c151 cebc 32bc d13e
00000110: 5754 6fbe 3ccd 883e 704d 923e 6880 a13e
00000120: a202 8a3e cc8e 49be ffd7 51be 75bb 52be
00000130: cca9 8b3e 2f4e f03d a7c3 153e 22f4 233c
00000140: 253e 1b3e f160 d93d 0fbd 0a3e d8e1 a93e
00000150: 5dda b6be 8248 d63d 9b44 cebe fb28 8a3e
00000160: 85c2 5b3e b2b3 7fbd d05d ca3e 8a58 a4be
00000170: 6db9 263e 57be fe3d d9e2 963e 4cbb 803e
00000180: dec8 cebe 6c38 213f e851 72be ae8c 073f
00000190: e954 7b3e 56cd e9bd 563f 4a3f 1482 db3e
000001a0: 70c4 5ebe 95c7 7d3e 2258 a03c 9235 8bbd
000001b0: 93aa 2a3e 6279 17bf f49d a13c 867a 523f
000001c0: 6a18 51bf 492d 0d3e 78a9 ba3e 8fe1 b93e
000001d0: 6247 ae3e 15e1 ec3e 8f32 b7be d0df 4b3f
000001e0: 0e11 ecbc 5ddc 1d3f ab7b 6d3f bd14 983e
000001f0: 89c8 753e 10dd 183d 698e 13bd 36c8 413e

lstm.weight_ih_l1 f4 [128, 64]
-0.10714492 0.060657054 0.16228014 -0.091654636 -0.046369746 0.22677429 -0.1027878 0.11878112
0.64622676 0.08913933 0.20499754 0.052039206 -0.8210439 -0.33392054 0.75375444 -0.07293569
0.03607269 0.15231104 0.1334042 1.0979292 -0.0050622295 0.34580886 -0.22749476 -0.71563745
0.57738596 -0.06429348 -0.14044146 0.16015138 0.2070476 -0.10691979 0.35371163 -0.20282969
0.35388106 -0.033375286 0.10469219 -1.0434457 0.11855573 -0.4032936 -1.0788925 0.16570789
0.15494879 0.39484715 0.06638847 0.27559632 0.07786065 0.15974122 -0.31748268 0.22855245
0.26483378 0.23524344 -0.58453315 -0.5581098 0.68582016 -0.32281062 -0.12618333 -0.77962345
-0.21146806 -0.12130546 0.17469837 0.12050895 -0.42386746 -0.946586 -0.098854594 -0.14215954
-0.15050188 -0.42424098 -0.13736424 -0.012485466 0.16621077 0.2825966 -0.101492986 -0.13326202
0.13630867 0.135334 0.012328338 0.0027817052 0.08075905 -0.04113359 0.19168854 -0.13480967
0.08535708 0.03893855 -0.099231884 -0.10928544 0.13520595 0.14552319 -0.011297514 -0.060408767
0.049298253 -0.2715424 0.50016904 -0.072646976 -0.0853747 -0.011858324 0.35827067 -0.05131285
0.17057021 0.090760596 0.30401993 -0.34760535 -0.028868917 -0.14607415 -0.20547141 -0.24950914
0.12832251 0.10078407 0.40193233 -0.15519424 0.061338976 -0.013369519 0.18955083 0.1981357
-0.013802697 -0.5359142 -0.11608812 -0.00013954694 0.28180456 -0.2980802 -0.29762056 -0.20496511
-0.683291 0.15870744 0.15505518 -0.008943892 0.047014993 -0.02935538 0.1161595 -0.31442174
0.20608923 -0.3298142 -0.29690242 0.30446523 -0.26798236 0.31876913 -0.066711985 -0.038377095
-0.012775725 0.5223238 -0.51106834 0.079811096 -0.21076787 -0.0640846 0.17268138 0.23307188
-0.09926366 0.1125857 0.2040206 0.29419452 -0.045687117 0.16709487 0.072759755 0.27780804
0.1853152 0.18820865 0.44056663 0.017342385 -0.061102513 0.10939031 0.32103652 -0.14100868
-0.06797971 0.87364334 0.37856305 0.01604128 0.19800928 -0.0075757434 -0.8746874 0.004385723
-0.13005789 -0.14137754 -0.53353643 -0.14414343 -0.059833962 -0.14847356 0.5227527 0.8180494
0.480142 -0.37559378 -0.9708356 -0.6555719 1.0684328 0.28320387 0.3750354 -1.1988494
-0.77177113 1.1155728 0.1358791 -0.068067975 -0.8372359 -0.049666777 -0.075497806 -1.0171721
-0.029903896 -0.35522157 -1.068763 0.060679674 -0.055907868 1.4906447 -0.013638817 0.14227328
0.18018945 -0.102887586 -0.47676998 -0.14485116 -0.10963411 0.23196928 0.89198244 0.40643528
0.15608685 0.00821713 0.07819224 0.09997146 0.021189332 0.52524525 0.069183685 0.16490468
0.01471948 0.0402311 0.31160426 -0.1802246 -0.11555523 -0.29401097 0.21794745 -0.18507688
-0.073263764 0.043433078 -0.09944743 0.02738576 -0.5287749 0.1274361 0.05108244 0.2234009
0.053410247 0.022743652 0.23710068 0.11890128 -0.07610722 -0.83670175 0.042741407 -0.2712333
-0.11132277 -0.66704196 0.21674493 0.38417846 -0.08499076 0.122926205 -0.1422717 0.31323603
-0.4665423 0.19106294 0.23531666 0.16446753 0.06320661 0.08828595 0.046839487 0.26961347
00000000: cc6e dbbd 8873 783d c42c 263e 6db5 bbbd
00000010: 34ee 3dbd 8537 683e 6982 d2bd 8443 f33d
00000020: 1e6f 253f ae8e b63d e0ea 513e 1027 553d
00000030: ef2f 52bf a2f7 aabe 0df6 403f 4f5f 95bd
00000040: f5c0 133d 6df7 1b3e 1c9b 083e f288 8c3f
00000050: 0fe1 a5bb dc0d b13e 63f4 68be 0434 37bf
00000060: 91cf 133f 4dac 83bd e3cf 0fbe b9fe 233e
00000070: 4904 543e c3f8 dabd b119 b53e 96b2 4fbe
00000080: e62f b53e 86b4 08bd dc68 d63d a18f 85bf
00000090: 59cd f23d 807c cebe 2619 8abf 54af 293e
000000a0: e5aa 1e3e 6829 ca3e aef6 873d f61a 8d3e
000000b0: 6875 9f3d 3493 233e 178d a2be a709 6a3e
000000c0: 4b98 873e a8e3 703e f7a3 15bf 49e0 0ebf
000000d0: e991 2f3f 6f47 a5be 3436 01be 6795 47bf
000000e0: 158b 58be ff6e f8bd 21e4 323e 65cd f63d
000000f0: 2805 d9be 7653 72bf 4774 cabd 4592 11be
00000100: 2a1d 1abe 1d36 d9be 36a9 0cbe d78f 4cbc
00000110: 2833 2a3e 80b0 903e 8edb cfbd d775 08be
00000120: 8094 0b3e ff94 0a3e ccfc 493c 454d 363b
00000130: 0065 a53d b27b 28bd 004a 443e 8c0b 0abe
00000140: b1cf ae3d 077e 1f3d 163a cbbd 0bd1 dfbd
00000150: 6e73 0a3e 0804 153e 3519 39bc 2f6f 77bd
00000160: f7ec 493d 9b07 8bbe 140b 003f f0c7 94bd
00000170: eed8 aebd 6a49 42bc 416f b73e 6c2d 52bd
00000180: f5a9 2e3e b1e0 b93d 80a8 9b3e 54f9 b1be
00000190: 827e ecbc 7694 15be 1967 52be 537f 7fbe
000001a0: fa66 033e e167 ce3d 13ca cd3e 3deb 1ebe
000001b0: 943e 7b3d d40b 5bbc 9d19 423e 16e4 4a3e
000001c0: b524 62bc ac31 09bf 9cbf edbd 5953 12b9
000001d0: b048 903e f89d 98be b961 98be 60e2 51be
000001e0: 29ec 2ebf 3484 223e c9c6 1e3e 6789 12bc
000001f0: cb92 403d b27a f0bc 08e5 ed3d e3fb a0be
00000200: 0e09 533e 68dd a8be 9803 98be dee2 9b3e
00000210: fc34 89be b535 a33e 4ba0 88bd 4d31 1dbd
00000220: 4651 51bc 03b7 053f 60d5 02bf 0074 a33d
00000230: 88d3 57be c93e 83bd 63d3 303e 65aa 6e3e
00000240: bf4a cbbd 5593 e63d c7ea 503e aaa0 963e
00000250: 6a22 3bbd eb1a 2b3e 1103 953d db3c 8e3e
00000260: 45c3 3d3e c5b9 403e f391 e13e 9e11 8e3c
00000270: a146 7abd 0708 e03d e65e a43e 9464 10be
00000280: f238 8bbd 17a7 5f3f 04d3 c13e 0169 833c
00000290: f2c2 4a3e f13d f8bb 83eb 5fbf 1cb6 8f3b
000002a0: e52d 05be 46c5 10be d895 08bf 569a 13be
000002b0: 7514 75bd 7409 18be 1fd3 053f af6b 513f
000002c0: 2cd5 f53e d44d c0be af88 78bf 8fd3 27bf
000002d0: 68c2 883f 1900 913e a404 c03e e673 99bf
000002e0: cb92 45bf 17cb 8e3f e423 0b3e 3967 8bbd
000002f0: 1855 56bf 646f 4bbd 989e 9abd b232 82bf
00000300: 04f9 f4bc 9adf b5be 3acd 88bf 408b 783d
00000310: a6ff 64bd 72cd be3f 5875 5fbc 16b0 113e
00000320: 9583 383e bab6 d2bd 321b f4be dd53 14be
00000330: d987 e0bd 5b89 6d3e f658 643f 4918 d03e
00000340: 3bd5 1f3e 24a1 063c 4123 a03d d6bd cc3d
00000350: 4095 ad3c 7976 063f 2db0 8d3d c6dc 283e
00000360: f929 713c 5ec9 243d 988a 9f3e cc8c 38be
00000370: 38a8 ecbd 9b88 96be 9e2d 5f3e cb84 3dbe
00000380: 500b 96bd e2e6 313d 18ab cbbd 1a58 e03c
00000390: cb5d 07bf 9c7e 023e d23b 513d 35c3 643e
000003a0: b4c4 5a3d e550 ba3c 85ca 723e 8482 f33d
000003b0: 1ade 9bbd 1632 56bf 9d11 2f3d 17df 8abe
000003c0: 31fd e3bd 43c3 2abf 62f2 5d3e 0ab3 c43e
000003d0: a30f aebd bcc0 fb3d acaf 11be 7960 a03e
000003e0: a2de eebe 01a6 433e daf6 703e 2d6a 283e
000003f0: 7872 813d 44cf b43d c3da 3f3d c70a 8a3e

lstm.weight_hh_l1 f4 [128, 32]
0.16901426 0.13728069 -0.139301 0.10886885 0.043458335 -0.1527865 -0.021481225 -0.31511143
0.19543456 0.083063856 -0.005616694 0.2307583 -0.2084466 0.0058304355 0.13549577 0.058156352
0.05325713 0.2082775 -0.10989821 0.002173758 0.059219986 0.32935983 -0.18708816 0.075424194
-0.12390714 -0.1899438 -0.20768544 0.15192239 0.16294715 -0.6208698 -0.066503204 -0.011302474
-0.054122437 -0.100916356 -0.06955577 0.071938254 -0.07878396 -0.16126332 -0.036024746 -0.02448255
0.006350866 -0.040598642 -0.09865226 -0.17074189 -0.11324231 -0.21447891 -0.13273963 -0.07741635
0.08865832 0.044118814 -0.086386606 0.15263642 -0.044286977 0.018943448 0.11065425 -0.02393435
0.066892855 0.10477183 0.13609943 0.1435264 0.25811353 -0.03836061 -0.350609 -0.15840995
0.248376 -0.00914926 0.08392223 -0.10685984 0.049814586 -0.23656476 -0.067525096 -0.34275138
0.15831055 -0.0319646 0.0746026 0.04308608 -0.3008155 0.0006832659 0.031438027 0.28640777
-0.014570757 -0.041771207 -0.036855537 -0.29564977 0.06961868 0.25024003 -0.04073968 -0.026338274
-0.290678 0.019362912 -0.10265555 -0.389537 0.23364356 -0.7448852 -0.1012834 -0.027352152
0.17324735 0.15424642 0.053835806 -0.20704216 0.070773676 0.061835818 -0.0036542148 -0.31054226
-0.05971361 -0.07670109 -0.029520068 0.005109336 0.11867795 0.31746292 0.0053170626 0.15127648
-0.12262849 0.12952955 0.017858539 0.29501134 0.31152716 0.114468396 -0.061477743 0.09265685
-0.25145298 -0.03982176 -0.14046776 -0.090820365 -0.1899328 -0.58658826 0.02841182 0.08860486
-0.17899545 0.016580837 -0.089733 0.20115626 0.08591557 -0.053947948 0.008275268 0.14576733
0.05672288 -0.03146273 -0.103319936 -0.060571853 -0.20058648 -0.058641814 -0.15787177 0.029920718
0.11725758 -0.0018012825 0.13178296 0.15973467 -0.062199537 -0.24992904 0.0015959125 -0.21042827
0.24905972 0.18381277 0.115212336 0.15336242 0.16388284 0.009003641 -0.16452356 -0.19675317
0.19614854 0.22920914 0.0660557 0.025779616 0.054867834 0.28675285 0.19060883 0.064504124
0.908162 -0.017668024 0.1608858 0.13710316 0.1308767 0.17225355 0.19802691 0.7547618
-0.17125562 -0.2005895 0.1299079 0.032513257 0.24384342 0.104065396 -0.15063237 0.18027177
-0.8023288 0.0375983 -0.21884613 -0.04933899 0.0008087397 -0.7997271 0.73439765 0.21428753
-0.09879151 0.008669575 -0.23409253 0.13558725 0.12134907 -0.21440509 -0.23572867 0.15302803
-0.038417827 0.15129445 -0.18200858 0.020786684 -0.13322875 -0.26953456 -0.06679976 -0.08822821
-0.044216435 -0.15295635 0.026711082 0.054092966 -0.15189764 -0.014665976 0.14516124 -0.026426926
0.06537146 0.03661593 0.08779523 0.19825213 0.07369902 0.03045078 -0.2434943 -0.03245375
0.03891658 0.1500796 0.011263207 0.24656878 0.06068029 -0.24603169 -0.09184883 -0.32316053
0.110669844 -0.21433274 0.05444247 -0.08415644 -0.46892017 -0.22278689 0.037085112 0.091916084
0.026274621 0.0970413 -0.026744543 0.2655272 -0.049564824 0.36247662 0.025679387 0.21952623
0.06544959 -0.027798198 -0.22309095 0.05634537 0.4062666 -0.56745636 -0.45911282 -0.04472095
00000000: 1312 2d3e 4f93 0c3e eca4 0ebe a2f6 de3d
00000010: 5e01 323d 1074 1cbe 65f9 afbc 4956 a1be
00000020: ff1f 483e 621d aa3d 3f0c b8bb e74b 6c3e
00000030: 0773 55be 3d0d bf3b 67bf 0a3e 5b35 6e3d
00000040: 2624 5a3d b246 553e 5012 e1bd 9c75 0e3b
00000050: a890 723d daa1 a83e 0a94 3fbe 0078 9a3d
00000060: 07c3 fdbd a180 42be 7eab 54be 8b91 1b3e
00000070: 9edb 263e 53f1 1ebf d532 88bd 032e 39bc
00000080: 7daf 5dbd 3cad cebd 4173 8ebd 5d54 933d
00000090: 7c59 a1bd 3622 25be af8e 13bd a18f c8bc
000000a0: ed1a d03b c34a 26bd 320a cabd f6d6 2ebe
000000b0: 96eb e7bd 5ca0 5bbe e6ec 07be 778c 9ebd
000000c0: 7e92 b53d eeb5 343d 76eb b0bd b94c 1c3e
000000d0: 4366 35bd 4a2f 9b3c b29e e23d f811 c4bc
000000e0: 1fff 883d 9d92 d63d a65d 0b3e 96f8 123e
000000f0: 7527 843e 0420 1dbd 0683 b3be 3836 22be
00000100: 4756 7e3e c7e6 15bc 6bdf ab3d 55d9 dabd
00000110: 610a 4c3d 083e 72be 994a 8abd 1c7d afbe
00000120: 291c 223e 50ed 02bd 3fc9 983d 087b 303d
00000130: 7d04 9abe 331d 333a 29c5 003d 0aa4 923e
00000140: 2fba 6ebc 4918 2bbd d5f5 16bd 685f 97be
00000150: 3d94 8e3d 761f 803e a7de 26bd 5dc3 d7bc
00000160: bfd3 94be f89e 9e3c 133d d2bd 6571 c7be
00000170: 4240 6f3e ccb0 3ebf ac6d cfbd 9f11 e0bc
00000180: c167 313e c6f2 1d3e ef82 5c3d dc02 54be
00000190: caf1 903d 8e47 7d3d 8d7b 6fbb 65ff 9ebe
000001a0: 4296 74bd 7615 9dbd 12d4 f1bc 386c a73b
000001b0: 6d0d f33d 808a a23e c13a ae3b 39e8 1a3e
000001c0: a524 fbbd 65a3 043e 124c 923c ba0b 973e
000001d0: 7d80 9f3e 686e ea3d 16d0 7bbd e0c2 bd3d
000001e0: 72be 80be 241c 23bd c8d6 0fbe 0700 babd
000001f0: be7d 42be a62a 16bf e8bf e83c 7776 b53d
00000200: 954a 37be 89d4 873c efc5 b7bd e8fb 4d3e
00000210: 81f4 af3d 86f8 5cbd fd94 073c 0844 153e
00000220: 4056 683d 10df 00bd 6799 d3bd 311a 78bd
00000230: 8b66 4dbe 6632 70bd 23a9 21be 4b1c f53c
00000240: be24 f03d 0319 ecba 1df2 063e 7c91 233e
00000250: f1c4 7ebd 66ed 7fbe f02d d13a 827a 57be
00000260: 8309 7f3e 6a39 3c3e 72f4 eb3d 0a0b 1d3e
00000270: e7d0 273e 0284 133c dd78 28be aa79 49be
00000280: 2adb 483e cdb5 6a3e 3648 873d c62f d33c
00000290: 18bd 603d 45d1 923e f62e 433e bd1a 843d
000002a0: 4e7d 683f 88bc 90bc 3fbf 243e c564 0c3e
000002b0: 8b04 063e 3c63 303e 91c7 4a3e 1238 413f
000002c0: a25d 2fbe 5567 4dbe 9406 053e 9f2c 053d
000002d0: 17b2 793e 3d20 d53d 5f3f 1abe 2a99 383e
000002e0: 6c65 4dbf ad00 1a3d 3319 60be ae17 4abd
000002f0: 9a01 543a eaba 4cbf 7c01 3c3f 316e 5b3e
00000300: 3453 cabd d50a 0e3c f4b5 6fbe 62d7 0a3e
00000310: dc85 f83d 028d 5bbe db62 71be 61b3 1c3e
00000320: 035c 1dbd efec 1a3e 7560 3abe d648 aa3c
00000330: 1e6d 08be 6f00 8abe 50ce 88bd feb0 b4bd
00000340: 4b1c 35bd 97a0 1cbe 33d1 da3c 9690 5d3d
00000350: 0e8b 1bbe 9049 70bc 26a5 143e 487d d8bc
00000360: 79e1 853d 96fa 153d fccd b33d 9b02 4b3e
00000370: 83ef 963d ea73 f93c 9256 79be 39ee 04bd
00000380: fe66 1f3d 77ae 193e 5089 383c 877c 7c3e
00000390: e58b 783d bbef 7bbe 3d1b bcbd 4c75 a5be
000003a0: dfa6 e23d 0b7a 5bbe 11ff 5e3d 365a acbd
000003b0: 4e16 f0be 3f22 64be 8fe6 173d 803e bc3d
000003c0: e03d d73c 97bd c63d 5f17 dbbc 2ef3 873e
000003d0: 7c04 4bbd 8996 b93e 945d d23c 7ccb 603e
000003e0: 6f0a 863d 0cb9 e3bc f471 64be 67ca 663d
000003f0: 2d02 d03e d244 11bf d610 ebbe 512d 37bd
